model/BRCA_C3.pth (torch, 5095 bytes, 2 tensors)

clf.0.weight f4 [5, 200]
0	0x3d6b7779	0.057486985
1	0xbd640f61	-0.05567873
2	0xbe0bcda5	-0.13652666
3	0x3e3f6c7e	0.1869373
4	0xbca43827	-0.020046307
5	0xbc5de0f8	-0.013542406
6	0x3c02613c	0.007957753
7	0xbcdff1a9	-0.027336912
8	0xbdb80b76	-0.08986561
9	0xbd8b326e	-0.06796728
10	0x3da00316	0.078130886
11	0x3dbe7461	0.09299541
12	0x3d135512	0.0359698
13	0x3d9c3fb7	0.0762934
14	0xbc87b395	-0.016565124
15	0x3d999b29	0.075002976
16	0xbdee49b8	-0.116351545
17	0xbdc27ab6	-0.094960615
18	0x3c27eea0	0.010249764
19	0xbd89c340	-0.06726694
20	0xbe2c58ee	-0.16830799
21	0x3d0d8621	0.034551743
22	0xbc3ef7fb	-0.011655803
23	0x3d2c8895	0.042122442
24	0xbe0f2461	-0.13978721
25	0xbd963a85	-0.073353805
26	0x3c0a6603	0.008447173
27	0xbe6036c9	-0.21895899
28	0x3d93bbe2	0.0721357
29	0xbd50ca08	-0.050973922
30	0x3df990f2	0.12185849
31	0x3dbc267a	0.09187026
32	0xbe9b8bb8	-0.30380034
33	0x3d552cee	0.0520448
34	0xbe231207	-0.15924846
35	0x3d8c7b4c	0.068594545
36	0xbc712657	-0.014718614
37	0xbdb9842f	-0.09058415
38	0xbe33a85d	-0.17544694
39	0x3dbbd733	0.09171905
40	0x3e30fc14	0.1728366
41	0xbd306e4b	-0.043073934
42	0x3e78bce6	0.24290809
43	0xbde5954d	-0.112101175
44	0xbe186b85	-0.14884765
45	0xba06ef93	-0.00051473937
46	0x3d766487	0.060154464
47	0xbd68d512	-0.056843825
48	0xbc5912ae	-0.0132490825
49	0x3da2c95e	0.07948564
50	0xbc6577a5	-0.014005576
51	0x3d0b8d96	0.034070574
52	0x3a8443fd	0.0010091063
53	0x3e860590	0.2617612
54	0xbde82ea6	-0.113370225
55	0x3c83bf99	0.016082572
56	0xbdd92d08	-0.10604292
57	0xbc783daf	-0.015151425
58	0xbc0cdf4b	-0.008598159
59	0xbdefa03e	-0.11700486
60	0x3dcb4e1e	0.09927009
61	0xbd0dd449	-0.03462628
62	0xbe53dbfa	-0.20689383
63	0xbe8c2a5c	-0.27376068
64	0x3d1b3aea	0.03789798
65	0x3d604a91	0.054758612
66	0x3dc7c0dd	0.097535826
67	0x3d9d2447	0.07672935
68	0x3df36b16	0.118856594
69	0x3e148894	0.14505225
70	0xbe42b156	-0.19012961
71	0x3c283ac3	0.010267916
72	0x3e0fb908	0.14035428
73	0x3d7c6493	0.061619353
74	0x3d86015f	0.0654323
75	0xbc97d7a7	-0.018535448
76	0xbe22cc9b	-0.15898363
77	0x3db51c04	0.08843234
78	0xbe335ded	-0.17516299
79	0x3e473644	0.19454294
80	0xbcfedbe4	-0.031110711
81	0x3bcd99ec	0.0062744524
82	0xbe8d5547	-0.27604124
83	0xbcc612de	-0.024178918
84	0x3ddca5d1	0.107738145
85	0x3d990080	0.074707985
86	0x3d9d91a9	0.07693798
87	0x3ccb4e52	0.02481762
88	0x3caac403	0.020845419
89	0x3de916a8	0.113812745
90	0x3e3a85a3	0.18215041
91	0x3e01180e	0.12606832
92	0xbe1469f8	-0.14493549
93	0xbd01d71c	-0.031699285
94	0x3e262bfb	0.16227715
95	0x3b809cff	0.0039249654
96	0xbd02d71b	-0.03194342
97	0xbd1d3ab3	-0.038386058
98	0xbc17e0eb	-0.009269933
99	0xbb8e543a	-0.0043435367
100	0xbe68ba5b	-0.22727339
101	0xbe9af997	-0.30268547
102	0x3e23df77	0.16003214
103	0xbbe12a14	-0.006871471
104	0x3e378fe1	0.17925979
105	0xbdab2c78	-0.08358091
106	0x3d24ff39	0.04028246
107	0x3cb503ca	0.022096533
108	0x3d5bf8e6	0.053704165
109	0xbd16374e	-0.036673836
110	0x3d9b2fa4	0.07577446
111	0xbdf3bcff	-0.119012825
112	0x3ca024b2	0.019548748
113	0x3d8efe6d	0.069821216
114	0x3d7e893b	0.062142592
115	0xbd741109	-0.05958656
116	0x3e6209d6	0.22074065
117	0x3e046f72	0.12933138
118	0x3c5657f9	0.013082498
119	0x3ddd732c	0.10812983
120	0x3e368427	0.1782385
121	0x3e248d70	0.16069579
122	0xbd1709de	-0.036874644
123	0x3d1c2aca	0.038126744
124	0x3dcd6e1a	0.10030766
125	0x3d080eda	0.03321729
126	0x3e00d30b	0.12580507
127	0xbd93f2c3	-0.072240375
128	0xbcb7febe	-0.022460338
129	0x3e13515f	0.1438651
130	0xbd5fb443	-0.05461527
131	0x3e0df89d	0.1386437
132	0x3d97dc25	0.07415036
133	0xbe305c9e	-0.1722283
134	0x3d96efea	0.07369979
135	0xbe12fa82	-0.14353374
136	0x3e83ec79	0.25766352
137	0xbcb7ed1d	-0.022451932
138	0x3a5f6ebe	0.0008523277
139	0xbe45a919	-0.19302787
140	0xbcca5acf	-0.024701504
141	0x3d98a965	0.074541844
142	0x3daecce5	0.08535174
143	0xbe49866e	-0.19680187
144	0xbce10b4e	-0.02747121
145	0x3d833837	0.064072065
146	0x3d99549d	0.07486842
147	0xbe3ed4cb	-0.18635862
148	0x3de037e0	0.10948157
149	0x3d02238e	0.03177219
150	0xbe185701	-0.1487694
151	0x3ce94aab	0.028477987
152	0xbe510930	-0.20413661
153	0xbe629c71	-0.2212999
154	0xbc0fd661	-0.008779139
155	0x3ac832ff	0.0015273987
156	0x3db320e5	0.087465085
157	0xbd22aa89	-0.039713416
158	0xbc3d4f29	-0.011554518
159	0xbe721698	-0.23641431
160	0x3defb2fb	0.1170406
161	0x3e0e4c61	0.13896324
162	0x3e3d54c0	0.18489361
163	0xbd9b178d	-0.07572851
164	0xbdc44f5a	-0.095854476
165	0xbd8b4715	-0.06800667
166	0xbe0db8eb	-0.13840072
167	0xbe9b0e56	-0.30284375
168	0xbd217dff	-0.0394268
169	0xbe940343	-0.28908738
170	0xbd995d12	-0.07488455
171	0x3ce3ecab	0.027822813
172	0x3d1bf7a8	0.03807798
173	0x3e07fcaf	0.13279985
174	0xbe43ef70	-0.19134307
175	0xbdb38c19	-0.08766956
176	0x3d9c1067	0.07620316
177	0x3cc39749	0.02387585
178	0x3b8b3c8b	0.0042491606
179	0x3cea6570	0.028612822
180	0x3e8685c8	0.26273942
181	0xbe6acda2	-0.22930005
182	0x3d8c8302	0.06860925
183	0xbe456a61	-0.19278862
184	0xbe1b8474	-0.15187246
185	0xbd871297	-0.065953426
186	0xbd21b49e	-0.03947889
187	0xbe164d57	-0.1467794
188	0x3e11231c	0.1417355
189	0xbd6a0fa5	-0.057143826
190	0x3e0e82f0	0.13917136
191	0x3deae904	0.114702255
192	0x3c41a3de	0.011818854
193	0x3e07a6b7	0.1324719
194	0xbda76732	-0.0817398
195	0x3e0ea0d6	0.13928542
196	0xbd64a502	-0.055821426
197	0x3d2600d4	0.040528134
198	0x3dce1cb7	0.10064071
199	0xbd28c661	-0.041204814
200	0xbe04ebb3	-0.12980537
201	0x3d9b10ee	0.075715885
202	0xbe594504	-0.21217734
203	0x3e3cb184	0.18427092
204	0xbe0685d2	-0.13136986
205	0xbe06545b	-0.13118117
206	0x3c8efae4	0.017453618
207	0xbdd5447c	-0.10413453
208	0xbd8413a3	-0.06449058
209	0xbd83b031	-0.0643009
210	0xbe63a6e4	-0.22231632
211	0x3d91bb71	0.0711583
212	0xbe874115	-0.2641684
213	0x3d1dc857	0.038521137
214	0x3de09eef	0.10967814
215	0x3d0d6b56	0.03452619
216	0x3e8bd10a	0.27307922
217	0x3e64565e	0.22298571
218	0x3e2b3d54	0.16722614
219	0x3e43737a	0.1908702
220	0xbd8c3ce7	-0.06847554
221	0x3e158385	0.14600952
222	0x3d25793d	0.040398825
223	0xbe4b1961	-0.198339
224	0x3cfc1787	0.030772937
225	0xbdf33094	-0.118745
226	0x3e108c55	0.14116032
227	0xbe721ea7	-0.23644505
228	0x3db96ce8	0.09053975
229	0xbcc87dcc	-0.024474047
230	0xbdeb7c1c	-0.11498281
231	0xbe3fd4fc	-0.18733591
232	0x3cda8645	0.026675353
233	0xbe6b1883	-0.22958569
234	0x3d1d7e1f	0.038450357
235	0x3c43441c	0.011918094
236	0xbe0bc1b7	-0.13648115
237	0xbdcf9e2c	-0.10137591
238	0xbd11fa74	-0.03563924
239	0x3dba0f11	0.09084905
240	0x3e25ba71	0.16184403
241	0xbe072f35	-0.13201602
242	0x3df56a3e	0.11983155
243	0x3e1ddaab	0.15415446
244	0x3deae247	0.1146894
245	0x3c247d8b	0.010039697
246	0xbdf07018	-0.1174013
247	0x3d6f171e	0.058371656
248	0xbd40f28a	-0.047106303
249	0x3d91321e	0.07089637
250	0x3dad8c4f	0.08474027
251	0xbe0a8a9b	-0.13529436
252	0xbc51bc62	-0.012801262
253	0x3e5f010e	0.21777746
254	0xbc5a16d7	-0.0133111095
255	0x3e8e0f53	0.27746066

clf.0.bias f4 [5]
0	0xbd62e45b	-0.055393558
1	0xbdb036f8	-0.086042345
2	0xbd8c1050	-0.06839049
3	0x3d3c410f	0.045960482
4	0xbba0da8a	-0.0049088644
