model/BRCA_C1.pth (torch, 5095 bytes, 2 tensors)

clf.0.weight f4 [5, 200]
0	0xbdf8bb1e	-0.12145065
1	0xbd8383fd	-0.06421659
2	0x3c302b90	0.010752574
3	0x3e31c5ec	0.17360657
4	0xbe0037ae	-0.1252124
5	0x3d3a5013	0.04548652
6	0x3ca67213	0.020318067
7	0x3dd241a2	0.10266425
8	0xbe9b60f6	-0.30347413
9	0xbd98fb59	-0.07469816
10	0x3dd08e0a	0.10183342
11	0xbe0ab4bd	-0.13545509
12	0x3c73b08a	0.014873633
13	0xbe10cff3	-0.14141826
14	0xbd38f0dd	-0.04515158
15	0x3d818564	0.0632427
16	0x3d258dd7	0.040418472
17	0xbd52249c	-0.051304445
18	0xbe4ea0ae	-0.20178482
19	0xbd0acb60	-0.03388536
20	0xbdc734ab	-0.097268425
21	0x3c859016	0.016304057
22	0x3ce16c1c	0.02751737
23	0xbcac8fd6	-0.02106468
24	0xbe096be3	-0.13420062
25	0xbe28c996	-0.16483149
26	0xbd09e2b9	-0.033663485
27	0xbbbe180e	-0.0058012074
28	0x3c3235a2	0.010877045
29	0x3dfd8e47	0.12380653
30	0xbdad91a7	-0.084750466
31	0xbd5fdce9	-0.054654036
32	0x3daf397d	0.08555887
33	0x3ce57a66	0.028012466
34	0x3d84dbf5	0.06487266
35	0x3db30fa8	0.087432206
36	0x3d4b2650	0.049597085
37	0xbd8f73b0	-0.070044875
38	0x3dfafb85	0.12255005
39	0xbcfdcfc2	-0.030982856
40	0xbcb75f1e	-0.022384223
41	0x3ae0fe85	0.0017165696
42	0x3ce97d2f	0.028502075
43	0x3dcc15f1	0.099651225
44	0x3d5e1e1c	0.054227933
45	0x3dba0f9a	0.09085007
46	0x3d33e25a	0.043917038
47	0xbd79375d	-0.060843814
48	0x39966a7e	0.00028689572
49	0x3d8630ba	0.065522626
50	0x3d89e3a2	0.06732871
51	0xbda2f19c	-0.079562396
52	0x3b805113	0.003915915
53	0xbd3804e1	-0.044926528
54	0x3d711922	0.05886186
55	0x3d8d6cbe	0.069055066
56	0x3df616dc	0.12016079
57	0x3d245282	0.040117748
58	0x3dd10ded	0.10207734
59	0x3d796e32	0.060896106
60	0xbd22ecc8	-0.039776593
61	0x3cd1dede	0.025618967
62	0xbdf97f47	-0.12182479
63	0xbdc25e58	-0.09490651
64	0x3d166d59	0.036725376
65	0xbd2eeb64	-0.042704955
66	0xbdd5dfb7	-0.10443061
67	0xbc96c64e	-0.018405106
68	0x3de7304e	0.1128851
69	0xbd9869b9	-0.0744204
70	0xbde5b252	-0.112156525
71	0x3d097f20	0.0335685
72	0x3d81db48	0.06340653
73	0x3e1d7e55	0.15380223
74	0xbd7248fe	-0.059151642
75	0x3d6764f5	0.056492765
76	0x3caeb4e7	0.021326495
77	0x3e1763b5	0.14784129
78	0x3b4b2b9e	0.003100134
79	0x3d9f7522	0.07786013
80	0x3cb5337d	0.022119278
81	0x3e431ad5	0.19053204
82	0xbd9c5868	-0.0763405
83	0x3d042071	0.0322575
84	0x3def213d	0.116762616
85	0x3dbaccc6	0.09121089
86	0x3e754742	0.23952964
87	0x3d011bf3	0.031520795
88	0xbe0d6a33	-0.13810043
89	0x3df9827d	0.12183092
90	0xbd5b8a5e	-0.053598754
91	0x3dce61b7	0.100772314
92	0xbd512694	-0.05106218
93	0x3dc49473	0.09598627
94	0xbc7751ca	-0.015095184
95	0x3d724b04	0.05915357
96	0x3cc4f2ee	0.02404162
97	0xbe1b0385	-0.15138061
98	0xbd7ff799	-0.062491987
99	0x3e864fdb	0.262328
100	0x3e02f1c7	0.12787543
101	0x3cf65cb0	0.030073494
102	0xbdfe9319	-0.124304004
103	0x3d1f3553	0.038869213
104	0xbdcbde95	-0.099545635
105	0xbd76945b	-0.060200077
106	0x3d548e09	0.051893268
107	0x3e20544c	0.15657157
108	0x3d27ba5b	0.040949207
109	0x3b4fc950	0.0031705685
110	0xbc4b3580	-0.012402892
111	0xbc0507da	-0.008119548
112	0x3d72c23b	0.059267264
113	0xbe262021	-0.16223194
114	0xbdb16dbb	-0.086635076
115	0xbd5a3c59	-0.05328021
116	0xbde465d6	-0.11152236
117	0xbdbbfe17	-0.09179323
118	0x3c0f1a2e	0.008734269
119	0xbd6a67c1	-0.057227854
120	0xbd9f53a0	-0.07779622
121	0xbd9b8949	-0.075945444
122	0x3ba7353c	0.0051027816
123	0xbb82d2f5	-0.003992433
124	0x3d8accca	0.06777342
125	0xbdad2d51	-0.08455909
126	0x3adac686	0.0016691245
127	0xbd7ce13c	-0.061738238
128	0xbd4bee51	-0.049787823
129	0x3c2ae70c	0.010431062
130	0x3e134f68	0.1438576
131	0x3cf8d7ff	0.030376432
132	0xbdc81812	-0.09770216
133	0x3e4a9001	0.19781496
134	0x3d9d6194	0.07684627
135	0xbcb4b285	-0.022057781
136	0x3ded70bd	0.11593769
137	0xbcdd2b36	-0.026998144
138	0xbd8b915b	-0.06814834
139	0x3d0acf38	0.033889025
140	0x3d5284ab	0.051396053
141	0xbc8d0025	-0.017211983
142	0x3e1de22a	0.15418306
143	0xbd558e97	-0.052137937
144	0x3da1d6b3	0.07902279
145	0x3a7c0feb	0.0009615409
146	0x3dc57a73	0.09642496
147	0x3e166f58	0.14690912
148	0xbd8e3846	-0.06944327
149	0xbd5e6570	-0.054295957
150	0x3e8d4c3d	0.27597228
151	0xbcdb1f24	-0.026748247
152	0x3dd17fea	0.10229476
153	0xbda5fcc3	-0.08104851
154	0x3e1cc189	0.15308203
155	0xbd36e81a	-0.044654943
156	0xbdf2b223	-0.11850383
157	0x3d9d6fe7	0.07687359
158	0xbd950d1f	-0.07277893
159	0x3d5ff19b	0.054673772
160	0x3db47558	0.08811444
161	0x3e015f3e	0.12633988
162	0xbe36af16	-0.17840227
163	0xbd02f8ef	-0.031975683
164	0x3cf22b93	0.029561793
165	0x3e06978a	0.13143745
166	0x3d86edf5	0.065883555
167	0xbd0b2c1b	-0.03397761
168	0xbe242ede	-0.16033503
169	0x3e4f07e3	0.20217852
170	0x3de276f0	0.11057842
171	0xbe12dfbc	-0.1434316
172	0xb9853eff	-0.00025414673
173	0x3cfb49a2	0.03067476
174	0x3e83abec	0.25717103
175	0xbe2cec77	-0.16887079
176	0x3d8f4231	0.06995047
177	0xbd2de229	-0.04245201
178	0xbd84251a	-0.06452389
179	0xbcfa834d	-0.030580187
180	0x3ced2a69	0.028950887
181	0xbda33069	-0.07968218
182	0xbc94df10	-0.01817277
183	0x3c70f6b6	0.014707258
184	0x3db176a3	0.08665206
185	0x3d8689e5	0.0656927
186	0x3e07bb98	0.13255155
187	0x3cd346a4	0.02579052
188	0x3d83b23a	0.064304784
189	0x3d5ba076	0.053619824
190	0x3ddd7476	0.10813229
191	0x3d5ebaea	0.054377474
192	0xbe29f87d	-0.16598697
193	0xbda0dfbc	-0.07855174
194	0xbe149a5d	-0.1451201
195	0xbddaa3e1	-0.10675789
196	0xbc3eb337	-0.011639408
197	0x3d7c2471	0.06155819
198	0x3e152731	0.14565732
199	0x3d9e88d0	0.07740939
200	0x3de12957	0.10994213
201	0x3d516497	0.05112132
202	0xbe12b7e0	-0.14327955
203	0xbda75486	-0.081704184
204	0xbd85aec8	-0.065274775
205	0x3c24d4d7	0.010060511
206	0xbd1029ef	-0.03519624
207	0x3d4538ea	0.04814998
208	0xbd466dfd	-0.048444737
209	0x3da9f719	0.08299083
210	0xbe36428f	-0.17798828
211	0x3d2dab29	0.04239956
212	0x3e6f2f37	0.23357855
213	0x3e33c49c	0.1755547
214	0xbe14676a	-0.14492574
215	0x3c95ca26	0.018284868
216	0xbd604928	-0.054757267
217	0x3c60d8b5	0.013723542
218	0xbdff8913	-0.12477317
219	0xbdf3a4f8	-0.118967
220	0x3db70e27	0.08938246
221	0x3e4708ba	0.19436923
222	0xbd7a6e46	-0.06114032
223	0xbd915c7e	-0.070977196
224	0x3d623067	0.05522194
225	0xbc706d2b	-0.014674465
226	0xbdfbdca4	-0.12297943
227	0xbc50aafb	-0.012736077
228	0xbd8474e5	-0.06467608
229	0xbdb5fb34	-0.08885804
230	0xbd682e1a	-0.05668459
231	0xbe528d98	-0.20561826
232	0x3d319aa7	0.04336038
233	0xbc08c960	-0.008348793
234	0xbce3d420	-0.02781111
235	0x3c8de8b9	0.017322885
236	0x3d820197	0.063479595
237	0xbd821de5	-0.06353358
238	0x3dcbc56f	0.09949767
239	0x3df1cea2	0.1180699
240	0xbdf80a12	-0.12111296
241	0xbd3b5eee	-0.04574483
242	0x3e14c31c	0.14527553
243	0xbbd1ff6c	-0.0064086225
244	0xbd34ce4e	-0.04414206
245	0x3de10593	0.10987391
246	0x3e3a304f	0.18182491
247	0xbdef764e	-0.11692487
248	0x3da43594	0.08018032
249	0x3cbdd837	0.023174388
250	0xbd547bbb	-0.05187581
251	0xbcef5e5b	-0.029219797
252	0xbca6ba42	-0.020352487
253	0xbd66956f	-0.056294855
254	0xbda18753	-0.07887139
255	0xbc0d1fce	-0.00861354

clf.0.bias f4 [5]
0	0xbcda0d0c	-0.02661755
1	0xbe0587f6	-0.13040146
2	0xbe05dd09	-0.130726
3	0x3d80800d	0.06274424
4	0xbcac456f	-0.021029202
