model/BRCA_C2.pth (torch, 5095 bytes, 2 tensors)

clf.0.weight f4 [5, 200]
00000000: 8d4d b93d 7b82 083c 4763 6e3d 354b 2f3c
00000010: 5d68 08be e6cc 1abe a356 c9bd 13f0 d7bd
00000020: 21b5 bc3d edce a93d 2330 483d e679 98bd
00000030: 659e 00bd ad29 9c3d 7795 543c d5e2 1c3c
00000040: 4f34 7b3e f0ab efbd e2cc 8c3d a118 8bbd
00000050: 32d3 7dbd 6637 033e 534a 4ebd 21d3 78be
00000060: 669a 523d bf11 56bd 14f4 d3bd 07bf f9bc
00000070: d677 2f3e feec adbd 3aea 313d 927d 593e
00000080: 3760 10bd b6a7 4abb ed8b 203d 0d3d 0f3d
00000090: 03b3 61bd d4a8 7ebd bc5b c3bd 0e52 cd3d
000000a0: 98bd a53d 5370 6abb 0e16 133e a6a9 9ebd
000000b0: dd7b 23bd 6823 cbbd 1eee 003e 3809 0e3e
000000c0: 06af 523c 1ff4 c2bd 7a7a 943d b647 3d3d
000000d0: e0cd 003b 5ea6 29bd 29fc 78bd fb8e b3bd
000000e0: c109 713d 9b6e 003e 460e 30bd 6b5c 5abb
000000f0: c2a5 383e 038c 083e a57f bfbc e29d 6ebd
00000100: 44e4 c63c 8aba ef3c 4b19 1a3d 156b 243d
00000110: 6429 c6bc 492e 34bd 52f3 c03d b485 0bbc
00000120: bf6f ed3c 77c8 103c ecc7 823d b348 eb3d
00000130: bcf0 fc3c 7c62 433e bc39 e83a dbdf 963c
00000140: 1a2e 94bb 89fa 35bd d0d9 d3bc 2d67 bd3c
00000150: c284 203d c419 9c3b d388 7b3c 6b7e 37bd
00000160: be08 c3bc 6c28 0a3e 62dd 0a3d 25f8 e4bd
00000170: 0af4 1b3e a1d7 6dbd e93c 333e fdde c23d
00000180: bfdd bfbb 8b0c b4bd d168 143d 342c d13c
00000190: e9c3 1f3e 4c35 a5bc 856b cebd b380 b7bd
000001a0: 12f7 633c c863 bebb f8c6 0bbb 47f9 a6bb
000001b0: 39e3 c7bd 0999 0dbe 5d7d 86bd 7195 4abc
000001c0: 03f4 afbd 6aaf e8bd e0a4 45bd 55a6 4abd
000001d0: 96c3 393e d742 88bd d87d bebd 0a22 92bd
000001e0: 76ca eabc d655 073e e091 9abc 44e1 a9bd
000001f0: 9b80 19bd 4b04 27bd 8d01 c73d 2408 adbd
00000200: 32c5 2d3e 91e3 adbd d218 ffbc 165d 9a3d
00000210: 79e6 a6bd b7e8 87bd a458 0abe cfca afbc
00000220: 3dd2 11bc 46bd dd3b e91e 1cbd b420 b93d
00000230: 8dbd 6a3d aa8a f3bd 1908 dbbc 3e7e e6bb
00000240: 6842 cf3d 8506 2dbe 7977 08bd 59f7 b03d
00000250: a46f 7ebd c8de 7b3c e832 c73c 9940 f63d
00000260: 76ad 81be cb23 9d3d 1b9c 303d 47a1 cd3d
00000270: db3a d63d 3341 e9bb 9125 273e 163f bfbc
00000280: df3e 49bd 5ab8 debc 9adc 88bc 78d2 5fbd
00000290: 09b6 62bd e1c6 b7bc 9a69 db3d 8fcf b43d
000002a0: c377 c83d d358 f4bd 3c28 7d3d bda0 463e
000002b0: a7a1 0cbd 7ce4 a53d caca 2fbd 1f08 99bd
000002c0: 26de fdbd 7c4f 33bd 159a 28be dfef 403d
000002d0: 94f6 a13c a30c 0fbe 0ee8 003e 9009 2a3d
000002e0: 2d06 b4bd d0cb 8d3d ec67 c53c fefd 123e
000002f0: a7fb e0bc 28cf 79bd 5fc3 0a3c 5a63 08be
00000300: 25d8 2bbe 7bbc 5d3d b94b d9bd 61f0 fb3d
00000310: a3c0 723d e757 e53d e3cf 663e 3baf 043e
00000320: 2288 ef3c 1e79 853c 1610 8dbd 0eec f3bd
00000330: f494 a7bc 7e72 94bd 66d6 bdbc c65c 153e
00000340: d74c eeba 65ef 1fbe 2341 3d3e 63dd 43be
00000350: b0d5 c43a 34f1 a2bd 0bae 933c 9fab 8bbe
00000360: 7272 d0bd 84ef 1cbe c87b 183c 70a5 8c3d
00000370: 9c30 5bbe cd5b c43d 1b85 81bd 4d62 a9bd
00000380: 4751 1a3d 4c38 2abe c31e 0d3e 7bd5 bc3d
00000390: accf 043e 1a90 6dbe 98c0 413d 98b8 6c3e
000003a0: ac43 883d 87c3 443d 020a 15bd 8347 a13d
000003b0: a768 7ebe c51f 19be 4ca5 2bbc 609e 063e
000003c0: 1e94 9f3d 5385 9c3c 514c e13d 1ba6 c83b
000003d0: 3849 e2bd c75d e33d aca6 d03d 45b8 7d3d
000003e0: d97e 5a3c ca5f fabd 3658 4b3d c0d7 8f3c
000003f0: 78bf 6abd 3432 25be 069d 72be 28c2 dd3c
0.09047995 0.00833189 0.058200147 0.010699083 -0.13321061 -0.15117225 -0.09830978 -0.105438374
0.09214235 0.08291421 0.04887403 -0.07445125 -0.031401057 0.076251365 0.012975088 0.009575565
0.24531673 -0.11702716 0.06875016 -0.06791807 -0.06196899 0.12814102 -0.05036385 -0.2429929
0.051416777 -0.052263018 -0.103492886 -0.030486597 0.17135558 -0.08492468 0.043436266 0.21239308
-0.035248008 -0.0030922717 0.039195944 0.034970332 -0.05510236 -0.062172726 -0.09538981 0.10025416
0.08092803 -0.0035772517 0.14363882 -0.077472016 -0.039913047 -0.099188626 0.12590834 0.13870704
0.012859112 -0.09519219 0.07249923 0.046210967 0.001965396 -0.041418426 -0.060787354 -0.08767506
0.058847193 0.12542193 -0.042982362 -0.0033319246 0.18031982 0.1333466 -0.023376295 -0.058256038
0.024278767 0.029263753 0.037621778 0.040141184 -0.024189658 -0.043989453 0.0942141 -0.008515764
0.028983949 0.008836857 0.06385788 0.11488476 0.03087651 0.19080538 0.0017717401 0.01841729
-0.0045220973 -0.044428382 -0.025860697 0.023120487 0.039189108 0.0047638137 0.015352446 -0.044798296
-0.02380788 0.13491982 0.033902533 -0.11180142 0.15229812 -0.058066968 0.17503704 0.09515188
-0.0058552916 -0.08791455 0.036232773 0.025533773 0.15602078 -0.020167015 -0.100791015 -0.08960094
0.013913887 -0.0058102347 -0.0021328311 -0.005095634 -0.09760136 -0.1382791 -0.0656688 -0.012364731
-0.085914634 -0.113615826 -0.04825294 -0.049475033 0.18141016 -0.06653374 -0.093013465 -0.07135399
-0.028660994 0.13216338 -0.018868387 -0.08294919 -0.037476163 -0.04077558 0.09717093 -0.08448818
0.16969755 -0.084906705 -0.031139765 0.07537286 -0.08149428 -0.06636184 -0.13510376 -0.021459011
-0.008900222 0.006766948 -0.038115416 0.09039441 0.057309676 -0.118916824 -0.02673726 -0.007034092
0.10120088 -0.16897018 -0.033317063 0.08640928 -0.062118188 0.015372939 0.024316266 0.1202404
-0.25327653 0.076728426 0.043117624 0.10040527 0.104604445 -0.007118368 0.16322924 -0.023345511
-0.049132224 -0.027187515 -0.016706754 -0.054644078 -0.055349384 -0.0224337 0.10713501 0.08828651
0.09788468 -0.119310044 0.06180595 0.19397254 -0.03433385 0.081002206 -0.042918004 -0.07472252
-0.12395887 -0.043776974 -0.16465028 0.04710376 0.019770898 -0.13969664 0.12588522 0.041513026
-0.087902404 0.0692364 0.024097405 0.14354703 -0.027463747 -0.060988575 0.008469432 -0.1331915
-0.16781671 0.054134827 -0.10610146 0.12301708 0.059265744 0.11198407 0.2254024 0.1295747
0.029239718 0.016293105 -0.06887834 -0.11910258 -0.020456769 -0.072484 -0.023173522 0.14586172
-0.0018180859 -0.15618666 0.18481879 -0.19127421 0.0015017297 -0.07956162 0.018027326 -0.27279374
-0.10178079 -0.15325743 0.0093068555 0.06867492 -0.21405262 0.09587822 -0.06324216 -0.082707025
0.03767517 -0.16623038 0.13781266 0.09220406 0.12969846 -0.23199502 0.047302812 0.23117292
0.066535324 0.048038032 -0.036386497 0.07874968 -0.24844609 -0.14953525 -0.010476422 0.13146353
0.07791923 0.019106543 0.11000884 0.006123317 -0.110491216 0.11101871 0.1018804 0.06194331
0.013335907 -0.122253016 0.04964467 0.017558932 -0.057311505 -0.16132432 -0.23692712 0.02707012

clf.0.bias f4 [5]
00000000: f802 62bd 5791 dcbd 1cba cbbd 1df0 983d
00000010: 85a0 48bd
-0.055178612 -0.10769909 -0.09947607 0.07467673 -0.04898121
