model/ROSMAP_C3.pth (torch, 1575 bytes, 2 tensors)

clf.0.weight f4 [2, 64]
00000000: eea2 523e 3479 96be 57ab aabd 1167 febd
00000010: 1076 c9be 679c a5be 573a 8cbd 59ff c5bd
00000020: 5fea 35be 31e8 c13e 6705 a5be 043d 8bbd
00000030: f732 af3e 7e0d 833e 1446 6b3e f528 1c3e
00000040: 91c9 56be a76a f4bd 54bf a93e a63a 9fbe
00000050: d6df f8bd ad89 dbbd 3c64 84be ab43 adbe
00000060: dabf 6c3e b300 963e 1c0f d3be 8ab1 81be
00000070: 2251 63bd 153b 8abe cc8e 2fbe e4b6 9b3e
00000080: 9d8f 463e 8d5f 7b3e 4ca6 a63e cc23 35be
00000090: 0d88 1dbd 3395 a63e 6167 a53e d166 f3be
000000a0: 23fc b1be 9fd7 6f3d fe6c 193e 89b5 d03e
000000b0: 63f3 9abe 7035 3ebe b050 533e a6c6 a43e
000000c0: ff9e 863e ff1d a93d 0cec c33e 70db 903e
000000d0: fa83 e23e 26c7 55be 031c 933e 98ac 92be
000000e0: f88f 0abe e161 c33e c014 a6be 7142 3abe
000000f0: 7876 633e 69db d43d c991 b7be 0dec d4bd
00000100: fd16 c5be f6a4 7f3e 8a26 4c3e d7a2 863e
00000110: db8c c33d fbcc 823e d302 343e 4866 8a3e
00000120: 2067 0f3f 3180 41be f85c be3d 778f e2be
00000130: cab0 8abe 7b87 75be 8582 80be 75cd 8abe
00000140: 93fc 983d 005f 9a3e f64f 6cbd d30b f5bc
00000150: db4c ce3d 0a46 6f3e 011e 64bc 7dc7 263d
00000160: 780a d6be 7180 06be ac0b 533e 83b5 d53e
00000170: e851 493e 64bd 953e 0618 fa3c 3520 39be
00000180: 0f6d 56be 59d0 85be d295 3c3c 5ae9 b43d
00000190: b12b a53d 4bc0 2abd 9ae5 e6bd eb70 46bd
000001a0: 38a5 583d bd43 99be bcfb 2abe 185f ff3d
000001b0: 71cb cc3e 4d95 a53e 77e7 27be 8683 40bd
000001c0: 79b4 63bd 1cc1 fdbe 19bf dabd d9fb a7be
000001d0: 85bb 89bd cc1d b83e 20cb f5bd 4e61 323e
000001e0: 49e1 563e 5ac3 bebd df32 6a3e 1760 5f3e
000001f0: f35e 0cbe 96c9 17be f033 4b3e 57b1 8e3e
0.20569965 -0.29389346 -0.08333462 -0.12422002 -0.39347887 -0.32345888 -0.06847065 -0.09667844
-0.17765187 0.3787246 -0.32230684 -0.06798747 0.3421857 0.2559623 0.22975951 0.15249999
-0.20975329 -0.11934405 0.33153784 -0.31099433 -0.12152068 -0.10719619 -0.25857723 -0.3384069
0.2312006 0.29297408 -0.41222465 -0.25330764 -0.055497296 -0.269982 -0.17144316 0.30412972
0.19390722 0.24548168 0.3254875 -0.17689437 -0.038459826 0.32535705 0.32305434 -0.4753938
-0.34762678 0.05855524 0.14982983 0.407635 -0.30263814 -0.18575072 0.20636249 0.32182807
0.2629318 0.082576744 0.38266027 0.28292418 0.44241315 -0.2087675 0.2873231 -0.28647304
-0.13531482 0.38160613 -0.32437706 -0.18189408 0.22213161 0.10393412 -0.35853413 -0.103965856
-0.384941 0.24965271 0.19936576 0.26296112 0.095483504 0.25547013 0.17579202 0.2703116
0.5601673 -0.18896557 0.09295076 -0.4425008 -0.27088004 -0.23977463 -0.25099578 -0.27109876
0.0747005 0.30150604 -0.057693444 -0.029912865 0.10073253 0.23366562 -0.013923169 0.04071759
-0.41804862 -0.13134934 0.20609921 0.41740045 0.19660151 0.29246056 0.030529033 -0.18078692
-0.2094004 -0.2613552 0.011510329 0.08833571 0.08064974 -0.04168729 -0.11274262 -0.04844753
0.05289194 -0.29934493 -0.16697592 0.124693096 0.39998963 0.3234047 -0.1639689 -0.04700043
-0.055592034 -0.49561393 -0.1068098 -0.32809332 -0.0672522 0.35960233 -0.12001634 0.17419931
0.20984377 -0.09314604 0.22870968 0.21813999 -0.13708095 -0.14822993 0.19844031 0.27869675

clf.0.bias f4 [2]
00000000: 8983 10bd 6383 103d
-0.03528169 0.03528155
