model/ROSMAP_C1.pth (torch, 1575 bytes, 2 tensors)

clf.0.weight f4 [2, 64]
0	0x3e91c77c	0.28472507
1	0x3e34799e	0.17624518
2	0x3e8e5c4a	0.27804786
3	0xbeb63c61	-0.3559294
4	0xbe8c6a07	-0.27424642
5	0xbe75a2d0	-0.2398789
6	0x3f17b4dc	0.59260345
7	0x3ec294f2	0.3800426
8	0x3dd9fcda	0.10643931
9	0xbec058e0	-0.37567806
10	0x3e94f717	0.29094765
11	0x3ed099b7	0.40742275
12	0x3e79803a	0.24365321
13	0x3eb66222	0.35621744
14	0x3ef375fe	0.47550958
15	0xbea7f099	-0.3280075
16	0xbef86389	-0.4851344
17	0x3e18d6ef	0.1492574
18	0x3e9f03dd	0.31057635
19	0x3dd12937	0.10212939
20	0x3e9d0e58	0.30675006
21	0xbdcd52b9	-0.10025544
22	0x3e48591d	0.19565244
23	0xbcfb5837	-0.030681713
24	0xbea2f45a	-0.3182705
25	0x3c564721	0.013078482
26	0x3e33f461	0.17573692
27	0xbed43e3f	-0.4145374
28	0x3db3e673	0.08784189
29	0xbe81983c	-0.25311458
30	0x3eb98f62	0.36242205
31	0xbe9369c5	-0.28791633
32	0xbea00e10	-0.3126073
33	0xbe97bd98	-0.29636836
34	0xbe98e6e3	-0.29863653
35	0xbed41b7f	-0.41427228
36	0xbe84498e	-0.25837368
37	0xbea3ffa9	-0.3203099
38	0x3e2a83a0	0.16651773
39	0xbea8d836	-0.32977456
40	0xbef99079	-0.48743036
41	0xbebb4bf3	-0.36581382
42	0xbe9e635e	-0.30935186
43	0x3e8edeac	0.2790426
44	0x3e632bfe	0.2218475
45	0x3e2314be	0.15925881
46	0xbece61e5	-0.40309063
47	0xbecee63c	-0.4041003
48	0xbe41ed64	-0.18938214
49	0x3d89a61f	0.06721138
50	0x3d4db9d2	0.05022604
51	0xbe2e76b1	-0.17037465
52	0xbe9cb782	-0.30608755
53	0x3e930019	0.28711012
54	0x3e88a25a	0.26686364
55	0x3da52792	0.08064188
56	0x3eafd80a	0.34344512
57	0xbe3aa222	-0.18225911
58	0xbe049b69	-0.1294991
59	0xbed5503e	-0.41662782
60	0xbe0a028e	-0.13477537
61	0x3ef55eb8	0.47923827
62	0xbe15226a	-0.14563909
63	0x3ebb5943	0.3659154
64	0xbe27c3c1	-0.16383268
65	0xbec08a4a	-0.37605506
66	0xbdf4a89b	-0.119462214
67	0xbc5b8e0b	-0.013400565
68	0x3e995ec4	0.29955113
69	0x3eedd486	0.46451205
70	0xbe83122f	-0.2559981
71	0xbea60112	-0.32422692
72	0xbe5753a7	-0.21028005
73	0x3ef52f8e	0.47887844
74	0xbe4d7c83	-0.20067029
75	0xbda4d663	-0.080487035
76	0xbe61bcd1	-0.22044684
77	0xbe149ed5	-0.14513715
78	0xbdff2c06	-0.12459569
79	0x3de8e23b	0.11371275
80	0x3ce69c25	0.028150627
81	0xbe64671f	-0.22304963
82	0xbe9be57f	-0.3044853
83	0xbe941adb	-0.2892674
84	0xbec03be3	-0.3754569
85	0xbec925d1	-0.39286664
86	0xbdcae6c8	-0.09907299
87	0xbee7bdd0	-0.45262003
88	0x3e8f3d98	0.2797668
89	0xbeb021a7	-0.34400675
90	0xbe718cbe	-0.23588845
91	0x3e3bb50f	0.18330787
92	0xbecac060	-0.39599895
93	0x3ee17a6b	0.4403871
94	0xbe39a1fe	-0.18128201
95	0x3e36b85d	0.17843767
96	0x3ea97e60	0.3310423
97	0x3e5701df	0.20996808
98	0x3e55bee4	0.208736
99	0x3e9b159b	0.3028992
100	0x3e939bfc	0.28829944
101	0x3eb4517e	0.35218424
102	0xbeb8b069	-0.3607209
103	0x3e1e677b	0.15469162
104	0x3e36b0ad	0.17840834
105	0x3e293707	0.16524898
106	0x3f084007	0.532227
107	0xbebe921d	-0.3722085
108	0xbe43f9e4	-0.19138294
109	0xbe60bd1e	-0.21947142
110	0xbdd706d3	-0.104993485
111	0x3e1c29e2	0.15250352
112	0x3e9e9297	0.30971214
113	0xbed131b6	-0.4085824
114	0xbf09a7b3	-0.53771514
115	0x3e8777f6	0.2645871
116	0x3e2151d8	0.15753877
117	0xbde0cf70	-0.109770656
118	0xbe1fe0e3	-0.15613131
119	0xbeddda61	-0.43330672
120	0xbea3f98e	-0.32026333
121	0x3df20886	0.11818032
122	0x3ee9814a	0.45606452
123	0x3d052b31	0.032511894
124	0xbef3ed42	-0.4764195
125	0xbe193dfc	-0.14965051
126	0x3f08091b	0.53138894
127	0xbe1f9dcc	-0.15587538

clf.0.bias f4 [2]
0	0xbd85a68d	-0.06525908
1	0x3d85a67e	0.065258965
