model/ROSMAP_E1.pth (torch, 128577 bytes, 15 tensors)

conv1.att_src f4 [1, 1, 100]
0	0xbd0d8ef0	-0.034560144
1	0xbf1aa5af	-0.60409063
2	0xbdfef1ab	-0.12448438
3	0xbe437b94	-0.1909011
4	0xbeb4a904	-0.352852
5	0x3d8a8858	0.06764287
6	0x3e4e91ba	0.20172778
7	0xbec062a8	-0.3757527
8	0x3eb02a9d	0.3440751
9	0xbd8bf77e	-0.06834315
10	0x3f2d022b	0.67581433
11	0xbea01fd9	-0.31274298
12	0x3d8bd457	0.0682761
13	0xbe839cc2	-0.25705534
14	0xbf1ddc5e	-0.6166438
15	0x3ec119b4	0.37714922
16	0xbf292ef3	-0.66087264
17	0xbf6aa9bd	-0.9166525
18	0x3f37ea40	0.7184181
19	0xbe5344a9	-0.2063166
20	0x3e209229	0.15680756
21	0x3ed46e51	0.41490415
22	0xbe0f8aef	-0.14017843
23	0xbec05cd1	-0.37570813
24	0xbf533a99	-0.8251129
25	0xbf113e87	-0.56736034
26	0x3f11ea7d	0.56998426
27	0x3e05d3ca	0.13069072
28	0xbee15f49	-0.4401801
29	0x3e71be60	0.23607779
30	0xbedcfc98	-0.43161464
31	0x3e2097fd	0.15682979
32	0xbf058e9b	-0.52170724
33	0xbe2faf8a	-0.17156807
34	0x3f07b52d	0.5301083
35	0xbdd596ff	-0.10429191
36	0xbf431bca	-0.7621428
37	0x3df7236e	0.120673046
38	0x3e356487	0.1771413
39	0xbdd9cd3e	-0.1063485
40	0xbe0af40a	-0.13569656
41	0xbddc9d65	-0.10772208
42	0xbf08a5f2	-0.5337821
43	0x3e0fc262	0.14038995
44	0xbf3685fe	-0.71298206
45	0x3e80f8f7	0.25189945
46	0xbc502db3	-0.012706208
47	0x3e6a8fab	0.22906367
48	0xbf28ef1a	-0.6598984
49	0x3eabea93	0.33577403
50	0xbe8ddc89	-0.27707317
51	0xbf4c7702	-0.7986909
52	0xbe1be392	-0.1522353
53	0xbafd2af3	-0.0019315168
54	0xbeb54fe8	-0.35412526
55	0xbe830549	-0.2558997
56	0xbe958263	-0.2920104
57	0x3e83df9c	0.25756538
58	0xbf04fc5b	-0.51947564
59	0xbdd7c417	-0.10535448
60	0xbf21fc9d	-0.6327608
61	0xbd8055da	-0.06266375
62	0x3ecd233c	0.40065944
63	0x3e691a2f	0.22763894
64	0x3f15f957	0.5858359
65	0xbef41501	-0.47672275
66	0x3e6f3661	0.23360588
67	0xbdcaa7f0	-0.09895313
68	0xbf2597ed	-0.64684945
69	0xbe5775c7	-0.21041022
70	0x3ec49409	0.38394192
71	0x3ec06e84	0.37584317
72	0x3e1405b7	0.14455305
73	0x3e92693c	0.28595912
74	0xbe5c0dfd	-0.21489711
75	0xbdea8a17	-0.1145212
76	0xbd8aaddc	-0.06771442
77	0x3df68545	0.12037138
78	0xbd1d554d	-0.038411427
79	0x3f0ca6ed	0.5494221
80	0xbcf85482	-0.030313734
81	0x3e082f0f	0.13299201
82	0xbe4f937e	-0.20271108
83	0x3f052a4e	0.52017677
84	0x3d3f04ce	0.04663544
85	0x3d8e39de	0.06944631
86	0x3ebf27f3	0.37335166
87	0x3d4374a6	0.047718666
88	0xbe4cfbbd	-0.20017906
89	0xbedd77e1	-0.43255523
90	0x3e9f4a76	0.31111497
91	0x3e85680a	0.26055938
92	0x3d770157	0.060304012
93	0xbe4b6758	-0.19863641
94	0x3f20b3fc	0.62774634
95	0x3de6f949	0.11278016
96	0x3da033ea	0.07822402
97	0xbe8d3398	-0.27578425
98	0x3e1f7c26	0.15574703
99	0x3d6db3b5	0.05803271

conv1.att_dst f4 [1, 1, 100]
0	0xbe6ab663	-0.22921138
1	0xbed2d8bf	-0.4118099
2	0xbdc9f4cf	-0.09861147
3	0xbd346362	-0.04404009
4	0x3dbe243b	0.09284254
5	0xbe4314e9	-0.19050945
6	0x3e90ef5f	0.28307626
7	0x3d74e8a7	0.059792187
8	0xbe41454a	-0.18874088
9	0xbebbe872	-0.3670078
10	0xbe78baf1	-0.24290062
11	0xbe77daf7	-0.24204622
12	0xbe648f43	-0.22320275
13	0x3dab19b1	0.083545096
14	0xbe2dd4f2	-0.16975763
15	0xbdac7f96	-0.084227726
16	0xbdb2e967	-0.08735924
17	0xbbeec00e	-0.0072860783
18	0xbe77da2e	-0.24204323
19	0x3c3d24e3	0.011544439
20	0xbe9ccac8	-0.3062346
21	0x3db8165b	0.08988639
22	0xbdb984e3	-0.09058549
23	0x3eacc1e7	0.33741686
24	0xbeb96cf8	-0.3621595
25	0xbd29e724	-0.0414802
26	0xbecc3311	-0.3988271
27	0x3dfed43e	0.12442826
28	0x3ea2b6ec	0.31780183
29	0x3e039501	0.12849809
30	0x3c8cdd35	0.017195323
31	0xbd6421bb	-0.05569623
32	0x3e6985c6	0.22804937
33	0xbe540df3	-0.20708446
34	0x3e85e670	0.26152372
35	0xbeeef260	-0.46669292
36	0xbde6d653	-0.11271348
37	0x3e534828	0.20632994
38	0xbe221e69	-0.15831913
39	0xbdd7db44	-0.105398685
40	0xbecef4d4	-0.40421164
41	0x3e2fa559	0.17152919
42	0xbecc0dcf	-0.39854285
43	0xbeeed227	-0.4664471
44	0xbeafaa8d	-0.34309807
45	0x3e1a6026	0.1507574
46	0xbdf7c75b	-0.12098571
47	0xbd0cfc64	-0.034420386
48	0x3e43041d	0.19044538
49	0xbdfb264b	-0.12263163
50	0xbea27391	-0.31728795
51	0xbd64e03e	-0.055877917
52	0x3c8c28cc	0.017109297
53	0xbe8996ed	-0.2687296
54	0x3e3b88ef	0.18313955
55	0xbe57be45	-0.21068676
56	0xbe92eb60	-0.28695202
57	0x3e653b37	0.2238587
58	0xbe1eb24b	-0.15497701
59	0xbea085ad	-0.31351987
60	0x3e634d99	0.2219757
61	0xbecd8733	-0.4014221
62	0xbe53f110	-0.20697427
63	0xbad5dfd9	-0.0016317322
64	0xbdd10834	-0.10206643
65	0x3e19e846	0.15030012
66	0xbec1b730	-0.37835073
67	0xbe016a2b	-0.12638156
68	0xbe8d1faf	-0.27563235
69	0xbd89bd21	-0.067255266
70	0x3ec879c0	0.39155388
71	0xbd83ba6d	-0.06432042
72	0xbe3e6c46	-0.1859599
73	0xbd848c9a	-0.0647213
74	0xbe9d460b	-0.307175
75	0x3ee7323d	0.45155516
76	0xbe724b3a	-0.23661509
77	0x3e4474da	0.191852
78	0xbe819c2c	-0.25314462
79	0xbc5c0369	-0.013428547
80	0xbe36d4a4	-0.17854553
81	0xbe66a61e	-0.22524306
82	0xbdae43f8	-0.08509058
83	0xbe8ca22e	-0.27467483
84	0x3ed9bafd	0.42525473
85	0xbd3c876d	-0.04602759
86	0xbdde68e1	-0.10859848
87	0x3e7c7c27	0.24656735
88	0x3e8fe434	0.28103793
89	0x3d7a72bc	0.061144575
90	0xbe21676a	-0.15762106
91	0xbee4fc1f	-0.44723603
92	0xbe80dc3d	-0.25168028
93	0xbe915d5f	-0.2839155
94	0xbe932ed3	-0.28746662
95	0xbe5b8ff6	-0.21441635
96	0x3daf2d80	0.085536
97	0xbd300570	-0.042973936
98	0xbe41e262	-0.18934014
99	0x3ef12903	0.47101602

conv1.bias f4 [100]
0	0x3b8904b7	0.0041814703
1	0x3c67bf1f	0.014144688
2	0x3bf119ea	0.0073578255
3	0x3a8a3eed	0.0010547318
4	0xbb936151	-0.004497685
5	0x3c40d11e	0.011768607
6	0xbb91cf80	-0.0044497848
7	0xbb65a75b	-0.0035042379
8	0x3aeaec07	0.0017923125
9	0xba66ea78	-0.0008808742
10	0xbbb51eae	-0.005527339
11	0x3c90acf4	0.017660595
12	0x3c0f9605	0.008763795
13	0xbba8563e	-0.005137234
14	0x3c926994	0.01787261
15	0x3beb6107	0.0071831974
16	0x3c7e00ce	0.015503122
17	0x3b5c7d55	0.003364404
18	0x3c305aad	0.010763806
19	0xbc163fe3	-0.009170505
20	0x3c21e219	0.009880566
21	0xbc730303	-0.014832261
22	0x3b289896	0.0025725714
23	0x3b309fce	0.002695072
24	0x3c63a8cf	0.013895228
25	0x3c5fdad7	0.013663015
26	0x3bd8cdaf	0.0066163163
27	0x3bf7a70e	0.0075577563
28	0xbc58e9a6	-0.0132393
29	0xbc776a6f	-0.015101059
30	0xbb7d2a07	-0.0038629787
31	0x37599bba	1.2970466e-05
32	0x3c0116ff	0.007879018
33	0x3cd5627b	0.026047936
34	0xbb93437f	-0.00449413
35	0x3d0b75cc	0.034047887
36	0x3c0b2139	0.008491808
37	0x3c0d78ae	0.008634729
38	0x3c60c5f5	0.013719072
39	0x3c29fac5	0.0103747295
40	0xbb91f545	-0.0044542872
41	0x3c44a6d2	0.012002664
42	0xbb5dbcc4	-0.0033834437
43	0x3c1c690d	0.00954653
44	0x3c4054d0	0.011738971
45	0x3c9b9ad1	0.01899472
46	0xbb9fe16d	-0.004879168
47	0x3a4936e4	0.0007675721
48	0x39ba99d3	0.00035591293
49	0xbbdb029c	-0.0066836607
50	0x3c467ea8	0.012115158
51	0xbbe18e34	-0.006883407
52	0xbc1506be	-0.009095846
53	0x3c6b7782	0.014371755
54	0x3b72f4f1	0.0037072266
55	0x3bac279a	0.0052537443
56	0x3b0f6638	0.0021880995
57	0xbc248119	-0.010040545
58	0x3c44d6d5	0.012014111
59	0x3cb2d3ad	0.02182945
60	0x3cbd836f	0.023133961
61	0xbbb14aeb	-0.0054105422
62	0x3c73e860	0.0148869455
63	0xbcab0de0	-0.02088064
64	0xbb3df045	-0.0028982323
65	0xbc0258fa	-0.007955784
66	0xba80a4ef	-0.0009814779
67	0x3ade647d	0.0016967204
68	0x3c194df7	0.009356967
69	0x3c636266	0.0138784405
70	0x3c4a7039	0.0123558575
71	0x3c41e800	0.011835098
72	0x3cd7561f	0.026286183
73	0xbc7f8dcf	-0.015597775
74	0x3c4f27b5	0.012643744
75	0xb76f9238	-1.4279554e-05
76	0x3cac5d50	0.021040589
77	0xbc829aae	-0.015942898
78	0x3c5ef3c1	0.01360792
79	0x3c9f82b0	0.019471496
80	0xbbf3d8aa	-0.0074416
81	0x3cff6577	0.031176312
82	0x3c826366	0.015916537
83	0x3b702a40	0.0036646277
84	0xbb9251da	-0.004465324
85	0x3cf084de	0.029360231
86	0xbca3810a	-0.019958992
87	0xbc1a68c3	-0.009424391
88	0x3b0a9452	0.0021145535
89	0xbc84b55d	-0.016199762
90	0xbb94bde4	-0.0045392383
91	0x3c0e30b2	0.008678602
92	0xbb08e4e7	-0.002088839
93	0x3c3aa462	0.011391731
94	0x3ab9d872	0.0014178886
95	0xbc9594c4	-0.018259414
96	0x3a334c00	0.0006839633
97	0x3c0e95c0	0.008702695
98	0x3aa74b06	0.0012763448
99	0xbc523dbf	-0.012832104

conv1.lin_src.weight f4 [100, 200]
0	0xba436c8d	-0.0007454835
1	0xbe2c4b5a	-0.1682562
2	0xbe163294	-0.14667732
3	0x3d8962b2	0.06708278
4	0x3d2b7d4f	0.04186755
5	0xbdd5342e	-0.10410343
6	0xbd7b0de5	-0.061292548
7	0xbd8c94b9	-0.06864304
8	0x3d89bf79	0.06725974
9	0x3d927a75	0.07152263
10	0xbce26b54	-0.027639069
11	0x3d370c6b	0.044689577
12	0xbd726afb	-0.059184056
13	0x3ddd5ed3	0.10809102
14	0xbd41fba3	-0.04735912
15	0x3cc0357f	0.023463009
16	0xbe5a240d	-0.21302815
17	0x3d3f7b20	0.04674828
18	0xbcbb6d47	-0.022879256
19	0x3dd06618	0.10175723
20	0xbde4fd29	-0.11181099
21	0xbdd87d98	-0.1057083
22	0x3da6efb3	0.08151188
23	0x3d3fdddb	0.046842437
24	0xbdd94ded	-0.10610566
25	0xbd570208	-0.05249217
26	0x3d974371	0.0738591
27	0xbb4fe9ec	-0.0031725122
28	0x3e0a7cda	0.1352419
29	0xbe226ffb	-0.1586303
30	0x3d7c75de	0.061635844
31	0x3b28092f	0.002564024
32	0xbd982ed1	-0.074308045
33	0xbd02d371	-0.031939927
34	0xbe0620e6	-0.13098487
35	0x3de6f692	0.11277498
36	0xbde46c10	-0.11153424
37	0x3dac7812	0.08421339
38	0xbdb382aa	-0.087651566
39	0x3e03846f	0.12843488
40	0x3dbb9be5	0.09160594
41	0x3e08d17e	0.13361165
42	0x3d7556ea	0.05989734
43	0xbd2e6f89	-0.042586837
44	0x3d3fc3b8	0.04681751
45	0xbd0538fa	-0.03252504
46	0x3d86ae37	0.065761976
47	0x3dff9113	0.124788426
48	0x3dc57f0c	0.09643373
49	0x3c8b96df	0.017039714
50	0x3cbfc965	0.023411462
51	0xbe15d950	-0.1463368
52	0x3df950a1	0.12173582
53	0x3d76dffb	0.0602722
54	0xbb7a0b84	-0.0038153837
55	0x3d5e0311	0.054202143
56	0x3dae4e6b	0.08511051
57	0x3d5e3197	0.05424651
58	0x3d9b37ea	0.07579024
59	0x3dcc4940	0.09974909
60	0x3dc78a44	0.09743169
61	0x3d61675a	0.055030204
62	0xbdeabf1c	-0.114622325
63	0x3de89ab8	0.11357635
64	0x3ce45c97	0.027876182
65	0xbd255fa9	-0.04037443
66	0xbd89d9e8	-0.067310154
67	0xbdddb8bd	-0.10826252
68	0x3e014fec	0.12628144
69	0xbc864eda	-0.016395021
70	0xbd7a215d	-0.061066974
71	0xbd90f5d1	-0.07078136
72	0xbd867875	-0.06565944
73	0x3af462f1	0.001864521
74	0x3dd02ab4	0.10164395
75	0x3dda6eac	0.1066564
76	0x3da91c68	0.08257371
77	0xbdeb003b	-0.11474653
78	0x3da7d67c	0.081952065
79	0xbd42fe3b	-0.047605734
80	0x3e038ad3	0.12845926
81	0x3aa2f453	0.0012432433
82	0xbde8d5cb	-0.11368903
83	0x3d11934c	0.035540864
84	0x3de6623d	0.11249206
85	0x3d57eadb	0.05271421
86	0x3c5965d9	0.013268911
87	0x3d586f3c	0.052840456
88	0xbe096aa2	-0.13419583
89	0xbd967bad	-0.07347808
90	0xbdddd69a	-0.108319476
91	0x3d81f54f	0.06345617
92	0xbdd47f49	-0.1037584
93	0xbddf2d97	-0.108973674
94	0xbd3afd6b	-0.045651834
95	0x3a20a100	0.00061275065
96	0x3d2bf221	0.04197896
97	0xbdc5a54f	-0.09650671
98	0x3c43a975	0.011942257
99	0xbde64691	-0.11243928
100	0x3de8deb6	0.11370604
101	0x3db3e7f9	0.0878448
102	0xbe07c8d7	-0.13260208
103	0xbe677990	-0.22604966
104	0xbdf66347	-0.120306544
105	0xbd1ab3cb	-0.03776912
106	0x3e0fd50a	0.14046112
107	0x3dacd42e	0.084389076
108	0xbd351acc	-0.04421501
109	0xbd82cd52	-0.06386818
110	0xbe0a46f7	-0.13503633
111	0xbd3f1662	-0.046652205
112	0xbcf327bd	-0.029682035
113	0x3d96bff4	0.07360831
114	0xbe3a49ed	-0.18192263
115	0x3e0981aa	0.13428369
116	0xbe0a1130	-0.13483119
117	0xbd12910f	-0.03578287
118	0x3dab086f	0.08351218
119	0x3cc92809	0.024555223
120	0xbe3eded4	-0.1863969
121	0xbe81a30f	-0.25319716
122	0x3dfc0116	0.123048946
123	0x3d6b74a3	0.05748428
124	0x3e3fa721	0.18716098
125	0x3de062d3	0.10956349
126	0x3d97b8f8	0.07408327
127	0xbb606703	-0.0034241087
128	0x3daaacad	0.083337165
129	0x3cae56b2	0.021281574
130	0xbce56936	-0.02800427
131	0x3c1b2649	0.009469577
132	0xbd3ea664	-0.0465454
133	0xbddfeac3	-0.10933449
134	0xbd8b4d08	-0.06801802
135	0xbdc2158e	-0.094767675
136	0xbc828697	-0.015933318
137	0x3ce0c419	0.027437257
138	0xbde1d944	-0.11027768
139	0xbd6819c8	-0.056665212
140	0xbe2a5413	-0.16633634
141	0x3dbb0920	0.091326
142	0x3dfd62ea	0.12372382
143	0xbd9c29b6	-0.07625143
144	0xbde6ca9e	-0.11269115
145	0xbd61c9f6	-0.055124246
146	0xbcb8e495	-0.022569934
147	0xbcdae35e	-0.026719745
148	0xbceff113	-0.029289758
149	0x3de5e2c5	0.112248935
150	0xbe121675	-0.14266379
151	0x3c58f2aa	0.013241449
152	0xbd7a35d6	-0.0610865
153	0xbcdbdecb	-0.026839634
154	0x3ca1e6e8	0.019763425
155	0x3d841299	0.0644886
156	0x3d6103ab	0.05493514
157	0x3cc89da7	0.024489237
158	0xbe080076	-0.13281426
159	0x3d6c1901	0.057641033
160	0x3e074243	0.1320887
161	0x3da05b47	0.0782991
162	0x3dd6ce4f	0.10488569
163	0xbe009583	-0.12557034
164	0x3ca32129	0.019913273
165	0x3e09940e	0.13435385
166	0x3da655bc	0.08121821
167	0xbcd60086	-0.026123296
168	0x3df91153	0.121615075
169	0xbde26e84	-0.110562354
170	0xbd5266fe	-0.051367752
171	0xbdc9f26f	-0.09860694
172	0x3da1be0c	0.07897577
173	0x3d8dd07f	0.06924533
174	0x3d0fa23d	0.03506683
175	0xbe0555ad	-0.13020964
176	0xbe1f93d0	-0.1558373
177	0x3df39aae	0.11894737
178	0xbc581a77	-0.013189903
179	0x3e025a36	0.12729725
180	0xbd8398ef	-0.06425654
181	0x3d73db9f	0.05953562
182	0x3dbdd45a	0.092690185
183	0x3d00745d	0.031360973
184	0x3e15cbd8	0.14628541
185	0xbe06dc30	-0.13169932
186	0xbd7bdc85	-0.0614896
187	0x3d46bf62	0.04852236
188	0x3dc8d98b	0.09807118
189	0xbe31e940	-0.17374134
190	0xbdc8a30b	-0.09796723
191	0xbdf5e53d	-0.12006614
192	0x3d2fd57b	0.0429282
193	0x3e2219d3	0.15830164
194	0xbde02a0d	-0.109455206
195	0xbe136612	-0.14394405
196	0xbc06094f	-0.00818093
197	0x3c1c88b2	0.009554075
198	0xbdde1de9	-0.10845549
199	0xbcab9d64	-0.020949073
200	0xbdf95347	-0.12174087
201	0xbe411926	-0.1885725
202	0x3d3d68fd	0.046242703
203	0x3e097dea	0.13426939
204	0xbdd9ad90	-0.106288075
205	0xbddf8a65	-0.109150685
206	0xbc1d1dee	-0.009589655
207	0xbd2493ac	-0.040179893
208	0x3db25ef0	0.08709514
209	0x3c1bdd21	0.00951317
210	0x3d61d3b4	0.055133536
211	0x3bd8d392	0.006617018
212	0x3db5a7a0	0.088698626
213	0xbb14ced2	-0.0022706282
214	0xbd235885	-0.03987934
215	0xba9b43ff	-0.0011845826
216	0xbb891f9c	-0.0041846763
217	0xbd3518eb	-0.044213217
218	0x3d5db1d6	0.054124676
219	0x3d557e9b	0.052122694
220	0x3dc8361c	0.097759455
221	0x3dfd9e0d	0.123836614
222	0x3c845054	0.016151585
223	0xbd4c0795	-0.04981192
224	0x3da96af7	0.08272355
225	0x3aa7ea79	0.0012810967
226	0x3def34f2	0.116800204
227	0xbcccd923	-0.025005883
228	0xbc3bc673	-0.011460888
229	0xbe1315ab	-0.14363734
230	0x3d7eb717	0.062186327
231	0xbdef3bf8	-0.1168136
232	0xbcc636a4	-0.024195977
233	0x3ce8c5b7	0.02841459
234	0x3b828e92	0.003984281
235	0xbdb84b53	-0.08998742
236	0xbdc78e5e	-0.09743951
237	0x3d97120a	0.073764876
238	0x3dbc3873	0.09190454
239	0xbe042630	-0.12905192
240	0xbe17680d	-0.14785786
241	0x3ccb53d2	0.024820242
242	0xbd859220	-0.06522012
243	0xbdeb5227	-0.11490279
244	0x3d3af0a9	0.045639668
245	0x3d85dd91	0.06536401
246	0xbd9b994f	-0.07597601
247	0xbda474ea	-0.08030112
248	0x3d7cc188	0.061708003
249	0x3e1f91f3	0.15583019
250	0x3de74922	0.11293246
251	0xbd5e1333	-0.05421753
252	0xbd2f8173	-0.04284806
253	0x3d6ae2b2	0.0573451
254	0xbe2065b9	-0.15663804
255	0xbdf04db5	-0.117335714

conv1.lin_dst.weight f4 [100, 200]
0	0xba436c8d	-0.0007454835
1	0xbe2c4b5a	-0.1682562
2	0xbe163294	-0.14667732
3	0x3d8962b2	0.06708278
4	0x3d2b7d4f	0.04186755
5	0xbdd5342e	-0.10410343
6	0xbd7b0de5	-0.061292548
7	0xbd8c94b9	-0.06864304
8	0x3d89bf79	0.06725974
9	0x3d927a75	0.07152263
10	0xbce26b54	-0.027639069
11	0x3d370c6b	0.044689577
12	0xbd726afb	-0.059184056
13	0x3ddd5ed3	0.10809102
14	0xbd41fba3	-0.04735912
15	0x3cc0357f	0.023463009
16	0xbe5a240d	-0.21302815
17	0x3d3f7b20	0.04674828
18	0xbcbb6d47	-0.022879256
19	0x3dd06618	0.10175723
20	0xbde4fd29	-0.11181099
21	0xbdd87d98	-0.1057083
22	0x3da6efb3	0.08151188
23	0x3d3fdddb	0.046842437
24	0xbdd94ded	-0.10610566
25	0xbd570208	-0.05249217
26	0x3d974371	0.0738591
27	0xbb4fe9ec	-0.0031725122
28	0x3e0a7cda	0.1352419
29	0xbe226ffb	-0.1586303
30	0x3d7c75de	0.061635844
31	0x3b28092f	0.002564024
32	0xbd982ed1	-0.074308045
33	0xbd02d371	-0.031939927
34	0xbe0620e6	-0.13098487
35	0x3de6f692	0.11277498
36	0xbde46c10	-0.11153424
37	0x3dac7812	0.08421339
38	0xbdb382aa	-0.087651566
39	0x3e03846f	0.12843488
40	0x3dbb9be5	0.09160594
41	0x3e08d17e	0.13361165
42	0x3d7556ea	0.05989734
43	0xbd2e6f89	-0.042586837
44	0x3d3fc3b8	0.04681751
45	0xbd0538fa	-0.03252504
46	0x3d86ae37	0.065761976
47	0x3dff9113	0.124788426
48	0x3dc57f0c	0.09643373
49	0x3c8b96df	0.017039714
50	0x3cbfc965	0.023411462
51	0xbe15d950	-0.1463368
52	0x3df950a1	0.12173582
53	0x3d76dffb	0.0602722
54	0xbb7a0b84	-0.0038153837
55	0x3d5e0311	0.054202143
56	0x3dae4e6b	0.08511051
57	0x3d5e3197	0.05424651
58	0x3d9b37ea	0.07579024
59	0x3dcc4940	0.09974909
60	0x3dc78a44	0.09743169
61	0x3d61675a	0.055030204
62	0xbdeabf1c	-0.114622325
63	0x3de89ab8	0.11357635
64	0x3ce45c97	0.027876182
65	0xbd255fa9	-0.04037443
66	0xbd89d9e8	-0.067310154
67	0xbdddb8bd	-0.10826252
68	0x3e014fec	0.12628144
69	0xbc864eda	-0.016395021
70	0xbd7a215d	-0.061066974
71	0xbd90f5d1	-0.07078136
72	0xbd867875	-0.06565944
73	0x3af462f1	0.001864521
74	0x3dd02ab4	0.10164395
75	0x3dda6eac	0.1066564
76	0x3da91c68	0.08257371
77	0xbdeb003b	-0.11474653
78	0x3da7d67c	0.081952065
79	0xbd42fe3b	-0.047605734
80	0x3e038ad3	0.12845926
81	0x3aa2f453	0.0012432433
82	0xbde8d5cb	-0.11368903
83	0x3d11934c	0.035540864
84	0x3de6623d	0.11249206
85	0x3d57eadb	0.05271421
86	0x3c5965d9	0.013268911
87	0x3d586f3c	0.052840456
88	0xbe096aa2	-0.13419583
89	0xbd967bad	-0.07347808
90	0xbdddd69a	-0.108319476
91	0x3d81f54f	0.06345617
92	0xbdd47f49	-0.1037584
93	0xbddf2d97	-0.108973674
94	0xbd3afd6b	-0.045651834
95	0x3a20a100	0.00061275065
96	0x3d2bf221	0.04197896
97	0xbdc5a54f	-0.09650671
98	0x3c43a975	0.011942257
99	0xbde64691	-0.11243928
100	0x3de8deb6	0.11370604
101	0x3db3e7f9	0.0878448
102	0xbe07c8d7	-0.13260208
103	0xbe677990	-0.22604966
104	0xbdf66347	-0.120306544
105	0xbd1ab3cb	-0.03776912
106	0x3e0fd50a	0.14046112
107	0x3dacd42e	0.084389076
108	0xbd351acc	-0.04421501
109	0xbd82cd52	-0.06386818
110	0xbe0a46f7	-0.13503633
111	0xbd3f1662	-0.046652205
112	0xbcf327bd	-0.029682035
113	0x3d96bff4	0.07360831
114	0xbe3a49ed	-0.18192263
115	0x3e0981aa	0.13428369
116	0xbe0a1130	-0.13483119
117	0xbd12910f	-0.03578287
118	0x3dab086f	0.08351218
119	0x3cc92809	0.024555223
120	0xbe3eded4	-0.1863969
121	0xbe81a30f	-0.25319716
122	0x3dfc0116	0.123048946
123	0x3d6b74a3	0.05748428
124	0x3e3fa721	0.18716098
125	0x3de062d3	0.10956349
126	0x3d97b8f8	0.07408327
127	0xbb606703	-0.0034241087
128	0x3daaacad	0.083337165
129	0x3cae56b2	0.021281574
130	0xbce56936	-0.02800427
131	0x3c1b2649	0.009469577
132	0xbd3ea664	-0.0465454
133	0xbddfeac3	-0.10933449
134	0xbd8b4d08	-0.06801802
135	0xbdc2158e	-0.094767675
136	0xbc828697	-0.015933318
137	0x3ce0c419	0.027437257
138	0xbde1d944	-0.11027768
139	0xbd6819c8	-0.056665212
140	0xbe2a5413	-0.16633634
141	0x3dbb0920	0.091326
142	0x3dfd62ea	0.12372382
143	0xbd9c29b6	-0.07625143
144	0xbde6ca9e	-0.11269115
145	0xbd61c9f6	-0.055124246
146	0xbcb8e495	-0.022569934
147	0xbcdae35e	-0.026719745
148	0xbceff113	-0.029289758
149	0x3de5e2c5	0.112248935
150	0xbe121675	-0.14266379
151	0x3c58f2aa	0.013241449
152	0xbd7a35d6	-0.0610865
153	0xbcdbdecb	-0.026839634
154	0x3ca1e6e8	0.019763425
155	0x3d841299	0.0644886
156	0x3d6103ab	0.05493514
157	0x3cc89da7	0.024489237
158	0xbe080076	-0.13281426
159	0x3d6c1901	0.057641033
160	0x3e074243	0.1320887
161	0x3da05b47	0.0782991
162	0x3dd6ce4f	0.10488569
163	0xbe009583	-0.12557034
164	0x3ca32129	0.019913273
165	0x3e09940e	0.13435385
166	0x3da655bc	0.08121821
167	0xbcd60086	-0.026123296
168	0x3df91153	0.121615075
169	0xbde26e84	-0.110562354
170	0xbd5266fe	-0.051367752
171	0xbdc9f26f	-0.09860694
172	0x3da1be0c	0.07897577
173	0x3d8dd07f	0.06924533
174	0x3d0fa23d	0.03506683
175	0xbe0555ad	-0.13020964
176	0xbe1f93d0	-0.1558373
177	0x3df39aae	0.11894737
178	0xbc581a77	-0.013189903
179	0x3e025a36	0.12729725
180	0xbd8398ef	-0.06425654
181	0x3d73db9f	0.05953562
182	0x3dbdd45a	0.092690185
183	0x3d00745d	0.031360973
184	0x3e15cbd8	0.14628541
185	0xbe06dc30	-0.13169932
186	0xbd7bdc85	-0.0614896
187	0x3d46bf62	0.04852236
188	0x3dc8d98b	0.09807118
189	0xbe31e940	-0.17374134
190	0xbdc8a30b	-0.09796723
191	0xbdf5e53d	-0.12006614
192	0x3d2fd57b	0.0429282
193	0x3e2219d3	0.15830164
194	0xbde02a0d	-0.109455206
195	0xbe136612	-0.14394405
196	0xbc06094f	-0.00818093
197	0x3c1c88b2	0.009554075
198	0xbdde1de9	-0.10845549
199	0xbcab9d64	-0.020949073
200	0xbdf95347	-0.12174087
201	0xbe411926	-0.1885725
202	0x3d3d68fd	0.046242703
203	0x3e097dea	0.13426939
204	0xbdd9ad90	-0.106288075
205	0xbddf8a65	-0.109150685
206	0xbc1d1dee	-0.009589655
207	0xbd2493ac	-0.040179893
208	0x3db25ef0	0.08709514
209	0x3c1bdd21	0.00951317
210	0x3d61d3b4	0.055133536
211	0x3bd8d392	0.006617018
212	0x3db5a7a0	0.088698626
213	0xbb14ced2	-0.0022706282
214	0xbd235885	-0.03987934
215	0xba9b43ff	-0.0011845826
216	0xbb891f9c	-0.0041846763
217	0xbd3518eb	-0.044213217
218	0x3d5db1d6	0.054124676
219	0x3d557e9b	0.052122694
220	0x3dc8361c	0.097759455
221	0x3dfd9e0d	0.123836614
222	0x3c845054	0.016151585
223	0xbd4c0795	-0.04981192
224	0x3da96af7	0.08272355
225	0x3aa7ea79	0.0012810967
226	0x3def34f2	0.116800204
227	0xbcccd923	-0.025005883
228	0xbc3bc673	-0.011460888
229	0xbe1315ab	-0.14363734
230	0x3d7eb717	0.062186327
231	0xbdef3bf8	-0.1168136
232	0xbcc636a4	-0.024195977
233	0x3ce8c5b7	0.02841459
234	0x3b828e92	0.003984281
235	0xbdb84b53	-0.08998742
236	0xbdc78e5e	-0.09743951
237	0x3d97120a	0.073764876
238	0x3dbc3873	0.09190454
239	0xbe042630	-0.12905192
240	0xbe17680d	-0.14785786
241	0x3ccb53d2	0.024820242
242	0xbd859220	-0.06522012
243	0xbdeb5227	-0.11490279
244	0x3d3af0a9	0.045639668
245	0x3d85dd91	0.06536401
246	0xbd9b994f	-0.07597601
247	0xbda474ea	-0.08030112
248	0x3d7cc188	0.061708003
249	0x3e1f91f3	0.15583019
250	0x3de74922	0.11293246
251	0xbd5e1333	-0.05421753
252	0xbd2f8173	-0.04284806
253	0x3d6ae2b2	0.0573451
254	0xbe2065b9	-0.15663804
255	0xbdf04db5	-0.117335714

conv2.att_src f4 [1, 1, 64]
0	0x3e21539e	0.15754554
1	0xbe063e04	-0.13109595
2	0xbeae60f1	-0.34058335
3	0xbd8f690d	-0.07002459
4	0xbe404724	-0.18777138
5	0xbea13bb7	-0.3149087
6	0x3db3d54a	0.08780916
7	0xbe993c46	-0.29928797
8	0xbea2c15f	-0.31788155
9	0xbe29961d	-0.1656117
10	0xbcda1599	-0.026621627
11	0x3e3d548e	0.18489286
12	0xbdfc3ead	-0.12316642
13	0xbe8e9293	-0.27846202
14	0x3e0fbe18	0.14037359
15	0x3df91289	0.121617384
16	0x3c866861	0.016407194
17	0xbbb3ae26	-0.0054834066
18	0x3e581cb6	0.21104702
19	0x3dfa385e	0.122177824
20	0xbe5c4ab8	-0.21512878
21	0xbeb22a83	-0.3479806
22	0xbd3c5489	-0.045979057
23	0xbbf5935c	-0.0074943732
24	0x3e77fcc1	0.24217512
25	0x3dbdde41	0.09270907
26	0xbdef5a45	-0.116871394
27	0x3ead4ce6	0.3384773
28	0x3c261812	0.010137575
29	0xbce0e3d7	-0.027452393
30	0xbe98b638	-0.29826522
31	0xbe544290	-0.20728517
32	0xbdcc493f	-0.09974908
33	0x3e128186	0.14307222
34	0xbe0e1848	-0.1387645
35	0x3ea6d00d	0.32580605
36	0x3dacf8c2	0.08445884
37	0xbe7e463c	-0.2483148
38	0xbd9cee9d	-0.07662699
39	0xbea79298	-0.3272903
40	0xbe784b64	-0.24247509
41	0xbea1c59f	-0.31596085
42	0x3dc1a5cb	0.094554506
43	0xbe289fba	-0.16467181
44	0xbbdf554f	-0.0068155895
45	0xbd13bc84	-0.036068454
46	0xbdf63e65	-0.120236196
47	0xbe1532c6	-0.1457015
48	0x3d7ca4db	0.061680656
49	0xbec0354a	-0.37540656
50	0x3eb238ea	0.34809047
51	0x3e0ec7d3	0.13943414
52	0xbd5cac62	-0.053875335
53	0xbd9eaddb	-0.07748004
54	0xbea2436a	-0.31692058
55	0xbc5a6315	-0.013329287
56	0x3e3e07bc	0.18557638
57	0x3dabaa4a	0.083820894
58	0x3e2fbe22	0.17162374
59	0xbe2b3648	-0.16719925
60	0xbe05e42b	-0.1307532
61	0x3e2949f3	0.16532116
62	0x3e55a1ae	0.20862457
63	0x3db35aa3	0.08757522

conv2.att_dst f4 [1, 1, 64]
0	0x3df2df1a	0.118589595
1	0x3e9b13bd	0.30288497
2	0x3e1880b4	0.14892846
3	0xbe8055e0	-0.25065517
4	0xbe87353d	-0.26407805
5	0xbe6912a8	-0.22761023
6	0xbe3b59be	-0.18295953
7	0xbd0e92d9	-0.034808014
8	0x3d0aaa0a	0.033853568
9	0x3d621dcf	0.05520421
10	0x37313091	1.056133e-05
11	0xbe0f7bcc	-0.14012069
12	0xbdc80b41	-0.097677715
13	0x3d24af87	0.04020646
14	0x3e7b847f	0.24562262
15	0x3d04699a	0.032327272
16	0xbe902857	-0.28155777
17	0xbe444865	-0.19168241
18	0xbe0a2d4a	-0.13493839
19	0x3cb471e5	0.022026965
20	0x3e060e41	0.13091375
21	0x3e2635c1	0.16231443
22	0x3e33880e	0.1753237
23	0xbe855de0	-0.26048183
24	0x3e96f9e1	0.29487517
25	0xbe874e80	-0.26427078
26	0xbdda505d	-0.10659859
27	0xbe365335	-0.17805178
28	0x3e8be2ba	0.27321416
29	0x3d0bbcc5	0.03411557
30	0xbd22a123	-0.039704453
31	0xbe4c8add	-0.19974847
32	0xbd4a8b71	-0.049449388
33	0xbe8e8302	-0.27834326
34	0xbe08cfc8	-0.13360512
35	0x3e06f172	0.13178042
36	0xbe0a8ab9	-0.13529481
37	0xbe22b9f2	-0.15891245
38	0xbe092b9e	-0.13395545
39	0xbea8a55b	-0.32938656
40	0xbd123fdc	-0.035705432
41	0x3e596ae2	0.21232179
42	0xbe2a441a	-0.16627541
43	0x3e2da622	0.16957906
44	0x3d3039ed	0.043023992
45	0x3e0d8f22	0.13824132
46	0x3e168120	0.14697695
47	0x3e4d3372	0.20039156
48	0x3d9ba82d	0.07600436
49	0x3de75871	0.11296166
50	0x3d5c8998	0.053842157
51	0x3e745afe	0.23862836
52	0xbe32494b	-0.17410772
53	0x3e84ca81	0.25935748
54	0x3d67032f	0.05639952
55	0x3e56050f	0.20900367
56	0x3df46cd7	0.11934822
57	0x3ea75493	0.32681713
58	0x3dafe51c	0.08588621
59	0x3e822524	0.2541896
60	0xbcbf75d9	-0.023371624
61	0xbe3e9d63	-0.18614726
62	0x3d3b68ca	0.04575423
63	0xbd2e9970	-0.0426268

conv2.bias f4 [64]
0	0x3d1f40ad	0.03888004
1	0xbbedeeb6	-0.0072611226
2	0xbd6d333f	-0.0579102
3	0xbcd07abc	-0.02544915
4	0xbcc14b56	-0.023595493
5	0xbccdd0a1	-0.025123896
6	0x3bda0e16	0.006654511
7	0xbd03defd	-0.03219508
8	0x3c52d0ed	0.012867195
9	0xbc3a71e8	-0.011379696
10	0x3b95e9e7	0.0045750025
11	0x3b056e25	0.002035984
12	0x3cd90461	0.026491346
13	0xbc343a91	-0.011000291
14	0x3c855f66	0.016280841
15	0xbbdf965f	-0.0068233456
16	0xbc8b9eac	-0.017043434
17	0xbcaa87ee	-0.02081677
18	0x3b01ddfe	0.0019816156
19	0x3c093000	0.0083732605
20	0xbc9b372c	-0.018947206
21	0xbc20caa0	-0.009813935
22	0x3be9f068	0.0071392544
23	0xbd0c81cf	-0.034303483
24	0x3c238bdf	0.009982078
25	0x3cd96164	0.026535697
26	0xbca9206e	-0.020645346
27	0xbc5dd775	-0.0135401385
28	0xbd0a0f5e	-0.03370606
29	0xbca6750a	-0.02031948
30	0xbd070c3c	-0.032970652
31	0x3aec5a5a	0.0018032298
32	0xbcde3482	-0.027124647
33	0xbc9cd934	-0.01914654
34	0xbc1bfcb1	-0.009520696
35	0xbbcb49e5	-0.0062038773
36	0xbc63f8e9	-0.013914325
37	0xbd1244a5	-0.035709996
38	0xbc8ed56b	-0.01743575
39	0xbce813b2	-0.028329704
40	0xbce881a6	-0.028382134
41	0xbc6377c2	-0.013883533
42	0xbbbdb71e	-0.0057896515
43	0xbd2baa33	-0.04191036
44	0xbd2cb6de	-0.042166583
45	0xbbddb0b2	-0.0067654485
46	0x3c2ab1a3	0.010418328
47	0xbbaa64a4	-0.0051999856
48	0xbc3950f1	-0.011310802
49	0xbcc3f6c1	-0.023921372
50	0x3cdf10e3	0.027229732
51	0x3c2410fe	0.010013817
52	0xbbcf9198	-0.006334495
53	0xbcd2977a	-0.025706995
54	0x3a541280	0.0008089915
55	0xbd15a775	-0.036536653
56	0xba91464d	-0.0011083573
57	0xbd481ede	-0.048857562
58	0xbc268dee	-0.010165675
59	0xbcdf8d69	-0.02728911
60	0xbca915a7	-0.020640207
61	0xbc11b3a4	-0.008892927
62	0x3c9e3855	0.01931397
63	0x3c5a43d4	0.013321836

conv2.lin_src.weight f4 [64, 100]
0	0xbe06a2cf	-0.13148044
1	0x3d102190	0.035188258
2	0xbd38687d	-0.045021523
3	0x3dc26bdb	0.09493228
4	0xbe400427	-0.18751584
5	0x3d7d15ab	0.061788242
6	0xbdc87fbf	-0.09789991
7	0x3d585623	0.05281652
8	0xbe1093cc	-0.1411888
9	0xbd1df3b2	-0.038562484
10	0xbda92068	-0.08258134
11	0xbe3d5496	-0.18489298
12	0x3d908027	0.07055693
13	0xbd186bab	-0.037212055
14	0x3cbc0417	0.022951169
15	0x3e092ed3	0.13396768
16	0xbd60c99c	-0.05487977
17	0xbe3f5db0	-0.18688083
18	0xbc4b162e	-0.012395425
19	0xbe380eed	-0.17974444
20	0xbd8e0529	-0.06934578
21	0x3dbbc21a	0.09167881
22	0xbe0bceb9	-0.13653077
23	0x3d58b41b	0.052906137
24	0x3e0cc3c7	0.13746558
25	0xbe6834ca	-0.22676387
26	0xbda50b96	-0.080588505
27	0xbe2d64fa	-0.16933051
28	0xbe42079a	-0.18948212
29	0xbdce1433	-0.100624464
30	0xbcd4282c	-0.025898062
31	0xbd45dc16	-0.048305593
32	0xbd755327	-0.059893753
33	0xbdadbec7	-0.084836535
34	0xbda9f632	-0.08298911
35	0xbd8487e0	-0.064712286
36	0x3e0a1adb	0.13486807
37	0xbd0f25df	-0.034948226
38	0xbddc1263	-0.107456945
39	0x3dcfc057	0.10144108
40	0x3c208a5b	0.0097986115
41	0xbda81857	-0.082077675
42	0x3e384841	0.17996313
43	0xbdb4d8eb	-0.08830436
44	0x3d67f765	0.05663242
45	0xbcf16375	-0.02946637
46	0x3e0ef103	0.13959126
47	0x3db0cb0e	0.086324796
48	0xbe57032b	-0.20997302
49	0x3daede83	0.085385345
50	0x3dbf4670	0.09339607
51	0xbe6d2fb5	-0.2316273
52	0xbda5661a	-0.08076115
53	0xbe49da80	-0.19712257
54	0xbe5714bf	-0.21004008
55	0xbdaaa5ab	-0.0833238
56	0xbdb76df7	-0.08956521
57	0xbe718345	-0.23585232
58	0x3db4de50	0.08831465
59	0xbe0ca9fe	-0.13736722
60	0x3c229870	0.009924039
61	0x3e15cb7f	0.14628409
62	0xbd892445	-0.06696371
63	0xbe1df564	-0.1542564
64	0xbcb71647	-0.02234949
65	0xbe7922fc	-0.24329752
66	0xbca9150e	-0.020639922
67	0x3cb83a32	0.022488687
68	0x3e1d2aab	0.15348308
69	0x3d99de46	0.075130984
70	0xbe87213b	-0.2639254
71	0x3e14f7e1	0.14547683
72	0xbd76d2a1	-0.060259465
73	0xbe45bae7	-0.19309579
74	0x3dabdc3d	0.083916165
75	0xbde94454	-0.11389986
76	0x3de0226a	0.10944064
77	0x3e01047f	0.12599371
78	0xbcc02f73	-0.023460126
79	0x3c0eebd9	0.008723223
80	0x3cd043d6	0.025422972
81	0xbd9ef2d6	-0.07761161
82	0xbc01e9e5	-0.0079293
83	0x3db4dac7	0.08830791
84	0x3e1fab5f	0.15592717
85	0xbe9a3c25	-0.30124012
86	0xbcb37f15	-0.021911183
87	0x3e761b44	0.24033839
88	0xbe66014e	-0.22461435
89	0xbd41b168	-0.04728833
90	0x3e0c8e37	0.13726126
91	0x3d1ef433	0.038807105
92	0xbda26b09	-0.079305716
93	0xbdaa8684	-0.08326438
94	0x3e257fc9	0.16162027
95	0x3e5594f2	0.208576
96	0xbd41b46d	-0.047291208
97	0xbdf60b22	-0.12013842
98	0x3c6acb6e	0.014330728
99	0x3e15a92c	0.14615315
100	0xbdeebd84	-0.11657241
101	0xbd2902c1	-0.041262392
102	0x3de5761a	0.11204167
103	0xbe1b047a	-0.15138426
104	0xbde88361	-0.113531835
105	0xbc477b5a	-0.012175405
106	0xbd0c9bbd	-0.03432821
107	0x3d147570	0.03624481
108	0xbdea65e5	-0.11445216
109	0xbe24f192	-0.16107777
110	0x3e376536	0.17909703
111	0xbe57c015	-0.21069367
112	0x3d2ca781	0.04215193
113	0xbe09a85a	-0.13443127
114	0xbe63d383	-0.22248654
115	0x3dff9762	0.12480046
116	0xbd2c4426	-0.04205718
117	0x3d2d9f20	0.04238808
118	0x3e04957d	0.1294765
119	0xbdd586cd	-0.10426102
120	0x3d81d8f5	0.063402094
121	0xbd579ebd	-0.05264162
122	0x3ccbed8b	0.024893543
123	0xbd2c9314	-0.042132452
124	0xbe27b477	-0.16377436
125	0xbdfb5356	-0.122717544
126	0xbd7109c4	-0.058847204
127	0xbe14f597	-0.1454681
128	0xbd9118f1	-0.07084835
129	0xbcfa008d	-0.03051784
130	0xbe3c7ccd	-0.18406983
131	0x3be6a848	0.0070391037
132	0x3c154f56	0.009113153
133	0x3e2fa0af	0.1715114
134	0xbe53f153	-0.20697527
135	0x3dcdf2dc	0.100560874
136	0x3e81fdc8	0.25388932
137	0x3cb35638	0.021891698
138	0xbe228950	-0.15872693
139	0xbdab3673	-0.08359995
140	0xbe6aa533	-0.22914581
141	0xbdcff3f2	-0.10153951
142	0x3e45789c	0.1928429
143	0xbd0f048d	-0.03491645
144	0xbdab19c5	-0.083545245
145	0xbc889ff0	-0.016677827
146	0xbd0f98f5	-0.03505798
147	0x3e2a071c	0.16604275
148	0xbc45a463	-0.012063119
149	0x3deecde3	0.116603635
150	0xbda4dee0	-0.080503225
151	0xbc33311a	-0.010937
152	0x3e10e6ab	0.14150493
153	0x3d510e63	0.05103911
154	0x3c528859	0.012849891
155	0xbdfb45df	-0.12269186
156	0xbd912f43	-0.070890926
157	0xbe4a5211	-0.19757868
158	0xbce1ca32	-0.027562235
159	0xbe0a7d40	-0.13524342
160	0x3a603503	0.0008552821
161	0x3d1a337c	0.037646756
162	0xbd8de79b	-0.06928941
163	0x3e02ac39	0.1276101
164	0xbdac4dd9	-0.08413286
165	0xbe3c38ea	-0.18381086
166	0xbd90c822	-0.07069422
167	0xbdc3a909	-0.09553725
168	0x3e890265	0.2675964
169	0x3e2a1a1e	0.16611525
170	0xbe4694cf	-0.19392703
171	0xbddad916	-0.10685937
172	0xbe105d69	-0.14098133
173	0x3cf138f0	0.029446095
174	0xbd8765f0	-0.0661124
175	0x3e67fc4c	0.22654837
176	0xbe187215	-0.14887269
177	0x3e431a06	0.19052896
178	0xbdd334a2	-0.10312773
179	0xbcb445fc	-0.022006027
180	0xbe264e3f	-0.16240786
181	0xbe1373a8	-0.14399588
182	0x3d1ab2ae	0.03776806
183	0xbdf197da	-0.117965415
184	0x3979dba2	0.0002382831
185	0xbdff54e4	-0.124673635
186	0x3e00c87d	0.1257648
187	0x3d79ac03	0.06095506
188	0x3dd217b1	0.10258425
189	0xbe4a30ab	-0.19745128
190	0xbe25b134	-0.16180879
191	0xbc6b5ca4	-0.014365349
192	0xbe7b70f5	-0.24554808
193	0xbe0e09ac	-0.13870877
194	0x3d57d3d8	0.052692264
195	0x3e9eae39	0.30992296
196	0x3e010dfa	0.12602988
197	0xbe6fcd33	-0.23418121
198	0x3dd9fb8c	0.10643682
199	0x3ddb4f21	0.10708452
200	0xbde1741c	-0.11008474
201	0x3de20dfa	0.11037822
202	0x3db3d706	0.08781247
203	0x3e28fe4e	0.1650326
204	0x3d9d3a16	0.07677095
205	0x3de632fe	0.11240195
206	0x3d9dd667	0.077069096
207	0x3e56d63b	0.2098016
208	0x3e274ea7	0.16338597
209	0x3dd1f93e	0.10252617
210	0x3da2b1b8	0.079440534
211	0xbe0afaa6	-0.13572177
212	0x3d5ec2f5	0.054385144
213	0xbda4e342	-0.080511585
214	0x3d85f497	0.065407924
215	0xbd89000a	-0.066894606
216	0x3db4c7c8	0.08827168
217	0xbc732236	-0.0148396995
218	0x3c085f16	0.0083234515
219	0xbdab8172	-0.08374299
220	0x3c9f63f3	0.01945684
221	0xbdd2e211	-0.10297025
222	0x3d955f87	0.07293611
223	0x3d5d5e31	0.054044906
224	0x3e0dd270	0.13849807
225	0xbdcfeac2	-0.101521984
226	0xbd80aa89	-0.06282527
227	0xbe8feafc	-0.28108966
228	0x3e8f48dc	0.27985275
229	0xbdc2f0ca	-0.09518583
230	0x3e23ff0c	0.16015261
231	0x3c8fa838	0.017536268
232	0x3d174006	0.036926292
233	0xbd420514	-0.047368124
234	0xbd116f3a	-0.035506465
235	0xbd6622ce	-0.056185536
236	0x3e0f0945	0.1396838
237	0xbd9faf01	-0.07797051
238	0xbe1f2ee5	-0.15545233
239	0x3df26460	0.11835551
240	0xbcfff658	-0.031245396
241	0x3dec9e19	0.11553592
242	0x3e097ab7	0.13425718
243	0x3d040615	0.032232363
244	0x3da41d90	0.08013451
245	0xbaf5ea62	-0.0018761868
246	0xbd3f627b	-0.046724778
247	0xbd91576c	-0.070967525
248	0x3d03a3e9	0.03213874
249	0x3ca86f5e	0.020560917
250	0x3d724c77	0.059154954
251	0xbd9ccb2a	-0.07655938
252	0x3e50c526	0.20387706
253	0x3d03119b	0.03199921
254	0x3e315e20	0.17321062
255	0xbc21844e	-0.009858204

conv2.lin_dst.weight f4 [64, 100]
0	0xbe06a2cf	-0.13148044
1	0x3d102190	0.035188258
2	0xbd38687d	-0.045021523
3	0x3dc26bdb	0.09493228
4	0xbe400427	-0.18751584
5	0x3d7d15ab	0.061788242
6	0xbdc87fbf	-0.09789991
7	0x3d585623	0.05281652
8	0xbe1093cc	-0.1411888
9	0xbd1df3b2	-0.038562484
10	0xbda92068	-0.08258134
11	0xbe3d5496	-0.18489298
12	0x3d908027	0.07055693
13	0xbd186bab	-0.037212055
14	0x3cbc0417	0.022951169
15	0x3e092ed3	0.13396768
16	0xbd60c99c	-0.05487977
17	0xbe3f5db0	-0.18688083
18	0xbc4b162e	-0.012395425
19	0xbe380eed	-0.17974444
20	0xbd8e0529	-0.06934578
21	0x3dbbc21a	0.09167881
22	0xbe0bceb9	-0.13653077
23	0x3d58b41b	0.052906137
24	0x3e0cc3c7	0.13746558
25	0xbe6834ca	-0.22676387
26	0xbda50b96	-0.080588505
27	0xbe2d64fa	-0.16933051
28	0xbe42079a	-0.18948212
29	0xbdce1433	-0.100624464
30	0xbcd4282c	-0.025898062
31	0xbd45dc16	-0.048305593
32	0xbd755327	-0.059893753
33	0xbdadbec7	-0.084836535
34	0xbda9f632	-0.08298911
35	0xbd8487e0	-0.064712286
36	0x3e0a1adb	0.13486807
37	0xbd0f25df	-0.034948226
38	0xbddc1263	-0.107456945
39	0x3dcfc057	0.10144108
40	0x3c208a5b	0.0097986115
41	0xbda81857	-0.082077675
42	0x3e384841	0.17996313
43	0xbdb4d8eb	-0.08830436
44	0x3d67f765	0.05663242
45	0xbcf16375	-0.02946637
46	0x3e0ef103	0.13959126
47	0x3db0cb0e	0.086324796
48	0xbe57032b	-0.20997302
49	0x3daede83	0.085385345
50	0x3dbf4670	0.09339607
51	0xbe6d2fb5	-0.2316273
52	0xbda5661a	-0.08076115
53	0xbe49da80	-0.19712257
54	0xbe5714bf	-0.21004008
55	0xbdaaa5ab	-0.0833238
56	0xbdb76df7	-0.08956521
57	0xbe718345	-0.23585232
58	0x3db4de50	0.08831465
59	0xbe0ca9fe	-0.13736722
60	0x3c229870	0.009924039
61	0x3e15cb7f	0.14628409
62	0xbd892445	-0.06696371
63	0xbe1df564	-0.1542564
64	0xbcb71647	-0.02234949
65	0xbe7922fc	-0.24329752
66	0xbca9150e	-0.020639922
67	0x3cb83a32	0.022488687
68	0x3e1d2aab	0.15348308
69	0x3d99de46	0.075130984
70	0xbe87213b	-0.2639254
71	0x3e14f7e1	0.14547683
72	0xbd76d2a1	-0.060259465
73	0xbe45bae7	-0.19309579
74	0x3dabdc3d	0.083916165
75	0xbde94454	-0.11389986
76	0x3de0226a	0.10944064
77	0x3e01047f	0.12599371
78	0xbcc02f73	-0.023460126
79	0x3c0eebd9	0.008723223
80	0x3cd043d6	0.025422972
81	0xbd9ef2d6	-0.07761161
82	0xbc01e9e5	-0.0079293
83	0x3db4dac7	0.08830791
84	0x3e1fab5f	0.15592717
85	0xbe9a3c25	-0.30124012
86	0xbcb37f15	-0.021911183
87	0x3e761b44	0.24033839
88	0xbe66014e	-0.22461435
89	0xbd41b168	-0.04728833
90	0x3e0c8e37	0.13726126
91	0x3d1ef433	0.038807105
92	0xbda26b09	-0.079305716
93	0xbdaa8684	-0.08326438
94	0x3e257fc9	0.16162027
95	0x3e5594f2	0.208576
96	0xbd41b46d	-0.047291208
97	0xbdf60b22	-0.12013842
98	0x3c6acb6e	0.014330728
99	0x3e15a92c	0.14615315
100	0xbdeebd84	-0.11657241
101	0xbd2902c1	-0.041262392
102	0x3de5761a	0.11204167
103	0xbe1b047a	-0.15138426
104	0xbde88361	-0.113531835
105	0xbc477b5a	-0.012175405
106	0xbd0c9bbd	-0.03432821
107	0x3d147570	0.03624481
108	0xbdea65e5	-0.11445216
109	0xbe24f192	-0.16107777
110	0x3e376536	0.17909703
111	0xbe57c015	-0.21069367
112	0x3d2ca781	0.04215193
113	0xbe09a85a	-0.13443127
114	0xbe63d383	-0.22248654
115	0x3dff9762	0.12480046
116	0xbd2c4426	-0.04205718
117	0x3d2d9f20	0.04238808
118	0x3e04957d	0.1294765
119	0xbdd586cd	-0.10426102
120	0x3d81d8f5	0.063402094
121	0xbd579ebd	-0.05264162
122	0x3ccbed8b	0.024893543
123	0xbd2c9314	-0.042132452
124	0xbe27b477	-0.16377436
125	0xbdfb5356	-0.122717544
126	0xbd7109c4	-0.058847204
127	0xbe14f597	-0.1454681
128	0xbd9118f1	-0.07084835
129	0xbcfa008d	-0.03051784
130	0xbe3c7ccd	-0.18406983
131	0x3be6a848	0.0070391037
132	0x3c154f56	0.009113153
133	0x3e2fa0af	0.1715114
134	0xbe53f153	-0.20697527
135	0x3dcdf2dc	0.100560874
136	0x3e81fdc8	0.25388932
137	0x3cb35638	0.021891698
138	0xbe228950	-0.15872693
139	0xbdab3673	-0.08359995
140	0xbe6aa533	-0.22914581
141	0xbdcff3f2	-0.10153951
142	0x3e45789c	0.1928429
143	0xbd0f048d	-0.03491645
144	0xbdab19c5	-0.083545245
145	0xbc889ff0	-0.016677827
146	0xbd0f98f5	-0.03505798
147	0x3e2a071c	0.16604275
148	0xbc45a463	-0.012063119
149	0x3deecde3	0.116603635
150	0xbda4dee0	-0.080503225
151	0xbc33311a	-0.010937
152	0x3e10e6ab	0.14150493
153	0x3d510e63	0.05103911
154	0x3c528859	0.012849891
155	0xbdfb45df	-0.12269186
156	0xbd912f43	-0.070890926
157	0xbe4a5211	-0.19757868
158	0xbce1ca32	-0.027562235
159	0xbe0a7d40	-0.13524342
160	0x3a603503	0.0008552821
161	0x3d1a337c	0.037646756
162	0xbd8de79b	-0.06928941
163	0x3e02ac39	0.1276101
164	0xbdac4dd9	-0.08413286
165	0xbe3c38ea	-0.18381086
166	0xbd90c822	-0.07069422
167	0xbdc3a909	-0.09553725
168	0x3e890265	0.2675964
169	0x3e2a1a1e	0.16611525
170	0xbe4694cf	-0.19392703
171	0xbddad916	-0.10685937
172	0xbe105d69	-0.14098133
173	0x3cf138f0	0.029446095
174	0xbd8765f0	-0.0661124
175	0x3e67fc4c	0.22654837
176	0xbe187215	-0.14887269
177	0x3e431a06	0.19052896
178	0xbdd334a2	-0.10312773
179	0xbcb445fc	-0.022006027
180	0xbe264e3f	-0.16240786
181	0xbe1373a8	-0.14399588
182	0x3d1ab2ae	0.03776806
183	0xbdf197da	-0.117965415
184	0x3979dba2	0.0002382831
185	0xbdff54e4	-0.124673635
186	0x3e00c87d	0.1257648
187	0x3d79ac03	0.06095506
188	0x3dd217b1	0.10258425
189	0xbe4a30ab	-0.19745128
190	0xbe25b134	-0.16180879
191	0xbc6b5ca4	-0.014365349
192	0xbe7b70f5	-0.24554808
193	0xbe0e09ac	-0.13870877
194	0x3d57d3d8	0.052692264
195	0x3e9eae39	0.30992296
196	0x3e010dfa	0.12602988
197	0xbe6fcd33	-0.23418121
198	0x3dd9fb8c	0.10643682
199	0x3ddb4f21	0.10708452
200	0xbde1741c	-0.11008474
201	0x3de20dfa	0.11037822
202	0x3db3d706	0.08781247
203	0x3e28fe4e	0.1650326
204	0x3d9d3a16	0.07677095
205	0x3de632fe	0.11240195
206	0x3d9dd667	0.077069096
207	0x3e56d63b	0.2098016
208	0x3e274ea7	0.16338597
209	0x3dd1f93e	0.10252617
210	0x3da2b1b8	0.079440534
211	0xbe0afaa6	-0.13572177
212	0x3d5ec2f5	0.054385144
213	0xbda4e342	-0.080511585
214	0x3d85f497	0.065407924
215	0xbd89000a	-0.066894606
216	0x3db4c7c8	0.08827168
217	0xbc732236	-0.0148396995
218	0x3c085f16	0.0083234515
219	0xbdab8172	-0.08374299
220	0x3c9f63f3	0.01945684
221	0xbdd2e211	-0.10297025
222	0x3d955f87	0.07293611
223	0x3d5d5e31	0.054044906
224	0x3e0dd270	0.13849807
225	0xbdcfeac2	-0.101521984
226	0xbd80aa89	-0.06282527
227	0xbe8feafc	-0.28108966
228	0x3e8f48dc	0.27985275
229	0xbdc2f0ca	-0.09518583
230	0x3e23ff0c	0.16015261
231	0x3c8fa838	0.017536268
232	0x3d174006	0.036926292
233	0xbd420514	-0.047368124
234	0xbd116f3a	-0.035506465
235	0xbd6622ce	-0.056185536
236	0x3e0f0945	0.1396838
237	0xbd9faf01	-0.07797051
238	0xbe1f2ee5	-0.15545233
239	0x3df26460	0.11835551
240	0xbcfff658	-0.031245396
241	0x3dec9e19	0.11553592
242	0x3e097ab7	0.13425718
243	0x3d040615	0.032232363
244	0x3da41d90	0.08013451
245	0xbaf5ea62	-0.0018761868
246	0xbd3f627b	-0.046724778
247	0xbd91576c	-0.070967525
248	0x3d03a3e9	0.03213874
249	0x3ca86f5e	0.020560917
250	0x3d724c77	0.059154954
251	0xbd9ccb2a	-0.07655938
252	0x3e50c526	0.20387706
253	0x3d03119b	0.03199921
254	0x3e315e20	0.17321062
255	0xbc21844e	-0.009858204

conv3.att_src f4 [1, 1, 64]
0	0x3da2f737	0.07957309
1	0x3e4e92b9	0.20173158
2	0x3ca89628	0.020579413
3	0x3e78be98	0.24291456
4	0x3d75c555	0.060002644
5	0xbe852c91	-0.26010564
6	0x3e4706db	0.19436209
7	0xbd525879	-0.051353905
8	0xbcd41981	-0.025891067
9	0x3dc27297	0.094945125
10	0xbdc5066e	-0.09620367
11	0x3ecbc84b	0.3980125
12	0xbde2efc4	-0.11080888
13	0x3df04bed	0.11733232
14	0xbe249ca7	-0.16075383
15	0xbe493e15	-0.19652589
16	0x3c5508f9	0.0130026275
17	0x3dd37260	0.1032455
18	0xbd937019	-0.07199115
19	0x3c2b3893	0.0104505
20	0xbe4fead0	-0.20304418
21	0x3e360d28	0.17778456
22	0x3e35bd07	0.1774789
23	0xbe2bb753	-0.16769151
24	0xbebb27c6	-0.36553782
25	0x3e400bb7	0.18754469
26	0x3ec531ce	0.3851456
27	0xbed309ac	-0.41218317
28	0x3da22771	0.07917679
29	0xbb8b505d	-0.0042515234
30	0x3dfeaf9b	0.12435838
31	0xbeceee8b	-0.4041637
32	0xbe8156e0	-0.25261593
33	0xbd454f00	-0.048171043
34	0xbef81b65	-0.484584
35	0xbeafca34	-0.34333956
36	0xbe94d244	-0.2906667
37	0xbcb71760	-0.022350013
38	0x3ed0093e	0.4063205
39	0x3db31d88	0.08745867
40	0xbda50978	-0.08058447
41	0xbef071cf	-0.4696183
42	0xbeae9fd2	-0.34106308
43	0xbce304fa	-0.027712334
44	0x3ea01ae8	0.31270528
45	0x3e410ca7	0.18852483
46	0xbeb9af85	-0.36266723
47	0xbed88b2b	-0.42293677
48	0x3d1ca6e3	0.038245093
49	0x3e64e892	0.22354344
50	0x3db6e15c	0.08929703
51	0xbde97ce4	-0.11400774
52	0xbe873957	-0.26410934
53	0x3eced563	0.40397176
54	0xbe039fce	-0.1285393
55	0xbd229d4b	-0.039700788
56	0x3ebf33de	0.3734426
57	0x3daed0b6	0.08535902
58	0xbe6e8e00	-0.23296356
59	0xbeb207b0	-0.3477149
60	0xbe839afe	-0.25704187
61	0x3dad6dfa	0.08468242
62	0x3dc33e91	0.09533418
63	0xbcdff947	-0.027340544

conv3.att_dst f4 [1, 1, 64]
0	0xbe55271e	-0.20815703
1	0xbe9766fb	-0.29570755
2	0xbe3836eb	-0.179897
3	0x3cb5f070	0.022209376
4	0xbe88554a	-0.2662757
5	0x3e07877a	0.13235274
6	0xbe805eb6	-0.2507226
7	0xbeabee8c	-0.33580434
8	0xbcd8907d	-0.026436085
9	0x3d1808cc	0.037117764
10	0xbebb1f68	-0.365474
11	0xbecb3c7e	-0.3969459
12	0x3e98b2f8	0.29824042
13	0xbda44770	-0.08021438
14	0xbda9fc1a	-0.08300038
15	0x3e6b7948	0.22995484
16	0xbe2d10a9	-0.16900887
17	0x3e041c1b	0.12901346
18	0xbe48d2e2	-0.19611695
19	0xbe9c09ad	-0.30476132
20	0xbe7bcafe	-0.24589154
21	0x3e96dfe1	0.2946768
22	0x3de5fa24	0.11229351
23	0xbe69d8c4	-0.22836596
24	0xbdc9ab4e	-0.09847127
25	0xbe6f0c1d	-0.23344465
26	0xbdc09477	-0.094033174
27	0xbd92419c	-0.0714142
28	0xbe89262e	-0.2678694
29	0x3e95160c	0.29118383
30	0xbedbec14	-0.4295355
31	0x3dd50521	0.10401369
32	0x3dba9758	0.09110898
33	0xbe09f4bb	-0.13472264
34	0xbe4ef3a3	-0.20210128
35	0xbe519cad	-0.20469923
36	0x3e614b53	0.2200139
37	0x3ca08001	0.019592287
38	0x3e41459c	0.1887421
39	0xbe178662	-0.14797357
40	0x3e83a36a	0.25710613
41	0xbe944430	-0.28958273
42	0xbed38bf4	-0.41317713
43	0xbe280977	-0.1640986
44	0xbe6c8eda	-0.23101369
45	0xbe4bdfd5	-0.19909604
46	0xbedaf40c	-0.42764318
47	0xbe2e59c1	-0.17026426
48	0x3e83551c	0.2565087
49	0xbc9d991b	-0.019238045
50	0xbe82e096	-0.2556197
51	0x3e916d33	0.28403625
52	0xbe0d2603	-0.13784032
53	0x3e59ff79	0.21288861
54	0x3d9fa123	0.07794406
55	0x3ea5a177	0.3234975
56	0xbde27bb3	-0.1105875
57	0x3e6b64ec	0.22987717
58	0xbe5ac860	-0.213655
59	0x3e64affa	0.22332755
60	0xbe75c431	-0.24000622
61	0xbd60e77b	-0.054908257
62	0x3da5069c	0.08057901
63	0xbdc68d5d	-0.09694932

conv3.bias f4 [64]
0	0xbc8cc52b	-0.01718386
1	0xbb9d6376	-0.0048031164
2	0xbc1a55dc	-0.0094198845
3	0x3cd255a4	0.025675602
4	0x3d0a3269	0.03373948
5	0x3cdf5d14	0.027266063
6	0xbb8d0ef9	-0.0043047634
7	0xbd1c2999	-0.038125608
8	0x3c816c76	0.015798789
9	0xbc8c4fb6	-0.017127853
10	0xbd01da82	-0.031702526
11	0xbcba92f8	-0.022775158
12	0x3b317fb0	0.0027084164
13	0xbd278e54	-0.04090722
14	0xbd06d701	-0.032919887
15	0x3c8b34b8	0.016992912
16	0x3c1b8348	0.009491749
17	0xbc365adc	-0.011130061
18	0x3bcc5f87	0.0062369737
19	0xbbe550b2	-0.006998145
20	0xbb8bf4e0	-0.0042711347
21	0xbc19f626	-0.009397065
22	0xbbfce143	-0.007717283
23	0x3c28bd8e	0.0102991
24	0x3d697cb4	0.05700369
25	0xbcd1e86d	-0.025623525
26	0xbd3615f7	-0.04445454
27	0x3cc5a16c	0.024124824
28	0xbcf341bc	-0.02969443
29	0xbd13f19e	-0.036119096
30	0xbbd5caf1	-0.0065244366
31	0xbd170ea3	-0.036879193
32	0x3cac5029	0.021034317
33	0x3d4c42c8	0.049868375
34	0x3cea8a70	0.028630465
35	0x3cc2b490	0.02376774
36	0x3cca4876	0.024692755
37	0xbafe1646	-0.00193853
38	0xbd24862c	-0.04016702
39	0x3cd6f10f	0.026237993
40	0xbb20bf45	-0.0024528068
41	0x3d0cc988	0.034371883
42	0x3cff85dd	0.03119176
43	0xbcd41251	-0.02588764
44	0xbd424a12	-0.04743392
45	0x38a52c03	7.876011e-05
46	0x3dc69eba	0.096982434
47	0xbb7eb22d	-0.0038863525
48	0xbc7823c2	-0.015145244
49	0xbcc254b7	-0.023722036
50	0xbc0d4e16	-0.008624574
51	0xbc44bed5	-0.0120083885
52	0x3cef75e3	0.029231017
53	0xbb2d299b	-0.0026422504
54	0xbcbaf2d7	-0.022820873
55	0xbc55c155	-0.013046582
56	0xbd2bed3a	-0.041974284
57	0xbc5db3cd	-0.013531637
58	0xbd00661f	-0.03134739
59	0x3c6bc502	0.014390232
60	0x3c95b536	0.018274885
61	0x3c60ab9e	0.013712792
62	0xbccdd7bf	-0.02512729
63	0xbc46c0ad	-0.012130898
