model/ROSMAP_C2.pth (torch, 1575 bytes, 2 tensors)

clf.0.weight f4 [2, 64]
00000000: 0565 0cbe 2f30 bb3e d8b1 903e b6bc f43e
00000010: 2bf1 ddbe f5a8 95bd ff2e 973e 4011 50be
00000020: f6a7 f4bc b439 2fbe cc2b 933e 925b de3d
00000030: bdf6 d03e 38d9 703e ea83 5ebe 05fb 8e3e
00000040: 709e 783c 276a 0c3e f784 1b3e acf0 913e
00000050: f184 69be b614 7c3e 0a50 793e 4fa7 5bbe
00000060: 322b e4be 6aa0 d43d 3222 e4bc ad47 da3e
00000070: f3d0 7c3e dc98 813e eb95 aabd 00dd 523d
00000080: 81dd a73e bc09 4e3e 7bf0 883e 9e58 d6bd
00000090: 5c79 c53e dbc4 a2be 6e15 a43e 320f 8b3c
000000a0: 6c52 c63e 2ec6 9cbd c2ee d93d bfd1 5fbe
000000b0: 1165 55bc 528a 8a3e c535 943e 2b34 423e
000000c0: 0cf6 d03c 61b1 22be 8327 58be e09e 41be
000000d0: a474 023f 9759 653e ee89 053e 0e5e 3fbe
000000e0: 7158 e43e 418f 753e f8f4 68be b3ad 233d
000000f0: 44a1 1ebe de7d 8d3e bfc2 7b3e 7245 8c3e
00000100: 741e 693e 2c67 66be adc8 15be 75a8 8abe
00000110: 0de9 ff3d afa2 3c3e 22c3 ab3d 5e6a b83e
00000120: f273 f83e c1e3 4d3e 73ab 51be 0975 f9be
00000130: e396 62bd d177 a8be 6361 393e e7e8 e9ba
00000140: 93af 933e 78fa 00bf 2a88 8f3e 330a 97be
00000150: 62fe d13d 61e2 1bbe 4921 28be 326b 883e
00000160: d5fb 2fbe 3717 afbe 30b7 d8be 7b8a 6b3d
00000170: 48dc 25be ee1d 59be f1af 5d3e 2eac 033f
00000180: a00f 9fbe 4846 483d 8f10 9bbe 6723 053e
00000190: 6b97 41bd 77aa 073e 6e91 a5bd 740a fdbc
000001a0: 6e91 49bd e118 6e3e c1b1 15bf 7e93 92bc
000001b0: 817b 78be 37af f7be 005f b3bc 7802 643d
000001c0: 51eb bfbe 0eca a53d 835a 1d3e 07b9 643e
000001d0: 87d4 aabd 8997 85be 2dcf c5bd 241d 3f3e
000001e0: 1ffc 1cbe bd7c 9abe f217 113e 5ab4 c1be
000001f0: 3710 043e ff22 75be 1685 a5be 2708 b73a
-0.13710411 0.365602 0.28260684 0.47800225 -0.4334806 -0.073076166 0.29528043 -0.2031908
-0.029865246 -0.17111856 0.28744352 0.108573094 0.40813246 0.23520362 -0.21730009 0.27925888
0.015174493 0.13712369 0.15187441 0.2850393 -0.2280462 0.24617276 0.24346939 -0.21450542
-0.44564205 0.10382159 -0.027848337 0.4263281 0.24689083 0.25311935 -0.08329376 0.051480293
0.32786182 0.20120901 0.26745972 -0.10466121 0.38569152 -0.31790814 0.320476 0.01697502
0.38734758 -0.07654987 0.106412426 -0.21857356 -0.013024584 0.27058655 0.28947273 0.18965213
0.02550795 -0.15887977 -0.21108823 -0.18908262 0.5095923 0.22397457 0.13040897 -0.18688223
0.44598725 0.23980428 -0.22749698 0.039960574 -0.15491205 0.27635092 0.24586008 0.27396733
0.22765523 -0.22500294 -0.14627333 -0.27081648 0.12495623 0.18421434 0.08386828 0.36018652
0.4852596 0.20106412 -0.20475559 -0.48722103 -0.055319678 -0.32903913 0.18103556 -0.00178459
0.2884489 -0.50382185 0.28033572 -0.2949997 0.10253598 -0.15223075 -0.16418947 0.26644284
-0.1718591 -0.341974 -0.4232726 0.057505112 -0.16197312 -0.21202824 0.21649148 0.514346
-0.31066608 0.04889515 -0.3028607 0.13001786 -0.047263544 0.13248621 -0.08084379 -0.030888774
-0.04921096 0.23251678 -0.58474356 -0.017892595 -0.24265863 -0.48375866 -0.021895885 0.055666417
-0.3748422 0.080951795 0.15366559 0.22336207 -0.083413176 -0.26092175 -0.09658656 0.1866346
-0.15330552 -0.30173293 0.1416929 -0.3783291 0.1289681 -0.23939131 -0.323281 0.0013964222

clf.0.bias f4 [2]
00000000: f0f4 23bd cbf4 233d
-0.040028512 0.040028375
