model/ROSMAP_E2.pth (torch, 128577 bytes, 15 tensors)

conv1.att_src f4 [1, 1, 100]
0	0x3f46e4a8	0.7769265
1	0x3f1246e5	0.57139426
2	0xbe825076	-0.25452012
3	0x3e865d8a	0.2624324
4	0xbe8d8122	-0.27637583
5	0x3ee0a86c	0.43878496
6	0x3ea41c9e	0.32053083
7	0x3c8df748	0.017329827
8	0x3dea5eb5	0.11443845
9	0xbe1e236b	-0.15443198
10	0x3eb1e2a0	0.34743214
11	0xbdd444bf	-0.10364675
12	0x3f1da65c	0.6158197
13	0x3e20ba8e	0.15696165
14	0xbf1e138d	-0.6174858
15	0xbe6cfe19	-0.23143806
16	0xbd791f16	-0.06082066
17	0x3ed5bd30	0.417459
18	0x3f3b4e70	0.7316656
19	0x3f0eac74	0.5573189
20	0xbe6756fd	-0.22591777
21	0x3c929f17	0.017898126
22	0x3eaf3c37	0.34225628
23	0xbe23756e	-0.15962765
24	0x3efdd858	0.4957912
25	0x3df4c233	0.11951103
26	0xbe2c51cd	-0.1682808
27	0xbe2775c2	-0.16353515
28	0xbebc03d9	-0.36721686
29	0x3ea0a8c9	0.31378773
30	0x3f1922f2	0.5981895
31	0xb9f00a2d	-0.0004578395
32	0x3f56d3a1	0.8391667
33	0x3ec77b42	0.38961226
34	0xbf311cfa	-0.6918484
35	0x3ea94ed1	0.33067945
36	0xbf4f73e1	-0.8103619
37	0x3f2e4c68	0.68085337
38	0x3deadacf	0.11467516
39	0xbeaae82f	-0.33380267
40	0x3d0577df	0.03258502
41	0x3ecb61f9	0.39723185
42	0x3e71355a	0.23555508
43	0xbf48c977	-0.7843241
44	0xbec8a57c	-0.39188755
45	0x3e496aa1	0.19669582
46	0xbee69025	-0.4503185
47	0xbdfd0c55	-0.12355868
48	0xbe5695dd	-0.20955606
49	0x3f23527a	0.63797724
50	0xbdfe7bbf	-0.124259464
51	0x3ec68fa1	0.38781455
52	0xbe8368e3	-0.2566596
53	0xbf46b06e	-0.7761296
54	0x3e8b122a	0.27162296
55	0xbf50bd7d	-0.81539136
56	0x3eea617b	0.45777497
57	0x3e80378d	0.25042382
58	0x3ced2dc5	0.028952489
59	0x3f04e542	0.5191232
60	0xbe867904	-0.26264203
61	0xbd74d42f	-0.059772667
62	0xbecad6df	-0.3961706
63	0x3f435498	0.76300955
64	0x3edda88b	0.4329265
65	0xbd868c4f	-0.065697305
66	0xbec8e1df	-0.39234826
67	0x3efecf37	0.49767467
68	0xbd7acdba	-0.061231352
69	0x3ea99ff3	0.33129844
70	0x3dd69edf	0.10479521
71	0xbf2e5897	-0.6810393
72	0x3f246d2f	0.642291
73	0xbeab1b30	-0.3341918
74	0xbd526316	-0.051364027
75	0x3e6529a4	0.22379166
76	0x3d87a73c	0.06623694
77	0x3f155b2f	0.5834226
78	0x3ef7f860	0.48431683
79	0xbefb590d	-0.49091378
80	0xbe523d5a	-0.20531216
81	0x3f547823	0.82995814
82	0xbd460c70	-0.048351705
83	0x3e33a65c	0.1754393
84	0x3f2c6852	0.6734668
85	0x3f2c8e48	0.67404604
86	0x3e0e611f	0.13904236
87	0xbe87920a	-0.26478606
88	0xbf26a467	-0.6509461
89	0xbf0e1ed2	-0.5551578
90	0xbdef4203	-0.116825126
91	0xbf2e8980	-0.6817856
92	0x3e17fb41	0.1484194
93	0x3e3b4e28	0.18291533
94	0xbf558b53	-0.83415717
95	0xbf025723	-0.5091421
96	0xbde278b3	-0.11058178
97	0x3f1079c1	0.5643578
98	0xbe210ccd	-0.1572754
99	0x3eed5310	0.46352434

conv1.att_dst f4 [1, 1, 100]
0	0xbedc362a	-0.43010074
1	0xbcb5b977	-0.022183163
2	0xbeb359d0	-0.3502946
3	0xbec93895	-0.3930098
4	0xbdaa1f05	-0.08306698
5	0xbee77c03	-0.452118
6	0xbe988a28	-0.29792905
7	0x3d5f0dde	0.054456584
8	0x3cbb826b	0.022889337
9	0xbeddd029	-0.43322876
10	0xbec8ea57	-0.39241287
11	0xbebb29e7	-0.36555406
12	0x3c21a8da	0.0098669175
13	0xbde4c000	-0.111694336
14	0x3da3b4fc	0.079935044
15	0xbe9c3285	-0.30507293
16	0xbe22e6f5	-0.15908416
17	0xbe84b762	-0.2592116
18	0xbe504c92	-0.2034171
19	0xbd432cdf	-0.047650214
20	0xbd123e00	-0.03570366
21	0xbe5ced9d	-0.21575017
22	0xbe9e9bb1	-0.30978158
23	0x3a369594	0.0006965038
24	0xbdefa354	-0.11701074
25	0xbe936e53	-0.28795108
26	0xbe0113bf	-0.12605189
27	0xbd87a961	-0.06624103
28	0x3d950119	0.072756
29	0xbe0fa2fd	-0.14027019
30	0xbd8cdf66	-0.06878547
31	0xbe00b87a	-0.12570372
32	0xbdc7a019	-0.09747333
33	0xbe0fd9a3	-0.14047866
34	0xbf00ce6b	-0.5031497
35	0x3d3f3d2f	0.04668921
36	0xbe25e250	-0.16199613
37	0xbec95b3e	-0.39327425
38	0x3ec19372	0.37807804
39	0xbcc76d18	-0.024344012
40	0x3dcc5b6a	0.09978373
41	0xbe91d9e0	-0.28486538
42	0xbebc70f2	-0.3680492
43	0xbec8e4f0	-0.39237165
44	0xbe139390	-0.1441176
45	0x3b1380c4	0.002250717
46	0xbdeea867	-0.11653214
47	0xbe20ac4a	-0.15690723
48	0xbe1a0402	-0.15040591
49	0xbca8df13	-0.020614183
50	0xbe909e5a	-0.28245813
51	0xbcd52243	-0.026017314
52	0xbcfb60f4	-0.03068588
53	0xbea8c789	-0.32964733
54	0xbec28b7a	-0.37997037
55	0xbeb5c704	-0.355034
56	0xbde30d7a	-0.11086555
57	0x3d91e888	0.0712443
58	0xbdac1054	-0.08401552
59	0xbea3991c	-0.3195275
60	0xbebb7f79	-0.3662069
61	0xbe80b867	-0.25140688
62	0xbe809489	-0.25113323
63	0xbe806beb	-0.25082335
64	0xbea8489b	-0.32867894
65	0xbee48cd9	-0.44638708
66	0x3e8ef36c	0.2792009
67	0xbea33d79	-0.31882837
68	0x3e0d0a86	0.13773546
69	0xbef46950	-0.47736597
70	0xbdead5ea	-0.11466582
71	0xbe21314c	-0.15741462
72	0xbe25d12f	-0.16193078
73	0x3ce3c675	0.027804593
74	0xbe0e2b78	-0.1388377
75	0xbe1b107e	-0.1514301
76	0xbdd9f460	-0.10642314
77	0xba8eab5f	-0.0010884813
78	0xbd76cf46	-0.060256265
79	0xbe1ea19a	-0.15491334
80	0xbdadb5c9	-0.084819384
81	0xbe18a81e	-0.14907882
82	0xbe8a43b8	-0.2700479
83	0x3e2403a8	0.1601702
84	0xbe778a0c	-0.24173754
85	0xbdb75343	-0.08951428
86	0x3c6f7ab2	0.014616655
87	0xbe1f5443	-0.15559487
88	0xbe973810	-0.2953496
89	0xbe5e0211	-0.21680476
90	0xbe8cd157	-0.27503464
91	0x3d494b49	0.049144063
92	0xbe057b58	-0.13035333
93	0xbe23c037	-0.15991293
94	0x3ae259a4	0.0017269147
95	0xbed32238	-0.41237044
96	0xbe8ad004	-0.27111828
97	0xbe8769a5	-0.26447788
98	0xbeb1cb24	-0.34725296
99	0xbca008a5	-0.019535372

conv1.bias f4 [100]
0	0xba5badb9	-0.00083800737
1	0x3c5a42fb	0.013321633
2	0x3c9d91ee	0.019234624
3	0xbc72ea1f	-0.014826327
4	0xbc0d696d	-0.0086310925
5	0x3cd379a6	0.025814842
6	0x3c45179d	0.012029556
7	0xbc64c420	-0.0139627755
8	0xbbfa4286	-0.0076373247
9	0x3c058337	0.00814896
10	0x3cd3edb6	0.025870185
11	0x3bd58675	0.0065162727
12	0xbb29d5ce	-0.002591479
13	0x3a1e6644	0.00060424604
14	0x3a1fb76c	0.00060927006
15	0xbc039538	-0.008031182
16	0xbc599f6f	-0.013282641
17	0x39d40019	0.00040435864
18	0xba4b12a1	-0.00077466114
19	0x3c22d423	0.009938273
20	0x3b17f357	0.0023185813
21	0xba8974e9	-0.0010487112
22	0x3c2567f2	0.010095583
23	0xbc61cb19	-0.013781332
24	0x3acb35a2	0.0015503655
25	0x3c07f117	0.008297226
26	0xba439a0a	-0.0007461613
27	0xbc4e8ded	-0.01260708
28	0xbba29c1d	-0.004962458
29	0xbb564da8	-0.0032700095
30	0x3b91d3d9	0.004450303
31	0x3ba2311d	0.0049497024
32	0x3ba363c0	0.0049862564
33	0x3c1e8262	0.00967464
34	0x3cea2932	0.028584097
35	0x3c0f80ee	0.008758767
36	0xbc25434b	-0.010086845
37	0xbb953bc5	-0.004554244
38	0xbc4312ae	-0.011906309
39	0xbc903b2e	-0.017606344
40	0xbc4c1311	-0.012455718
41	0xbb506898	-0.0031800624
42	0x3c19360e	0.009351267
43	0x3c876f08	0.016532436
44	0xbba6122d	-0.0050680847
45	0x3bcbd04d	0.0062198997
46	0xbc054b69	-0.008135655
47	0x3b9fc292	0.0048754895
48	0x3c8b4296	0.016999524
49	0xbc153ac0	-0.009108245
50	0x3c951bad	0.018201673
51	0x3c09016f	0.008362158
52	0xbc754ce4	-0.014971945
53	0x3ccfac22	0.025350634
54	0x3c44c9fa	0.012011046
55	0x3c860040	0.016357541
56	0xbc5e609f	-0.013572841
57	0x3c8bd3f2	0.017068837
58	0xbb78e37b	-0.0037977386
59	0x3b1883bc	0.002327188
60	0x3b8d422d	0.0043108673
61	0x3b8a5933	0.004222059
62	0xbc778a84	-0.015108708
63	0xbccf2c52	-0.025289688
64	0xbc5e525f	-0.0135694435
65	0x3ca2c007	0.019866956
66	0xbc7b9af2	-0.015356766
67	0x3cb33831	0.02187738
68	0xbc68f54a	-0.014218638
69	0x3c477a32	0.01217513
70	0x3ad7c0a1	0.0016460606
71	0xb839f8c6	-4.4339125e-05
72	0x3c0f6cf9	0.008754008
73	0x3bcadf7c	0.006191192
74	0xbb0acf78	-0.002118079
75	0x3bd7e3c1	0.0065884297
76	0x3aaa2667	0.0012981415
77	0x3ca35345	0.019937167
78	0x3c2df4fa	0.010617489
79	0xbc4ec950	-0.012621239
80	0xbc93ab1b	-0.018025925
81	0xbaae7ac4	-0.0013311733
82	0x3c23a767	0.009988642
83	0xbc86aba8	-0.016439274
84	0x3ac58978	0.0015070876
85	0xbc0b045c	-0.008484926
86	0x3900c7d7	0.00012281477
87	0x3bd0d39c	0.006372882
88	0x3be1232f	0.0068706493
89	0x3c45d57f	0.012074827
90	0x3c80bdd9	0.015715526
91	0xbba51d95	-0.005038927
92	0x3c4f5ec2	0.012656869
93	0x3b726b87	0.003699036
94	0x3ac80c03	0.0015262369
95	0x3c510799	0.012758159
96	0x3cb31f9d	0.02186566
97	0xbb86bd47	-0.004111919
98	0x3c656a2a	0.014002362
99	0xbc3c5fff	-0.011497497

conv1.lin_src.weight f4 [100, 200]
0	0xbe00abd7	-0.12565552
1	0xbe0035af	-0.12520479
2	0x3cfba27e	0.03071713
3	0xbd0b875f	-0.034064647
4	0x3e1940c6	0.14966115
5	0xbd8499e5	-0.064746656
6	0xbd18bc45	-0.037288923
7	0xbc168ce9	-0.009188869
8	0xbdb9248b	-0.09040173
9	0xbda9be66	-0.08288269
10	0x3e01ed6c	0.12688226
11	0xbd4a77b4	-0.049430564
12	0x3db26d39	0.08712239
13	0xbd8890b9	-0.06668229
14	0x3d059772	0.032615133
15	0xbdd17332	-0.1022705
16	0x3d7da92a	0.061928906
17	0xbcee8918	-0.029118106
18	0xbd02707a	-0.031845547
19	0xbe057425	-0.13032587
20	0x3d2fc970	0.042916715
21	0x3b773026	0.0037717908
22	0xbd7f86bb	-0.06238435
23	0x3dde4209	0.10852439
24	0xbdda5d8a	-0.106623724
25	0x3d900c5f	0.070336096
26	0x3d644b46	0.05573585
27	0xbcca4e7d	-0.02469563
28	0x3d67256b	0.05643217
29	0x3d75a11b	0.059968095
30	0x3d163b83	0.03667785
31	0x3e14be22	0.14525655
32	0x3d4e7758	0.050406784
33	0xbd936378	-0.071967065
34	0xbcf10781	-0.029422523
35	0xbc39066f	-0.011293038
36	0xbde3c0da	-0.11120768
37	0xbccc8491	-0.024965556
38	0x3da6c5a9	0.081431694
39	0xbd28009c	-0.041016206
40	0xbda2e8ed	-0.07954583
41	0xbd47e728	-0.048804432
42	0x3d0c9a45	0.03432681
43	0xbdc692f5	-0.096959986
44	0x3e0ba624	0.13637596
45	0x3d98fcd7	0.074701004
46	0xbdb0abcb	-0.08626517
47	0xbdabd057	-0.08389347
48	0xbe00d097	-0.1257957
49	0x3d6ccc1e	0.05781185
50	0x3ca1bacb	0.01974239
51	0x3dab4e88	0.08364588
52	0x3e0c92b6	0.13727841
53	0x3d6ed965	0.058312792
54	0x3de6b596	0.112651035
55	0x3c4256d5	0.011861523
56	0x3d3959e6	0.04525175
57	0x3dc973b8	0.09836525
58	0x3bb2e33d	0.005459218
59	0x3d9c481c	0.07630941
60	0x3c4d4d71	0.0125306705
61	0xbb4755c4	-0.003041611
62	0x3d78a69a	0.06070576
63	0xbdedbb6c	-0.116080135
64	0xbd0b2bed	-0.033977438
65	0xbdff6685	-0.12470726
66	0x3c620029	0.0137939835
67	0xbda1d553	-0.079020165
68	0x3e060a58	0.13089883
69	0xbe03b43e	-0.12861726
70	0x3ddd8520	0.10816407
71	0xbdfc7d11	-0.12328542
72	0x3e2baef9	0.16765966
73	0x3c7a00cf	0.015258982
74	0x3d99245b	0.074776374
75	0xbdae6a3b	-0.085163556
76	0xbd74ef12	-0.059798308
77	0xbe05cd56	-0.1306661
78	0x3dc2182a	0.09477265
79	0xbdeabb5c	-0.11461517
80	0x3d44c06e	0.048035078
81	0xbd4bc6a7	-0.049749997
82	0x3d40e3ce	0.04709225
83	0xbdda55e2	-0.10660912
84	0xbdec8d6d	-0.11550412
85	0xbca3e3c5	-0.02000607
86	0x3dad4750	0.084608674
87	0xbdc4574c	-0.09586963
88	0xbc33e593	-0.010980028
89	0xbda1d9b4	-0.07902852
90	0xbd97a9f7	-0.07405465
91	0x3d035716	0.032065473
92	0x3cfe2cef	0.031027285
93	0x3d999dbf	0.07500791
94	0xb9e5f42e	-0.00043860212
95	0xbc2163fc	-0.009850498
96	0xbd16143e	-0.0366404
97	0x3da80c7a	0.08205505
98	0x3e08b493	0.13350134
99	0xbdf9596d	-0.1217526
100	0x3d859e19	0.06524295
101	0x3d9b96b8	0.07597107
102	0x3d7d8d94	0.061902598
103	0x3da45584	0.08024123
104	0xbbab6a25	-0.0052311593
105	0xbd41066d	-0.04712527
106	0x3c42f9c8	0.011900373
107	0x3e229b63	0.15879588
108	0xbdc05660	-0.09391475
109	0x3dd9eba7	0.1064065
110	0x3b126e93	0.002234374
111	0x3b8b26d7	0.0042465734
112	0xbd7707db	-0.060310226
113	0xbd955d30	-0.07293165
114	0xbb412373	-0.0029470592
115	0xbdd91365	-0.10599402
116	0x3e67a82b	0.22622745
117	0xbd47dbd3	-0.048793625
118	0xbc0367ba	-0.008020336
119	0x3e1239c4	0.14279848
120	0x3d7f22b6	0.062288962
121	0xbc4c2cee	-0.012461884
122	0x3dd70040	0.104980946
123	0xbded45a8	-0.115855515
124	0x3c821593	0.015879428
125	0x3dd1761b	0.10227605
126	0x3dd7d6a2	0.10538985
127	0x3d2ddd94	0.04244764
128	0xbd05dcbc	-0.03268121
129	0x3dff004d	0.12451229
130	0x3e0925d4	0.13393337
131	0xbdf8c0df	-0.12146162
132	0xbd9d0499	-0.076668926
133	0x3d704293	0.05865724
134	0x3c50a66e	0.012734992
135	0x3df1d8ef	0.11808955
136	0x3e0ef9c9	0.13962473
137	0x3d054f2e	0.032546215
138	0xbe044843	-0.1291819
139	0x3db3ec23	0.08785274
140	0x3d2293ed	0.039691854
141	0xbd9329fd	-0.07185743
142	0xbce9228a	-0.028458852
143	0xbdc9f507	-0.098611884
144	0x3d88b7ec	0.06675705
145	0x3ca75d85	0.020430336
146	0xbd517732	-0.051139064
147	0xbd598c40	-0.05311227
148	0xbdbf2e09	-0.093349524
149	0x3ce69329	0.028146343
150	0xbdc5cbd8	-0.09658021
151	0x3cf76db1	0.030203672
152	0x3d8bd01f	0.06826805
153	0xbc0d1431	-0.008610771
154	0x3e29cc4a	0.16581836
155	0x3d8f5c71	0.07000054
156	0x3b3826b5	0.0028099243
157	0x3e3be28e	0.18348143
158	0x3dea2f79	0.11434836
159	0x3dc1289f	0.09431576
160	0xbd9b31ee	-0.07577883
161	0xbe13ae4b	-0.14421956
162	0xbcdd1881	-0.026989223
163	0xbdeafe21	-0.114742525
164	0xbde3a062	-0.11114575
165	0x3d830531	0.063974746
166	0x3d51b05c	0.05119358
167	0x3d1a87c7	0.037727144
168	0x3cd98f3b	0.026557555
169	0x3df04a86	0.11732964
170	0x3dca0a98	0.09865302
171	0xbb72b1fc	-0.0037032356
172	0x3d61f5e3	0.055166136
173	0xbd8d04e5	-0.06885699
174	0xbe06756d	-0.13130732
175	0x3bc46bbc	0.0059942883
176	0xbc948979	-0.018131958
177	0x3dc26d27	0.094934754
178	0xbdc671d5	-0.096896805
179	0xbc456460	-0.012047857
180	0xbdf3c180	-0.119021416
181	0xbc6e5c5a	-0.0145483855
182	0x3d60d3a7	0.054889347
183	0xbc475032	-0.012165116
184	0x3dc9c445	0.098518886
185	0x3cdd9b86	0.027051698
186	0xbd8a32c3	-0.06747963
187	0xbdcc7ac5	-0.09984354
188	0x3e3ccb1c	0.18436855
189	0x3daeb097	0.085297756
190	0x3c03b173	0.008037913
191	0xbd01e356	-0.031710945
192	0x3d9e0922	0.07716586
193	0xbd2bed6c	-0.04197447
194	0xbdf27e45	-0.1184049
195	0x3d3ece20	0.046583295
196	0x3e12a5f8	0.14321125
197	0x3e016b1c	0.12638515
198	0xbdcf0f12	-0.10110296
199	0x3b834407	0.004005912
200	0xbc8f84d7	-0.017519398
201	0x3df86192	0.12127985
202	0xbde0fc8e	-0.10985671
203	0xbd299def	-0.041410383
204	0xbc0c3040	-0.008556426
205	0x3db69443	0.089149974
206	0x3dcd349c	0.100198
207	0x3dc565a4	0.09638527
208	0xbddfa458	-0.10920018
209	0xbdc26d98	-0.094935596
210	0x3e11373a	0.14181224
211	0x3e21fb24	0.15818459
212	0x3ccf1391	0.025277885
213	0xbd9373e6	-0.0719984
214	0xbb927ace	-0.004470206
215	0xbe098cc4	-0.13432604
216	0x3d95d3e7	0.07315808
217	0x3daa93a9	0.08328945
218	0xbd9761b1	-0.0739168
219	0xbdfa2763	-0.12214544
220	0xbda29a24	-0.07939556
221	0x3c1288bb	0.008943732
222	0x3d8217f2	0.063522235
223	0x3db466ff	0.088087074
224	0x3de573b7	0.112037115
225	0x3cf1eb97	0.029531283
226	0x3ba72052	0.0051002884
227	0x3df01a07	0.11723714
228	0xbc2f4093	-0.010696548
229	0x3d7794bd	0.060444582
230	0xbe12239b	-0.14271395
231	0xbdb8a2ff	-0.09015464
232	0x3c4b3771	0.012403355
233	0xbdb53713	-0.08848395
234	0xbb7f704c	-0.0038976846
235	0x3d828264	0.06372526
236	0xbd9082f1	-0.07056225
237	0x3c9ac58b	0.018893024
238	0x3e1d2450	0.15345883
239	0x3e0d9325	0.13825662
240	0x3d6c0290	0.05761963
241	0xbd691c2d	-0.056911636
242	0xbde4ec75	-0.11177913
243	0xbddb3a89	-0.10704524
244	0xbe0e2a0a	-0.13883224
245	0x3e0b26ac	0.13588971
246	0xbb547594	-0.0032418715
247	0xbdc0f788	-0.09422213
248	0x3c4375fa	0.011929983
249	0xbdf7356e	-0.12070738
250	0x3ceafccb	0.028684994
251	0xbdfe19a4	-0.12407234
252	0xbc00019d	-0.007812885
253	0x3dfe8d8b	0.12429341
254	0xbdf6bd44	-0.12047818
255	0xbda969b1	-0.08272112

conv1.lin_dst.weight f4 [100, 200]
0	0xbe00abd7	-0.12565552
1	0xbe0035af	-0.12520479
2	0x3cfba27e	0.03071713
3	0xbd0b875f	-0.034064647
4	0x3e1940c6	0.14966115
5	0xbd8499e5	-0.064746656
6	0xbd18bc45	-0.037288923
7	0xbc168ce9	-0.009188869
8	0xbdb9248b	-0.09040173
9	0xbda9be66	-0.08288269
10	0x3e01ed6c	0.12688226
11	0xbd4a77b4	-0.049430564
12	0x3db26d39	0.08712239
13	0xbd8890b9	-0.06668229
14	0x3d059772	0.032615133
15	0xbdd17332	-0.1022705
16	0x3d7da92a	0.061928906
17	0xbcee8918	-0.029118106
18	0xbd02707a	-0.031845547
19	0xbe057425	-0.13032587
20	0x3d2fc970	0.042916715
21	0x3b773026	0.0037717908
22	0xbd7f86bb	-0.06238435
23	0x3dde4209	0.10852439
24	0xbdda5d8a	-0.106623724
25	0x3d900c5f	0.070336096
26	0x3d644b46	0.05573585
27	0xbcca4e7d	-0.02469563
28	0x3d67256b	0.05643217
29	0x3d75a11b	0.059968095
30	0x3d163b83	0.03667785
31	0x3e14be22	0.14525655
32	0x3d4e7758	0.050406784
33	0xbd936378	-0.071967065
34	0xbcf10781	-0.029422523
35	0xbc39066f	-0.011293038
36	0xbde3c0da	-0.11120768
37	0xbccc8491	-0.024965556
38	0x3da6c5a9	0.081431694
39	0xbd28009c	-0.041016206
40	0xbda2e8ed	-0.07954583
41	0xbd47e728	-0.048804432
42	0x3d0c9a45	0.03432681
43	0xbdc692f5	-0.096959986
44	0x3e0ba624	0.13637596
45	0x3d98fcd7	0.074701004
46	0xbdb0abcb	-0.08626517
47	0xbdabd057	-0.08389347
48	0xbe00d097	-0.1257957
49	0x3d6ccc1e	0.05781185
50	0x3ca1bacb	0.01974239
51	0x3dab4e88	0.08364588
52	0x3e0c92b6	0.13727841
53	0x3d6ed965	0.058312792
54	0x3de6b596	0.112651035
55	0x3c4256d5	0.011861523
56	0x3d3959e6	0.04525175
57	0x3dc973b8	0.09836525
58	0x3bb2e33d	0.005459218
59	0x3d9c481c	0.07630941
60	0x3c4d4d71	0.0125306705
61	0xbb4755c4	-0.003041611
62	0x3d78a69a	0.06070576
63	0xbdedbb6c	-0.116080135
64	0xbd0b2bed	-0.033977438
65	0xbdff6685	-0.12470726
66	0x3c620029	0.0137939835
67	0xbda1d553	-0.079020165
68	0x3e060a58	0.13089883
69	0xbe03b43e	-0.12861726
70	0x3ddd8520	0.10816407
71	0xbdfc7d11	-0.12328542
72	0x3e2baef9	0.16765966
73	0x3c7a00cf	0.015258982
74	0x3d99245b	0.074776374
75	0xbdae6a3b	-0.085163556
76	0xbd74ef12	-0.059798308
77	0xbe05cd56	-0.1306661
78	0x3dc2182a	0.09477265
79	0xbdeabb5c	-0.11461517
80	0x3d44c06e	0.048035078
81	0xbd4bc6a7	-0.049749997
82	0x3d40e3ce	0.04709225
83	0xbdda55e2	-0.10660912
84	0xbdec8d6d	-0.11550412
85	0xbca3e3c5	-0.02000607
86	0x3dad4750	0.084608674
87	0xbdc4574c	-0.09586963
88	0xbc33e593	-0.010980028
89	0xbda1d9b4	-0.07902852
90	0xbd97a9f7	-0.07405465
91	0x3d035716	0.032065473
92	0x3cfe2cef	0.031027285
93	0x3d999dbf	0.07500791
94	0xb9e5f42e	-0.00043860212
95	0xbc2163fc	-0.009850498
96	0xbd16143e	-0.0366404
97	0x3da80c7a	0.08205505
98	0x3e08b493	0.13350134
99	0xbdf9596d	-0.1217526
100	0x3d859e19	0.06524295
101	0x3d9b96b8	0.07597107
102	0x3d7d8d94	0.061902598
103	0x3da45584	0.08024123
104	0xbbab6a25	-0.0052311593
105	0xbd41066d	-0.04712527
106	0x3c42f9c8	0.011900373
107	0x3e229b63	0.15879588
108	0xbdc05660	-0.09391475
109	0x3dd9eba7	0.1064065
110	0x3b126e93	0.002234374
111	0x3b8b26d7	0.0042465734
112	0xbd7707db	-0.060310226
113	0xbd955d30	-0.07293165
114	0xbb412373	-0.0029470592
115	0xbdd91365	-0.10599402
116	0x3e67a82b	0.22622745
117	0xbd47dbd3	-0.048793625
118	0xbc0367ba	-0.008020336
119	0x3e1239c4	0.14279848
120	0x3d7f22b6	0.062288962
121	0xbc4c2cee	-0.012461884
122	0x3dd70040	0.104980946
123	0xbded45a8	-0.115855515
124	0x3c821593	0.015879428
125	0x3dd1761b	0.10227605
126	0x3dd7d6a2	0.10538985
127	0x3d2ddd94	0.04244764
128	0xbd05dcbc	-0.03268121
129	0x3dff004d	0.12451229
130	0x3e0925d4	0.13393337
131	0xbdf8c0df	-0.12146162
132	0xbd9d0499	-0.076668926
133	0x3d704293	0.05865724
134	0x3c50a66e	0.012734992
135	0x3df1d8ef	0.11808955
136	0x3e0ef9c9	0.13962473
137	0x3d054f2e	0.032546215
138	0xbe044843	-0.1291819
139	0x3db3ec23	0.08785274
140	0x3d2293ed	0.039691854
141	0xbd9329fd	-0.07185743
142	0xbce9228a	-0.028458852
143	0xbdc9f507	-0.098611884
144	0x3d88b7ec	0.06675705
145	0x3ca75d85	0.020430336
146	0xbd517732	-0.051139064
147	0xbd598c40	-0.05311227
148	0xbdbf2e09	-0.093349524
149	0x3ce69329	0.028146343
150	0xbdc5cbd8	-0.09658021
151	0x3cf76db1	0.030203672
152	0x3d8bd01f	0.06826805
153	0xbc0d1431	-0.008610771
154	0x3e29cc4a	0.16581836
155	0x3d8f5c71	0.07000054
156	0x3b3826b5	0.0028099243
157	0x3e3be28e	0.18348143
158	0x3dea2f79	0.11434836
159	0x3dc1289f	0.09431576
160	0xbd9b31ee	-0.07577883
161	0xbe13ae4b	-0.14421956
162	0xbcdd1881	-0.026989223
163	0xbdeafe21	-0.114742525
164	0xbde3a062	-0.11114575
165	0x3d830531	0.063974746
166	0x3d51b05c	0.05119358
167	0x3d1a87c7	0.037727144
168	0x3cd98f3b	0.026557555
169	0x3df04a86	0.11732964
170	0x3dca0a98	0.09865302
171	0xbb72b1fc	-0.0037032356
172	0x3d61f5e3	0.055166136
173	0xbd8d04e5	-0.06885699
174	0xbe06756d	-0.13130732
175	0x3bc46bbc	0.0059942883
176	0xbc948979	-0.018131958
177	0x3dc26d27	0.094934754
178	0xbdc671d5	-0.096896805
179	0xbc456460	-0.012047857
180	0xbdf3c180	-0.119021416
181	0xbc6e5c5a	-0.0145483855
182	0x3d60d3a7	0.054889347
183	0xbc475032	-0.012165116
184	0x3dc9c445	0.098518886
185	0x3cdd9b86	0.027051698
186	0xbd8a32c3	-0.06747963
187	0xbdcc7ac5	-0.09984354
188	0x3e3ccb1c	0.18436855
189	0x3daeb097	0.085297756
190	0x3c03b173	0.008037913
191	0xbd01e356	-0.031710945
192	0x3d9e0922	0.07716586
193	0xbd2bed6c	-0.04197447
194	0xbdf27e45	-0.1184049
195	0x3d3ece20	0.046583295
196	0x3e12a5f8	0.14321125
197	0x3e016b1c	0.12638515
198	0xbdcf0f12	-0.10110296
199	0x3b834407	0.004005912
200	0xbc8f84d7	-0.017519398
201	0x3df86192	0.12127985
202	0xbde0fc8e	-0.10985671
203	0xbd299def	-0.041410383
204	0xbc0c3040	-0.008556426
205	0x3db69443	0.089149974
206	0x3dcd349c	0.100198
207	0x3dc565a4	0.09638527
208	0xbddfa458	-0.10920018
209	0xbdc26d98	-0.094935596
210	0x3e11373a	0.14181224
211	0x3e21fb24	0.15818459
212	0x3ccf1391	0.025277885
213	0xbd9373e6	-0.0719984
214	0xbb927ace	-0.004470206
215	0xbe098cc4	-0.13432604
216	0x3d95d3e7	0.07315808
217	0x3daa93a9	0.08328945
218	0xbd9761b1	-0.0739168
219	0xbdfa2763	-0.12214544
220	0xbda29a24	-0.07939556
221	0x3c1288bb	0.008943732
222	0x3d8217f2	0.063522235
223	0x3db466ff	0.088087074
224	0x3de573b7	0.112037115
225	0x3cf1eb97	0.029531283
226	0x3ba72052	0.0051002884
227	0x3df01a07	0.11723714
228	0xbc2f4093	-0.010696548
229	0x3d7794bd	0.060444582
230	0xbe12239b	-0.14271395
231	0xbdb8a2ff	-0.09015464
232	0x3c4b3771	0.012403355
233	0xbdb53713	-0.08848395
234	0xbb7f704c	-0.0038976846
235	0x3d828264	0.06372526
236	0xbd9082f1	-0.07056225
237	0x3c9ac58b	0.018893024
238	0x3e1d2450	0.15345883
239	0x3e0d9325	0.13825662
240	0x3d6c0290	0.05761963
241	0xbd691c2d	-0.056911636
242	0xbde4ec75	-0.11177913
243	0xbddb3a89	-0.10704524
244	0xbe0e2a0a	-0.13883224
245	0x3e0b26ac	0.13588971
246	0xbb547594	-0.0032418715
247	0xbdc0f788	-0.09422213
248	0x3c4375fa	0.011929983
249	0xbdf7356e	-0.12070738
250	0x3ceafccb	0.028684994
251	0xbdfe19a4	-0.12407234
252	0xbc00019d	-0.007812885
253	0x3dfe8d8b	0.12429341
254	0xbdf6bd44	-0.12047818
255	0xbda969b1	-0.08272112

conv2.att_src f4 [1, 1, 64]
0	0xbca14aba	-0.019688953
1	0x3de0b3c0	0.109717846
2	0xbe16029b	-0.14649431
3	0x3e7e5dbf	0.24840449
4	0xbe21f79e	-0.15817115
5	0xbd942d12	-0.07235159
6	0x3de3762a	0.111065224
7	0x3e456da9	0.19280113
8	0x3ddcf9f5	0.10789863
9	0xbdce0185	-0.100588836
10	0x3e27b53a	0.16377726
11	0xbe76944f	-0.24080013
12	0xbdb06f3d	-0.08614967
13	0x3e16666e	0.14687511
14	0xbe5e7c2e	-0.21727058
15	0xbe07ce62	-0.13262323
16	0xbdd94bcb	-0.106101595
17	0xbd3ee5d3	-0.046605896
18	0xbe5f2e69	-0.21795048
19	0xbdd6f1c0	-0.10495329
20	0x3da3cc81	0.079979904
21	0x3e5666e6	0.2093769
22	0x3ea39e8b	0.31956896
23	0x3dee6245	0.11639837
24	0x3e7d5af0	0.24741721
25	0xbea8f398	-0.32998347
26	0xbdf3b9b8	-0.119006574
27	0xbdca77a5	-0.09886102
28	0xbebcd307	-0.3687975
29	0xbcce340a	-0.025171299
30	0xbc8b9657	-0.017039461
31	0xbe747dbe	-0.23876092
32	0xbe82a8ca	-0.255194
33	0x3e1a0bf0	0.15043616
34	0xbe95a4c6	-0.29227275
35	0xbd6441d0	-0.055726826
36	0x3d2a34a5	0.041554112
37	0xbe471813	-0.19442777
38	0xbea86d59	-0.32895926
39	0xbea82e8e	-0.32848018
40	0x3e859cb5	0.2609612
41	0x3ec18c6d	0.3780245
42	0xbe99e03c	-0.3005389
43	0xbd6bf409	-0.057605777
44	0xbdc55abb	-0.09636446
45	0x3e49dcc7	0.19713126
46	0xbdde4dbb	-0.1085467
47	0x3e072725	0.13198526
48	0x3db2b4c9	0.08725888
49	0xbeb39e00	-0.35081482
50	0x3db4b658	0.08823842
51	0x3de944b2	0.11390056
52	0x3ebad7b1	0.36492684
53	0x3e1751e3	0.14777331
54	0xbd82729a	-0.06369515
55	0x3cf41616	0.029795688
56	0xbb6ffb09	-0.0036618134
57	0x3d1146a8	0.035467774
58	0xbdac4fed	-0.08413682
59	0xbe7f1233	-0.24909286
60	0x3e437b52	0.19090012
61	0x3e40c926	0.18826732
62	0x3e621367	0.22077714
63	0x3d2cac5d	0.042156566

conv2.att_dst f4 [1, 1, 64]
0	0x3e9078b2	0.28217083
1	0x3d89e218	0.06732577
2	0xbda62f4a	-0.081144884
3	0x3f018727	0.5059685
4	0x3deb25a3	0.11481788
5	0x3e56b47b	0.20967285
6	0x3e1b137b	0.1514415
7	0x3da45815	0.08024613
8	0x3c0da784	0.008645896
9	0xbe5713ba	-0.21003619
10	0x3e0063ed	0.12538119
11	0xbb31594c	-0.0027061282
12	0xbd86dd92	-0.0658523
13	0xbe9a8888	-0.3018229
14	0xbeb909c4	-0.36140263
15	0xbe62ada1	-0.22136547
16	0x3e5eae85	0.21746261
17	0x3e2cccc5	0.16874988
18	0x3e2dccb4	0.1697262
19	0x3dd9734d	0.10617695
20	0x3dd06e99	0.10177345
21	0xbda09123	-0.07840183
22	0x3eb9fb01	0.36324313
23	0x3e673e29	0.22582306
24	0xbe4bdd4e	-0.1990864
25	0xbed0e124	-0.4079677
26	0xbd41d38f	-0.0473209
27	0x3cf405df	0.029787956
28	0x3e05677c	0.13027757
29	0xbceebb0e	-0.029141929
30	0x3cbacbe2	0.022802297
31	0xbe6ac9df	-0.2292857
32	0xbe0e6361	-0.13905098
33	0x3e0ac6a5	0.1355234
34	0xbef07c86	-0.46970004
35	0xbcc2e669	-0.023791509
36	0x3eba555b	0.36393246
37	0xbddfe02d	-0.1093143
38	0xbe71bece	-0.23607942
39	0xbeda1ac6	-0.42598552
40	0x3ea43e8b	0.32078966
41	0x3e89eda0	0.26939106
42	0xbd2fa06d	-0.042877603
43	0x3d102e72	0.035200544
44	0x3e908d09	0.282326
45	0xbeb93cfa	-0.36179334
46	0xbe4df5dc	-0.20113319
47	0x3e080cc3	0.13286118
48	0xbe18b006	-0.14910898
49	0xbe20a71c	-0.15688747
50	0xbe661290	-0.22468019
51	0xbe72e647	-0.23720656
52	0x3d29572a	0.04134289
53	0xbe3fe4ca	-0.1873962
54	0xbdb66be1	-0.08907295
55	0x3e9ca277	0.305927
56	0xbd30bc2e	-0.043148212
57	0x3d80f5be	0.062968716
58	0x3d9fe92b	0.07808145
59	0xbe1c05da	-0.15236607
60	0xbdf361a9	-0.118838616
61	0xbe1e744e	-0.15474054
62	0x3e4dd5ec	0.20101136
63	0x3e1c4747	0.15261565

conv2.bias f4 [64]
0	0x3c3be865	0.011468981
1	0xbc3eb3dc	-0.0116395615
2	0x3c06fb36	0.008238604
3	0x3bc858fc	0.0061141234
4	0x3be37b1c	0.006942166
5	0xbb7566d8	-0.0037445333
6	0x3c2607dc	0.01013371
7	0xbd17c18d	-0.03704982
8	0xbca26abf	-0.019826291
9	0xbce14375	-0.027497986
10	0x3bc89e8d	0.0061224164
11	0xbd224a67	-0.039621737
12	0xbbca98af	-0.006182752
13	0x3caab2fc	0.0208373
14	0xbc375f21	-0.011192114
15	0xbc1a6428	-0.009423293
16	0x3c1587e1	0.009126634
17	0xbc569fca	-0.01309962
18	0xba8eae22	-0.0010885636
19	0xbb4431ab	-0.002993683
20	0xbcb7769a	-0.02239542
21	0xbb8ea778	-0.00435346
22	0x3c3f755d	0.011685696
23	0xba3b8024	-0.00071525783
24	0xbc8b6c97	-0.017019553
25	0x3b86343e	0.004095583
26	0xbca65822	-0.020305697
27	0xbd4de495	-0.05026682
28	0xbccd74cb	-0.025080105
29	0x3b460c4d	0.0030219734
30	0xbcd75096	-0.026283544
31	0xbb38725a	-0.002814433
32	0xbb1b4034	-0.002368939
33	0x3b86f2b4	0.004118288
34	0x3c87d3f9	0.016580569
35	0xbd2bf04e	-0.04197722
36	0x3c9c8baa	0.019109566
37	0xbc91f5af	-0.017817346
38	0xbd3b4e51	-0.045728985
39	0xbcb412a2	-0.021981541
40	0xbcc08b90	-0.023504049
41	0x3c0c297f	0.008554815
42	0xbd05266d	-0.03250735
43	0xbc8571e9	-0.016289668
44	0x3cdde7ea	0.027088124
45	0xbcd1bffa	-0.025604237
46	0xbc8c6e71	-0.017142506
47	0xba702a25	-0.00091615535
48	0x3c1bf920	0.009519845
49	0xbc179439	-0.009251648
50	0xba21ebce	-0.00061768
51	0x3a57d0db	0.0008232721
52	0xbbe1b0b9	-0.006887522
53	0xbbafb34c	-0.00536195
54	0xbb471d2d	-0.003038238
55	0x3ba07a2d	0.004897377
56	0xbb3f3a53	-0.002917905
57	0x3caa7d4c	0.0208117
58	0xbd172b88	-0.03690675
59	0x3bfb135c	0.00766222
60	0x3c8f3f39	0.017486202
61	0x39a5bdd7	0.00031612694
62	0x3aa98f57	0.0012936395
63	0xbc8cc019	-0.017181443

conv2.lin_src.weight f4 [64, 100]
0	0xbc4868c1	-0.0122320065
1	0x3c538033	0.012908983
2	0x3d9c29ec	0.076251835
3	0xbd0b5b98	-0.034022897
4	0x3e0f718e	0.14008161
5	0xbd920a31	-0.0713085
6	0xbd3b3fc4	-0.04571511
7	0x3d6dcb06	0.058054946
8	0x3deb8561	0.115000494
9	0xbe28a6c5	-0.16469868
10	0x3d0f1a7c	0.034937367
11	0xbe0c79c0	-0.13718319
12	0xbdf5861b	-0.11988469
13	0xbddfd5a1	-0.10929418
14	0x3db71c5c	0.08940956
15	0xbd013aa1	-0.031550054
16	0xbe3a1888	-0.1817342
17	0xbdbda491	-0.09259904
18	0xbe5ce7fb	-0.21572869
19	0x3d758d1a	0.059949018
20	0xbdead631	-0.11466635
21	0xbbf4fdb4	-0.007476533
22	0xbc30fe7c	-0.010802861
23	0x3ef86be8	0.48519826
24	0xbde39540	-0.111124516
25	0x3d63923e	0.05555939
26	0xbe133e66	-0.14379272
27	0xbca8ed71	-0.020621033
28	0x3dc3e9bf	0.09566068
29	0x3dd0a348	0.101873934
30	0xbe13fd1f	-0.14452027
31	0x3d67d341	0.05659795
32	0xbe6e6353	-0.23280077
33	0xbc2f9e50	-0.010718897
34	0x3c4db537	0.012555412
35	0xbdf86f8d	-0.121306516
36	0x3ccaf91d	0.02477699
37	0xbd906ea2	-0.070523515
38	0x3ea681b8	0.32520843
39	0x3e0b3cdc	0.13597435
40	0x3e4df154	0.2011159
41	0xbdbec2cd	-0.09314499
42	0xbdde65cb	-0.10859259
43	0x3d8aa12f	0.067690246
44	0xbda0e82c	-0.07856783
45	0x3d9db8fd	0.07701299
46	0x3e70b4de	0.23506495
47	0x3def2c4e	0.11678372
48	0xbd5e360a	-0.054250754
49	0xbe007c89	-0.12547506
50	0xbe2d400f	-0.16918968
51	0x3d85c27e	0.06531237
52	0x3e114071	0.14184739
53	0xbdb421a3	-0.08795478
54	0x3c357eb8	0.011077575
55	0x3da0f853	0.07859864
56	0x3de0c155	0.10974375
57	0xbe5c145d	-0.21492143
58	0x3d990d2d	0.07473216
59	0xbdf553aa	-0.11978848
60	0x3e3ed0e1	0.18634368
61	0x3e2fcaac	0.17167157
62	0x3d6ed29a	0.058306314
63	0xbd73d542	-0.05952955
64	0x3d894155	0.06701914
65	0xbd70fc0b	-0.058834117
66	0x3da1dba8	0.07903224
67	0xbe1895e9	-0.14900936
68	0x3e3dd6ba	0.18538943
69	0xbe29d5da	-0.16585484
70	0x3d3c28f7	0.045937505
71	0x3d6b75a7	0.05748525
72	0xbdcdb7ba	-0.10044809
73	0xbe8b190f	-0.27167556
74	0xbe085c29	-0.13316406
75	0xbd9e7be4	-0.07738474
76	0x3d904ff3	0.07046499
77	0xbd416db1	-0.04722375
78	0xbcec68b6	-0.028858524
79	0xbd3a991f	-0.045556184
80	0x3d521411	0.051288668
81	0x3e107100	0.14105606
82	0x3d092695	0.03348406
83	0x3d09c03d	0.0336306
84	0x3dfa7b99	0.12230606
85	0xbe31580a	-0.1731874
86	0xbe78a654	-0.24282199
87	0xbe78dc34	-0.24302751
88	0x39a0b568	0.00030652736
89	0xbc0061f2	-0.007835852
90	0x3d3994b9	0.04530785
91	0xbd8d6319	-0.06903667
92	0xbca1c7a4	-0.019748516
93	0x3c99ab63	0.018758481
94	0xbdc530ed	-0.096284725
95	0x3d8d947c	0.06913087
96	0xbe277773	-0.1635416
97	0x3dd65a07	0.1046639
98	0x3e3548a3	0.1770349
99	0x3e31861a	0.17336312
100	0xbe2335e1	-0.15938522
101	0xbe91c5b8	-0.2847116
102	0x3da57a52	0.080799714
103	0xbdc7bea9	-0.097531624
104	0x3e7a9c39	0.24473657
105	0xbe40ecae	-0.18840286
106	0xbe2ab27e	-0.16669652
107	0x3e113a17	0.14182316
108	0x3dccdc02	0.10002901
109	0x3e079c3c	0.13243192
110	0xbd96fdf2	-0.07372655
111	0xbdb1b28c	-0.08676633
112	0xbe0b5846	-0.13607892
113	0xbe112d9e	-0.14177558
114	0x3dbbce2e	0.09170185
115	0xbde397dc	-0.11112949
116	0xbea6bc75	-0.32565656
117	0xbd8dbb78	-0.069205225
118	0xbe82bd71	-0.25535157
119	0xbde48e1b	-0.11159917
120	0x3da8b60c	0.08237848
121	0x3d223582	0.03960181
122	0x3d5cee7b	0.05393837
123	0x3e9d3e2e	0.30711502
124	0xbdfe74b3	-0.12424602
125	0xbcaa343e	-0.020776864
126	0xbd9a06c0	-0.07520819
127	0xbc5ea60e	-0.013589395
128	0x3d705eb4	0.058684066
129	0x3d612352	0.054965325
130	0xbe5a8372	-0.21339205
131	0x3dc36758	0.09541196
132	0xbb2194f7	-0.002465544
133	0xbe09e728	-0.13467085
134	0x3d75e152	0.060029335
135	0x3d97d75c	0.074141234
136	0x3e307b7e	0.17234609
137	0xbdef0a0f	-0.116718404
138	0x3e384eb1	0.17998768
139	0x3e25b989	0.16184057
140	0x3e6391a8	0.22223532
141	0xbdd4f62b	-0.10398515
142	0xbd12e457	-0.035862293
143	0xbe1e93b1	-0.15486027
144	0x3b86ebb7	0.004117455
145	0x3d2e4188	0.042542964
146	0x3d7b9680	0.061422825
147	0x3d45265f	0.048132297
148	0x3d8071c9	0.06271703
149	0x3be32000	0.006931305
150	0x3839fff2	4.4345805e-05
151	0xbe54d513	-0.20784406
152	0xbd2e3744	-0.042533174
153	0x3b8d1502	0.004305483
154	0x3c529fd0	0.012855485
155	0x3e45713b	0.19281475
156	0xbdb59df5	-0.088680185
157	0xbe322b11	-0.17399241
158	0x3df14a0f	0.11781704
159	0x3e106833	0.14102249
160	0x3e44ba56	0.19211707
161	0xbd169f98	-0.036773294
162	0x3e357d5e	0.17723605
163	0xbd24e034	-0.04025288
164	0x3dff3ed0	0.124631524
165	0xbd8b2d8a	-0.06795795
166	0x3d0c56a5	0.03426232
167	0xbe7fb327	-0.24970685
168	0x3d5b5039	0.053543303
169	0xbe488a35	-0.19583972
170	0xbb1a0d5a	-0.0023506493
171	0x3e2bb06c	0.16766518
172	0x3cdf85e7	0.02728553
173	0xbe3b7602	-0.18306735
174	0x3d83a39e	0.06427692
175	0xbe8dccd8	-0.27695346
176	0xbe0856e7	-0.133144
177	0xbe81ed9f	-0.25376603
178	0xbdbcecfb	-0.09224888
179	0x3e1ea2cb	0.15491788
180	0xbdf445e3	-0.11927392
181	0x3e39fe90	0.18163514
182	0x3d43e1d2	0.04782278
183	0x3d9b76c3	0.075910114
184	0x3e029da2	0.12755445
185	0xbd56a721	-0.05240548
186	0xbe1766d8	-0.14785326
187	0xbe7ddca1	-0.24791194
188	0xbc8a49ab	-0.01688083
189	0xbe449e7c	-0.19201082
190	0x3d9b3b74	0.07579699
191	0x3d853f4c	0.065062135
192	0xbe7df200	-0.24799347
193	0x3bf8e0e9	0.0075951708
194	0xbd6ad144	-0.057328478
195	0xbdccb493	-0.09995379
196	0x3d115ce6	0.035488985
197	0x3e055842	0.13021949
198	0xbda145df	-0.07874655
199	0x3e06b86f	0.13156293
200	0xbe1cf48f	-0.15327667
201	0x3e8c1124	0.27356827
202	0x3df9131a	0.121618465
203	0x3d7c3ad1	0.06157953
204	0x3d1fcb24	0.03901209
205	0x3dddde38	0.108334005
206	0x3bb2e835	0.00545981
207	0xbc78a379	-0.015175694
208	0x3c44c35e	0.01200947
209	0xbd3b32fa	-0.045702912
210	0xbd81ae5b	-0.06332084
211	0x3c46417d	0.012100575
212	0x3e08b7ef	0.13351415
213	0xbe1500dd	-0.1455111
214	0x3ca96bcd	0.020681286
215	0x3e125ac3	0.14292435
216	0xbdbb6a89	-0.09151179
217	0x3e23af70	0.15984893
218	0x3db0b418	0.086281
219	0xbc878369	-0.016542153
220	0x3e182cd5	0.14860852
221	0xbe30f504	-0.17280966
222	0x3b64891d	0.0034871765
223	0xbdb97d65	-0.0905712
224	0x3d9c478c	0.07630834
225	0x3df87288	0.1213122
226	0x3da64e9e	0.08120464
227	0xbddceee6	-0.10787754
228	0xbcda2cf8	-0.02663277
229	0xba158fc7	-0.00057053234
230	0x3d82410c	0.06360063
231	0x3d4fcb6e	0.050731115
232	0x3dda62ac	0.106633514
233	0x3d84ad62	0.06478383
234	0x3e21ef71	0.15813996
235	0x3dc4c56d	0.096079685
236	0xbd4cbcd6	-0.049984775
237	0xbe2bce19	-0.16777839
238	0xbe7504c8	-0.23927605
239	0xbd1774eb	-0.036976736
240	0x3d149cd4	0.036282375
241	0xbdddee7b	-0.10836502
242	0x3cb1ad2f	0.021689026
243	0xbc607f4a	-0.013702223
244	0x3e401f5b	0.18761961
245	0x3db1f071	0.08688439
246	0x3d1158a0	0.03548491
247	0x3dca1a17	0.098682575
248	0x3d7cfe57	0.061765995
249	0xbe0b87f0	-0.13626075
250	0x3d128f06	0.03578093
251	0x3dd57e8d	0.10424528
252	0xbdcae634	-0.09907189
253	0x3d20322b	0.039110344
254	0xbb94c9f0	-0.0045406744
255	0xbe2a24a2	-0.16615537

conv2.lin_dst.weight f4 [64, 100]
0	0xbc4868c1	-0.0122320065
1	0x3c538033	0.012908983
2	0x3d9c29ec	0.076251835
3	0xbd0b5b98	-0.034022897
4	0x3e0f718e	0.14008161
5	0xbd920a31	-0.0713085
6	0xbd3b3fc4	-0.04571511
7	0x3d6dcb06	0.058054946
8	0x3deb8561	0.115000494
9	0xbe28a6c5	-0.16469868
10	0x3d0f1a7c	0.034937367
11	0xbe0c79c0	-0.13718319
12	0xbdf5861b	-0.11988469
13	0xbddfd5a1	-0.10929418
14	0x3db71c5c	0.08940956
15	0xbd013aa1	-0.031550054
16	0xbe3a1888	-0.1817342
17	0xbdbda491	-0.09259904
18	0xbe5ce7fb	-0.21572869
19	0x3d758d1a	0.059949018
20	0xbdead631	-0.11466635
21	0xbbf4fdb4	-0.007476533
22	0xbc30fe7c	-0.010802861
23	0x3ef86be8	0.48519826
24	0xbde39540	-0.111124516
25	0x3d63923e	0.05555939
26	0xbe133e66	-0.14379272
27	0xbca8ed71	-0.020621033
28	0x3dc3e9bf	0.09566068
29	0x3dd0a348	0.101873934
30	0xbe13fd1f	-0.14452027
31	0x3d67d341	0.05659795
32	0xbe6e6353	-0.23280077
33	0xbc2f9e50	-0.010718897
34	0x3c4db537	0.012555412
35	0xbdf86f8d	-0.121306516
36	0x3ccaf91d	0.02477699
37	0xbd906ea2	-0.070523515
38	0x3ea681b8	0.32520843
39	0x3e0b3cdc	0.13597435
40	0x3e4df154	0.2011159
41	0xbdbec2cd	-0.09314499
42	0xbdde65cb	-0.10859259
43	0x3d8aa12f	0.067690246
44	0xbda0e82c	-0.07856783
45	0x3d9db8fd	0.07701299
46	0x3e70b4de	0.23506495
47	0x3def2c4e	0.11678372
48	0xbd5e360a	-0.054250754
49	0xbe007c89	-0.12547506
50	0xbe2d400f	-0.16918968
51	0x3d85c27e	0.06531237
52	0x3e114071	0.14184739
53	0xbdb421a3	-0.08795478
54	0x3c357eb8	0.011077575
55	0x3da0f853	0.07859864
56	0x3de0c155	0.10974375
57	0xbe5c145d	-0.21492143
58	0x3d990d2d	0.07473216
59	0xbdf553aa	-0.11978848
60	0x3e3ed0e1	0.18634368
61	0x3e2fcaac	0.17167157
62	0x3d6ed29a	0.058306314
63	0xbd73d542	-0.05952955
64	0x3d894155	0.06701914
65	0xbd70fc0b	-0.058834117
66	0x3da1dba8	0.07903224
67	0xbe1895e9	-0.14900936
68	0x3e3dd6ba	0.18538943
69	0xbe29d5da	-0.16585484
70	0x3d3c28f7	0.045937505
71	0x3d6b75a7	0.05748525
72	0xbdcdb7ba	-0.10044809
73	0xbe8b190f	-0.27167556
74	0xbe085c29	-0.13316406
75	0xbd9e7be4	-0.07738474
76	0x3d904ff3	0.07046499
77	0xbd416db1	-0.04722375
78	0xbcec68b6	-0.028858524
79	0xbd3a991f	-0.045556184
80	0x3d521411	0.051288668
81	0x3e107100	0.14105606
82	0x3d092695	0.03348406
83	0x3d09c03d	0.0336306
84	0x3dfa7b99	0.12230606
85	0xbe31580a	-0.1731874
86	0xbe78a654	-0.24282199
87	0xbe78dc34	-0.24302751
88	0x39a0b568	0.00030652736
89	0xbc0061f2	-0.007835852
90	0x3d3994b9	0.04530785
91	0xbd8d6319	-0.06903667
92	0xbca1c7a4	-0.019748516
93	0x3c99ab63	0.018758481
94	0xbdc530ed	-0.096284725
95	0x3d8d947c	0.06913087
96	0xbe277773	-0.1635416
97	0x3dd65a07	0.1046639
98	0x3e3548a3	0.1770349
99	0x3e31861a	0.17336312
100	0xbe2335e1	-0.15938522
101	0xbe91c5b8	-0.2847116
102	0x3da57a52	0.080799714
103	0xbdc7bea9	-0.097531624
104	0x3e7a9c39	0.24473657
105	0xbe40ecae	-0.18840286
106	0xbe2ab27e	-0.16669652
107	0x3e113a17	0.14182316
108	0x3dccdc02	0.10002901
109	0x3e079c3c	0.13243192
110	0xbd96fdf2	-0.07372655
111	0xbdb1b28c	-0.08676633
112	0xbe0b5846	-0.13607892
113	0xbe112d9e	-0.14177558
114	0x3dbbce2e	0.09170185
115	0xbde397dc	-0.11112949
116	0xbea6bc75	-0.32565656
117	0xbd8dbb78	-0.069205225
118	0xbe82bd71	-0.25535157
119	0xbde48e1b	-0.11159917
120	0x3da8b60c	0.08237848
121	0x3d223582	0.03960181
122	0x3d5cee7b	0.05393837
123	0x3e9d3e2e	0.30711502
124	0xbdfe74b3	-0.12424602
125	0xbcaa343e	-0.020776864
126	0xbd9a06c0	-0.07520819
127	0xbc5ea60e	-0.013589395
128	0x3d705eb4	0.058684066
129	0x3d612352	0.054965325
130	0xbe5a8372	-0.21339205
131	0x3dc36758	0.09541196
132	0xbb2194f7	-0.002465544
133	0xbe09e728	-0.13467085
134	0x3d75e152	0.060029335
135	0x3d97d75c	0.074141234
136	0x3e307b7e	0.17234609
137	0xbdef0a0f	-0.116718404
138	0x3e384eb1	0.17998768
139	0x3e25b989	0.16184057
140	0x3e6391a8	0.22223532
141	0xbdd4f62b	-0.10398515
142	0xbd12e457	-0.035862293
143	0xbe1e93b1	-0.15486027
144	0x3b86ebb7	0.004117455
145	0x3d2e4188	0.042542964
146	0x3d7b9680	0.061422825
147	0x3d45265f	0.048132297
148	0x3d8071c9	0.06271703
149	0x3be32000	0.006931305
150	0x3839fff2	4.4345805e-05
151	0xbe54d513	-0.20784406
152	0xbd2e3744	-0.042533174
153	0x3b8d1502	0.004305483
154	0x3c529fd0	0.012855485
155	0x3e45713b	0.19281475
156	0xbdb59df5	-0.088680185
157	0xbe322b11	-0.17399241
158	0x3df14a0f	0.11781704
159	0x3e106833	0.14102249
160	0x3e44ba56	0.19211707
161	0xbd169f98	-0.036773294
162	0x3e357d5e	0.17723605
163	0xbd24e034	-0.04025288
164	0x3dff3ed0	0.124631524
165	0xbd8b2d8a	-0.06795795
166	0x3d0c56a5	0.03426232
167	0xbe7fb327	-0.24970685
168	0x3d5b5039	0.053543303
169	0xbe488a35	-0.19583972
170	0xbb1a0d5a	-0.0023506493
171	0x3e2bb06c	0.16766518
172	0x3cdf85e7	0.02728553
173	0xbe3b7602	-0.18306735
174	0x3d83a39e	0.06427692
175	0xbe8dccd8	-0.27695346
176	0xbe0856e7	-0.133144
177	0xbe81ed9f	-0.25376603
178	0xbdbcecfb	-0.09224888
179	0x3e1ea2cb	0.15491788
180	0xbdf445e3	-0.11927392
181	0x3e39fe90	0.18163514
182	0x3d43e1d2	0.04782278
183	0x3d9b76c3	0.075910114
184	0x3e029da2	0.12755445
185	0xbd56a721	-0.05240548
186	0xbe1766d8	-0.14785326
187	0xbe7ddca1	-0.24791194
188	0xbc8a49ab	-0.01688083
189	0xbe449e7c	-0.19201082
190	0x3d9b3b74	0.07579699
191	0x3d853f4c	0.065062135
192	0xbe7df200	-0.24799347
193	0x3bf8e0e9	0.0075951708
194	0xbd6ad144	-0.057328478
195	0xbdccb493	-0.09995379
196	0x3d115ce6	0.035488985
197	0x3e055842	0.13021949
198	0xbda145df	-0.07874655
199	0x3e06b86f	0.13156293
200	0xbe1cf48f	-0.15327667
201	0x3e8c1124	0.27356827
202	0x3df9131a	0.121618465
203	0x3d7c3ad1	0.06157953
204	0x3d1fcb24	0.03901209
205	0x3dddde38	0.108334005
206	0x3bb2e835	0.00545981
207	0xbc78a379	-0.015175694
208	0x3c44c35e	0.01200947
209	0xbd3b32fa	-0.045702912
210	0xbd81ae5b	-0.06332084
211	0x3c46417d	0.012100575
212	0x3e08b7ef	0.13351415
213	0xbe1500dd	-0.1455111
214	0x3ca96bcd	0.020681286
215	0x3e125ac3	0.14292435
216	0xbdbb6a89	-0.09151179
217	0x3e23af70	0.15984893
218	0x3db0b418	0.086281
219	0xbc878369	-0.016542153
220	0x3e182cd5	0.14860852
221	0xbe30f504	-0.17280966
222	0x3b64891d	0.0034871765
223	0xbdb97d65	-0.0905712
224	0x3d9c478c	0.07630834
225	0x3df87288	0.1213122
226	0x3da64e9e	0.08120464
227	0xbddceee6	-0.10787754
228	0xbcda2cf8	-0.02663277
229	0xba158fc7	-0.00057053234
230	0x3d82410c	0.06360063
231	0x3d4fcb6e	0.050731115
232	0x3dda62ac	0.106633514
233	0x3d84ad62	0.06478383
234	0x3e21ef71	0.15813996
235	0x3dc4c56d	0.096079685
236	0xbd4cbcd6	-0.049984775
237	0xbe2bce19	-0.16777839
238	0xbe7504c8	-0.23927605
239	0xbd1774eb	-0.036976736
240	0x3d149cd4	0.036282375
241	0xbdddee7b	-0.10836502
242	0x3cb1ad2f	0.021689026
243	0xbc607f4a	-0.013702223
244	0x3e401f5b	0.18761961
245	0x3db1f071	0.08688439
246	0x3d1158a0	0.03548491
247	0x3dca1a17	0.098682575
248	0x3d7cfe57	0.061765995
249	0xbe0b87f0	-0.13626075
250	0x3d128f06	0.03578093
251	0x3dd57e8d	0.10424528
252	0xbdcae634	-0.09907189
253	0x3d20322b	0.039110344
254	0xbb94c9f0	-0.0045406744
255	0xbe2a24a2	-0.16615537

conv3.att_src f4 [1, 1, 64]
0	0xbd2ab906	-0.04168036
1	0xbf0cc7d5	-0.5499242
2	0xbe623c7c	-0.22093385
3	0xbef8002b	-0.48437628
4	0x3e8cc17b	0.27491364
5	0x3ef2c8a4	0.47418702
6	0xbee7cb76	-0.45272416
7	0x3dc79302	0.097448364
8	0x3eb9aa92	0.36262947
9	0xbdc2cc76	-0.09511654
10	0xbe5fe8e1	-0.2186618
11	0xbe4df418	-0.20112646
12	0x3d179707	0.037009265
13	0xbccbaf06	-0.024863731
14	0xbdbd8958	-0.09254712
15	0xbe55c9a5	-0.20877703
16	0x3f0bb827	0.5457787
17	0xbf0c8a22	-0.54898274
18	0xbe789ac1	-0.24277784
19	0xbde753e1	-0.112952955
20	0x3d43e7d2	0.047828503
21	0xbea9b0fb	-0.33142838
22	0xbe3634d8	-0.17793596
23	0x3de6234e	0.112372026
24	0x3ec80b44	0.39071095
25	0xbecc12a0	-0.3985796
26	0xbd9541a6	-0.07287912
27	0xbe2d5287	-0.16926013
28	0xbec5a951	-0.3860574
29	0xbee05441	-0.4381428
30	0x3e77ecc4	0.24211413
31	0x3c73e9ee	0.014887316
32	0xbd6a2a92	-0.057169504
33	0xbeeaef8c	-0.45885885
34	0xbe96b0a5	-0.29431644
35	0xbcccf850	-0.025020748
36	0xbe167699	-0.14693679
37	0x3e559a99	0.20859756
38	0xbed33440	-0.412508
39	0xbdf78865	-0.12086562
40	0x3cf5b1bb	0.029991975
41	0x3ea2e6e9	0.31816795
42	0xbec839ee	-0.39106697
43	0x3dab09ae	0.08351456
44	0xbee4209e	-0.44556135
45	0xbf075f86	-0.5288013
46	0xbec4b2ef	-0.38417765
47	0x3df707ea	0.12062056
48	0xbe8db9c6	-0.27680796
49	0x3f0048e1	0.50111204
50	0x3e80080f	0.25006148
51	0x3c11f801	0.008909226
52	0x3c86e96b	0.016468724
53	0xbe53b30b	-0.20673768
54	0xbdce7235	-0.10080377
55	0x3c298211	0.010345952
56	0xbebce6ad	-0.36894742
57	0xbc4b31ea	-0.012402037
58	0x3e965326	0.29360312
59	0xbf122af5	-0.570968
60	0x3eabf68b	0.33586535
61	0xbe1ce657	-0.15322243
62	0xbf039d65	-0.5141204
63	0xbe88693e	-0.26642793

conv3.att_dst f4 [1, 1, 64]
0	0x3ec179ae	0.37788147
1	0xbee3e3ec	-0.44509828
2	0xbee942d9	-0.45558813
3	0xbe8778cc	-0.26459348
4	0x3d218fa9	0.039443646
5	0x3b0feb6f	0.0021960398
6	0x3e087846	0.1332713
7	0xbe2b9321	-0.16755344
8	0x3e3f7c40	0.18699741
9	0xbdcf84a6	-0.101327226
10	0xbbca523f	-0.0061743553
11	0xbebc3d13	-0.36765346
12	0xbe0c3f61	-0.13696052
13	0x3e167c68	0.14695895
14	0x3ec79135	0.38977972
15	0x3bfbe8e5	0.0076876753
16	0x3ec053fb	0.37564072
17	0xbe1b2363	-0.15150218
18	0xbe2e081d	-0.16995282
19	0xbe241684	-0.16024214
20	0xbd667f87	-0.056273963
21	0xbe9d4a15	-0.30720583
22	0xbe51fc7c	-0.20506471
23	0x3ea77874	0.32709086
24	0x3e853133	0.260141
25	0xbe6de1b6	-0.23230633
26	0xbd0f7784	-0.03502609
27	0xbe6555a0	-0.22395945
28	0x3cdd3480	0.027002573
29	0x3e094eee	0.13409016
30	0xbdb23398	-0.08701247
31	0xbde57c2b	-0.11205324
32	0xbe8d816c	-0.27637804
33	0x3db5e11f	0.08880829
34	0xbe9c65af	-0.30546328
35	0x3e7d7db1	0.24754979
36	0xbe8e1b1c	-0.27755058
37	0xbe4777a3	-0.19479232
38	0x3cd4dc7b	0.02598404
39	0xbe4346c7	-0.19069968
40	0xbeafcc37	-0.3433549
41	0x3e3dcc19	0.18534888
42	0x3da36767	0.07978707
43	0x3e803398	0.25039363
44	0xbea6360f	-0.32463118
45	0xbd28cddb	-0.041211944
46	0xbe24d4ad	-0.16096754
47	0xbe93954f	-0.2882485
48	0xbea1fccd	-0.31638184
49	0x3e92919c	0.28626716
50	0x3cb31e81	0.021865131
51	0xbe3c2f10	-0.18377328
52	0xbe834616	-0.2563941
53	0xbe5cac68	-0.21550143
54	0xbe3b3494	-0.18281776
55	0xbde9439d	-0.11389849
56	0xbeafd406	-0.3434145
57	0xbea02e6a	-0.3128541
58	0x3e85ee27	0.26158258
59	0xbe445984	-0.19174773
60	0xbdf8b718	-0.12144297
61	0xbeb059fa	-0.34443647
62	0xbdbda963	-0.092608236
63	0xbec239fa	-0.37934858

conv3.bias f4 [64]
0	0xbc88d421	-0.016702713
1	0xbd021e13	-0.031766962
2	0xbc7af34d	-0.0153167965
3	0xbc98df40	-0.018661141
4	0xbc94a559	-0.01814525
5	0x3ca64750	0.020297676
6	0x3bf4f1dc	0.007475121
7	0xbce3ab91	-0.02779177
8	0xbc7f4e0a	-0.015582571
9	0xbcdf0d8d	-0.027228141
10	0x3b6e3768	0.0036348943
11	0xbc87effa	-0.016593922
12	0xbc6e24f5	-0.014535178
13	0xbc8a5492	-0.01688603
14	0x3b3d8940	0.0028920919
15	0x3c5865b1	0.013207839
16	0x3c75b1ba	0.014995987
17	0xbcd8ce32	-0.02646551
18	0x3ca2761e	0.019831713
19	0xbc8dd7b3	-0.017314767
20	0x3cd3e162	0.025864307
21	0xbd2b36b7	-0.041800227
22	0x3c1ff9b6	0.009764126
23	0xbcdbfac5	-0.026852975
24	0x3a91eb0e	0.0011132674
25	0xbc833da5	-0.016020605
26	0xbc774a55	-0.015093406
27	0xbc40ec52	-0.011775093
28	0xbcc1540e	-0.02359965
29	0xbd29fe63	-0.041502368
30	0x3be4a277	0.006977375
31	0x3c400fc9	0.0117225135
32	0xbc436e63	-0.011928174
33	0xbd08f258	-0.033434242
34	0xbc634e85	-0.013873701
35	0x3a831613	0.0010001085
36	0xbcc13ba2	-0.023588005
37	0xba8a1282	-0.001053408
38	0xbb7f3a31	-0.0038944597
39	0x3c04d90a	0.008108387
40	0xbba17904	-0.0049277563
41	0x3cc5d2c7	0.024148358
42	0xbb4ab0ae	-0.0030928063
43	0x3cd45ce8	0.025923207
44	0xbd450877	-0.048103776
45	0xbd25739c	-0.040393457
46	0x396a5836	0.0002234884
47	0xbcd53fe4	-0.026031442
48	0x3d0e131a	0.034686185
49	0x3d1c74f4	0.038197473
50	0xbc975310	-0.018472224
51	0x3bd27b67	0.006423402
52	0xbc9f5fcf	-0.019454865
53	0x3b8a1b74	0.0042146984
54	0x3d09b075	0.03361555
55	0x3c466471	0.012108908
56	0xbcb801b2	-0.022461746
57	0xbcd533ef	-0.02602574
58	0xbbb38e0e	-0.0054795807
59	0xbcb9240a	-0.022600193
60	0x3aec017f	0.0018005817
61	0xbcbf8a8a	-0.02338149
62	0xbc60dded	-0.013724786
63	0x3cedc77d	0.029025787
