model/ROSMAP_E3.pth (torch, 128577 bytes, 15 tensors)

conv1.att_src f4 [1, 1, 100]
00000000: 6365 48bc e8cb ecbd 6ef6 f03e 0de6 febd
00000010: c37d 053f 33dd 893e 22dd c13e c595 b7bd
00000020: debe babd aa45 ebbc 7031 ed3d b66d 21be
00000030: 2108 903e 7965 b2be 2ac8 253e 62d2 0bbf
00000040: 0ed8 213f a2ba 97be 92fd 403e 96fb 153d
00000050: f633 0bbd c980 19bf 0954 a13e cfac 8bbe
00000060: 1852 833c 95ba c6be ab1d 21bf 6d1f 8b3e
00000070: c112 d33e 5cc0 21bf bd95 8dbe 2c85 183e
00000080: 6f59 ec3e fb5e efbd 00a6 97be 38ee 923e
00000090: 625a 74bf a062 86be 241c f3be 1c80 83bf
000000a0: 7aa3 99bc 4a81 863e 9814 2a3f 3456 533e
000000b0: b0f2 36bf 8c74 cdbe 0a06 56be 743e f3be
000000c0: f51c 2b3d 8dcb e0be 5bf4 1fbf 4c4d 403e
000000d0: 36f9 c73e bce5 1cbe 120a afbe bb97 d1be
000000e0: dae0 6bbf 4e2f 0cbf 56cd d3be 0836 a7be
000000f0: 99da 70bf 9ffe 05be 2a78 183d 91ad 33bd
00000100: a1e0 48be eae2 08bf 326d 8fbe d961 e6be
00000110: d74f 98bd fc58 d0bd 0e40 59bd ee08 4ebf
00000120: b230 3b3f f609 58bf b19a fc3e 99bd 09bd
00000130: 764a 22be 5d28 d1be f800 b43d 3f28 11be
00000140: bf3f 083e f0a5 68be f0e8 a03e 7457 70be
00000150: 40bb 4d3e 6a2a 86be 9445 e03d ecf2 08be
00000160: 9c03 69be b54f 023e 44c2 933d f46b 333e
00000170: 8136 9a3e fd78 f9bc c9e7 9ebe adde a53e
00000180: ba08 68be 91c5 9b3e 0f09 833e a85d 31bf
-0.012231204 -0.115623295 0.4706301 -0.124462225 0.5214502 0.26926574 0.37864023 -0.08964113
-0.09118436 -0.028719742 0.11581695 -0.15764508 0.28131202 -0.34843042 0.16189638 -0.54617894
0.632203 -0.29634577 0.1884673 0.036616884 -0.0339851 -0.59962136 0.31509426 -0.2728028
0.016030356 -0.38814226 -0.62935895 0.27172413 0.41225246 -0.6318414 -0.27653304 0.14894551
0.46161982 -0.11688038 -0.29618835 0.2869737 -0.95450413 -0.2624712 -0.47482407 -1.0273471
-0.01875471 0.26270515 0.66437674 0.20638353 -0.7146406 -0.4012798 -0.20900741 -0.47508585
0.041775662 -0.43905297 -0.6248223 0.18779486 0.3905732 -0.15322012 -0.3418737 -0.40936074
-0.9213997 -0.5475968 -0.41367596 -0.3265841 -0.94083554 -0.13085411 0.037223972 -0.043866698
-0.19616939 -0.53471243 -0.28012997 -0.44996527 -0.07437103 -0.101732224 -0.053039603 -0.80482376
0.7312118 -0.843902 0.4933677 -0.03362808 -0.15848717 -0.40851107 0.08789247 -0.14175509
0.13305567 -0.2271955 0.31427717 -0.2347086 0.20090961 -0.26204234 0.10950771 -0.13373917
-0.22755283 0.12725718 0.072147876 0.1752165 0.30119708 -0.0304532 -0.31036213 0.3239645
-0.22659579 0.3042417 0.2559285 -0.69283533

conv1.att_dst f4 [1, 1, 100]
00000000: 1c7b 1fbe 846a 79be e8bd 1dbe 7301 9fbc
00000010: ab8f 173e cc41 05bd 9c5a 493d 9078 78be
00000020: 11ea 60bd be00 72be 9443 fd3c 3e0f 3ebe
00000030: 4ba0 223e 4413 eebd 042c b9bd b473 233e
00000040: c26b 4bbe 09b5 043d 6740 95be 971b 16bc
00000050: 4321 4a3e 8022 f3bc 9b4f 3fbe ffa8 043e
00000060: ba8b 573c c9eb 863e efc8 a13d adf3 183e
00000070: 7480 76be 71ff 91be 5f92 96bc 42ec d2bd
00000080: d0fb ca3d 53e2 3e3e 0d70 3d3d 0704 c0bd
00000090: 63a0 9cbe 3e7d 0d3e 3321 48be da60 78be
000000a0: 8f20 2abe d126 2dbd db57 47be b35f 0d3d
000000b0: 1092 24be e0a0 c13d 1fc6 30be 0491 533c
000000c0: 69ef 46bd b947 05bd 0707 13be 132f a9bd
000000d0: ffa5 863c bee9 babd 8725 4ebe bfb7 aa3c
000000e0: 6c43 4ebe 707d 25be 38e8 30be 673a 173e
000000f0: 3945 ae3b 6e1c 94be 1be7 ef3c c624 21be
00000100: 8677 633d 6c00 5abe e9bb 8f3d 0731 d4bd
00000110: 713e cbbd dd37 d8b9 fe88 153e 6af7 32be
00000120: 2ba8 133e 0345 243e f6f0 3bbe 5839 243c
00000130: 377b 933d 8403 2cbe 2e6b 29bd 6a32 62be
00000140: 72ea 1abe 45e1 583d 94dd 28be fe42 833d
00000150: e8a6 ee3d 1afb ac3d d9c7 18be 050a 88be
00000160: 529d af3d 6964 103d 32ba 99bc 8e6b 60be
00000170: 0d58 f0bd dcfb 03bb d4a4 033e ae38 6fbe
00000180: 03d4 6fbc c89f 0fbe 0cf6 edbd c6d2 71be
-0.15574306 -0.24357039 -0.15404475 -0.01940987 0.14800899 -0.032533452 0.049158677 -0.24264741
-0.054910723 -0.23633096 0.030916013 -0.18560502 0.1588146 -0.116247684 -0.090415984 0.15962106
-0.19865325 0.03239921 -0.29150698 -0.009161851 0.19739251 -0.029679537 -0.18682711 0.12955092
0.013155872 0.26351765 0.07899653 0.14936705 -0.24072438 -0.285152 -0.018380342 -0.10298969
0.09911311 0.18641023 0.046249438 -0.09375768 -0.30591115 0.13817307 -0.19543914 -0.24255696
-0.16613983 -0.042273346 -0.19467108 0.034515094 -0.16071343 0.094545126 -0.17263077 0.012912992
-0.048568163 -0.032539103 -0.1435815 -0.08260932 0.016436575 -0.09126614 -0.20131503 0.02083957
-0.20142907 -0.16161132 -0.17276084 0.14768372 0.0053183106 -0.2892794 0.029285004 -0.15736684
0.05553391 -0.21289223 0.07018263 -0.10360914 -0.09924019 -0.00041240352 0.1460304 -0.17477193
0.1441962 0.16041951 -0.18353638 0.010023437 0.07201236 -0.16798216 -0.04136198 -0.22089544
-0.15128496 0.05294921 -0.16490775 0.06409262 0.116529286 0.08446331 -0.14919986 -0.26570144
0.08574928 0.03525201 -0.018765543 -0.21916029 -0.11735544 -0.0020139134 0.12855846 -0.23361465
-0.01463795 -0.14025795 -0.11619195 -0.2361556

conv1.bias f4 [100]
00000000: 6219 ddba 35bb e23b 55b8 0dbc 12d0 1bbb
00000010: d214 4bba ca2e 97bb 191d 6a3c 5f41 88bc
00000020: bdc3 403b 9f32 ebb9 fdaf 6f3b 49e3 02bc
00000030: 2b64 ffba 2757 8a3b f4d1 14bc 1c09 b63a
00000040: f90e c13a 444e 9f38 a52d 62bb 5e54 553b
00000050: f24a 2d3c 74ec 143b 6171 193b 023d d6bb
00000060: 6770 e5bb 93a0 50bb fa90 97bb 0d1b 30bb
00000070: 8c1b 44bb 45f8 79bb 2e7e eabb c040 f3b9
00000080: b6ff dcbb 566e ae3b a92e 0f3b e362 81b9
00000090: 651c 053c 7f68 1837 a57d 26bb cd24 75bb
000000a0: fb76 94bb c1fb 303b eaa6 ddbb 25a0 433b
000000b0: 4a3d 073a 92d5 fcbb bef9 7a3b 1295 00bb
000000c0: 9180 3abb 1ef7 053c 89c6 9dbb 1903 8a3b
000000d0: a513 aa3b 5db8 33bc 0099 843b ce37 a8bb
000000e0: 9610 86bb 4869 0a3b 6f67 423b f8b5 cfbb
000000f0: 85a1 2dbc 7824 22bb b44e bc3b 8c32 d839
00000100: d0ef 2cbc 9c59 283b a304 44bb 1cd0 3d3c
00000110: b897 f0bb e4d6 fcbb 8aa2 39bc 4333 d83b
00000120: 3419 00bc 8aae 37ba 9df3 d0ba 863b 1dbc
00000130: 15d5 813a eae2 233c c5a4 61ba ce2a ffb9
00000140: d344 453b 00ec 6fbc c647 003b 86cf c839
00000150: 3b0a 42b9 7e1e 893b 78df 20ba ea3e 093c
00000160: 82c7 173c 691b 523b d48d 66bb 092d 973a
00000170: 2343 03bb 520a a43b 3636 80bb d84d 29bb
00000180: 8bfe f2bb 6a82 143c 7630 d239 eaf1 753b
-0.0016868527 0.0069192895 -0.008649905 -0.0023775143 -0.0007746938 -0.004613732 0.014289164 -0.016632734
0.0029413544 -0.00044860409 0.0036573403 -0.007988759 -0.0019484808 0.004221815 -0.00908326 0.0013888213
0.0014729194 7.596289e-05 -0.003451207 0.0032551507 0.01057695 0.0022723945 0.0023413526 -0.0065380344
-0.007001925 -0.003183399 -0.004625437 -0.0026871592 -0.0029923646 -0.0038142365 -0.007156155 -0.00046396814
-0.0067443503 0.0053232117 0.002184788 -0.00024678474 0.008124446 9.084236e-06 -0.002540448 -0.0037405968
-0.004530785 0.0027005526 -0.0067642825 0.0029850092 0.0005158974 -0.0077158893 0.003829583 -0.0019620103
-0.002845798 0.008176593 -0.004814927 0.004211795 0.00519033 -0.010969249 0.0040465593 -0.0051336056
-0.0040913327 0.0021119881 0.0029663702 -0.006338831 -0.010597591 -0.0024740975 0.005746687 0.0004123639
-0.010555223 0.0025688177 -0.002990999 0.011585262 -0.007342305 -0.0077160466 -0.011330256 0.0065979077
-0.007818509 -0.00070069043 -0.0015941743 -0.009596711 0.0009905422 0.010002831 -0.00086076214 -0.00048669282
0.0030100837 -0.014643669 0.001957403 0.0003830159 -0.00018505093 0.004184543 -0.0006136815 0.008376816
0.009263875 0.0032059795 -0.003517975 0.0011533807 -0.002002903 0.005006113 -0.0039127124 -0.0025833752
-0.007415598 0.009064296 0.00040090428 0.0037528225

conv1.lin_src.weight f4 [100, 200]
00000000: 12e4 143d d737 fcbd a33c 9cbd 64a0 a73d
00000010: 31df 0dbe edc9 f9bd 0d2a 1abd 68c8 78bd
00000020: 91f7 4c3d 7588 2c3d 45d7 abbd e941 f33b
00000030: 38c6 fe3c f6eb 78bd 7e81 02bd c450 1a3e
00000040: 7a1f 2d3c b41b 0abe 5267 f43c ee00 3c3b
00000050: aa31 10be ce2c 09bd a188 d03b 67e5 c03c
00000060: d036 243d 2fba 2e3e 5d5c 44bd 47e8 113d
00000070: 7761 dbbd 338e a1bb bade 1ebd 815d b6bd
00000080: cbaf 14be 86ee bbbd 34e8 aa3d a59f 433d
00000090: 62c1 1c3c 8c4e 8a3b c8b0 9a3d 6fc0 e0bd
000000a0: 6009 b53d 25fd 84bd d11e d43d e420 dc3d
000000b0: 3a83 7b3c 2a56 0c3d 00de 7e3d ef43 3dbd
000000c0: 28b5 a63d 0087 553d 8569 3ebe 5604 f8bd
000000d0: 17a4 41bd a112 f2bc b2a5 803d 81c5 5f3d
000000e0: ff57 c93d db24 2dbe 7c3b 7fbd fa95 08be
000000f0: 6de8 353d 3a13 2d3d a2d9 ff3d c734 083e
00000100: 9d1b a53d 1dbd d53d a684 10be 0c2a 523c
00000110: 4179 84bd a0ef 75bd 935f 863c 3c7f 4cbb
00000120: ed14 19be 5986 4d3d 3eca 533c 3e72 9fbd
00000130: 2739 833d f1f9 c43c 56a6 1d3d d7f0 033e
00000140: d95d 943d 8062 d83d 1fe1 403c 02dc e3b9
00000150: 5db8 82bd a2f2 9b3c da8d 9c3d 100d 99bd
00000160: a786 b03d 40d6 2ebd 9e42 bebd 1c6b 993d
00000170: 6d72 a43d 7c19 663d 8a17 97bc db55 61bd
00000180: ebf5 e43c 00a7 673d 3d85 c43c 9374 443d
00000190: 2826 903d 7e20 5fbd 3d1b 053e def2 c83c
000001a0: 1b26 8f3d aff2 583d ec3b ab3d f900 77bd
000001b0: 4c10 dd3c 8663 42bd cde7 48bd 1881 1ebc
000001c0: 8984 b8bd 7516 c83d 1db7 eebc 7502 d0bd
000001d0: a633 2cbd 009c 083e 8a1f c33d 55b6 673d
000001e0: 0661 febd 483b ccbd eb12 b23d b91e 00be
000001f0: f2e5 15ba 4f8e 1a3e 7c08 a8bd 3498 ffbd
00000200: 8b04 9b3d 4031 273d d8f5 54bd b0a8 c53d
00000210: 7e66 56bd 4ac4 173e 5ed4 733d c38f bfbd
00000220: a847 2cbd b8ea 633d 7a26 d5bd 8a3e 89bb
00000230: 9b5e 1dbe de68 963d 7764 f23d 83df 153d
00000240: ca2a a8bd c02e c1bd 1d43 ecbd a3fe 7cbd
00000250: ecbb 0abe 4ec3 c0bd 5caf 99bd 5f4f 21bc
00000260: dd8c 0d3e e9c3 5dbd a031 ceb9 130d c23d
00000270: e215 b9bd a544 853d b5ef 013d 4985 813b
00000280: e214 d33d 12ba 9e3d 5d98 3ebd 1038 a4bd
00000290: 50b8 76bd 6d65 fb3c 52f8 ec3d e5d9 d0bc
000002a0: 4754 1abe 7c35 c0bb 401d 82bd b1e2 24bd
000002b0: 60f4 ae3d 0f65 123e 18a9 f33d a8c7 803c
000002c0: d53c 1bbd 28c2 e5bc cba2 bebd 28de 013e
000002d0: 4fb7 1cbe c575 eb3d 330a 42bd 6e6e eb3d
000002e0: 6d2f c239 bcc3 a53d fae6 a2bd 0d75 f53c
000002f0: 5a8b de3d 90a4 a23c 468e d0bd 9f50 403d
00000300: 23a0 803d 1329 063d e1e3 54bd 92d1 2fbe
00000310: 5d17 22be 122c fe3c 2623 9f3d 54e7 88bc
00000320: ba27 dcbd 5790 703d c595 a5bd de04 9d3d
00000330: 6f12 3a3d d263 9bbd 8847 10bd 9269 793d
00000340: 811f 273d 7757 59bd f669 813d d99e 9ebd
00000350: 4677 b33c 4653 e83d bd9c 04bd f9e8 ffbd
00000360: b731 07bd e900 483d b185 cf3d 9bbe c33d
00000370: d11e 5539 a397 5ebd f07a b33c 5683 4b3d
00000380: 433b 7d3c 7397 0fbc ce79 d83c d599 303e
00000390: d097 a3bd b89b 0bbe 6565 2c3c ec66 563d
000003a0: 6681 a2bd 20e8 a03d 07e2 f0bd 568e ccbd
000003b0: 016a 16be 4fa9 f7bd c00c 193e c90a c63d
000003c0: bbe8 013d ddcb d2bd 119b e4bd 2410 bfbd
000003d0: 0c43 c73d c3a6 98bd 7e37 013c 5dbd 1f3e
000003e0: 8132 6e3d 2f81 bbbd e206 1e3e 666a 853c
000003f0: 636b ff3b 9429 c7bb 391b ec3d ab6c ebbd
0.036350317 -0.12315338 -0.07628753 0.08184889 -0.13854672 -0.121967174 -0.03763776 -0.060737997
0.050040785 0.042122323 -0.08390669 0.0074236286 0.031100377 -0.060771905 -0.031861775 0.15069872
0.010566587 -0.1348713 0.029834423 0.0028687078 -0.14081445 -0.033489995 0.0063639437 0.023546888
0.040091336 0.17063211 -0.047939647 0.035621908 -0.10711949 -0.0049302815 -0.038786627 -0.08904553
-0.14520185 -0.09176354 0.083450705 0.04775967 0.00956759 0.0042207893 0.075532496 -0.10974204
0.08839679 -0.06493596 0.1035744 0.10748461 0.015351111 0.03426186 0.062223434 -0.046207365
0.081400216 0.0521307 -0.1859494 -0.12110202 -0.04727563 -0.029549899 0.06281604 0.054631714
0.09831237 -0.1690859 -0.062312588 -0.13338462 0.04441111 0.042254664 0.12492682 0.13301383
0.080619074 0.10436461 -0.14113101 0.012827408 -0.0646844 -0.060042977 0.016402995 -0.0031203767
-0.14949389 0.050176952 0.012926636 -0.07785462 0.06407385 0.024044963 0.03848871 0.12884842
0.072444625 0.105656624 0.011772423 -0.00043460733 -0.06382821 0.019036595 0.076442435 -0.074731946
0.08619433 -0.042684793 -0.0929005 0.074911326 0.080296375 0.056176648 -0.018443841 -0.05501352
0.027949294 0.056555748 0.023989314 0.047962736 0.07038528 -0.054474346 0.12998672 0.02452987
0.0698969 0.052965816 0.083610386 -0.060303662 0.02698531 -0.047458194 -0.049049187 -0.009674333
-0.09009654 0.09769908 -0.02914005 -0.10156719 -0.042041443 0.1334076 0.095275 0.05657037
-0.124208495 -0.099722445 0.086950146 -0.1251172 -0.00057181634 0.15093349 -0.08204743 -0.12480202
0.07569226 0.040818453 -0.051992267 0.09651315 -0.052343838 0.14820972 0.0595287 -0.09353592
-0.042060524 0.055643767 -0.104077294 -0.0041883634 -0.1536812 0.073442206 0.118355684 0.03659011
-0.08211286 -0.09432745 -0.11536238 -0.061766278 -0.13548249 -0.094122514 -0.0750415 -0.009845584
0.13823266 -0.054141913 -0.00039328355 0.0947515 -0.09037377 0.065072335 0.031722743 0.0039526564
0.103067175 0.07750334 -0.046532024 -0.080185056 -0.060234368 0.030688012 0.11570801 -0.025494525
-0.15071212 -0.005865751 -0.06353235 -0.040255252 0.085427046 0.14296363 0.118974864 0.015720204
-0.03789981 -0.028046682 -0.09308394 0.12682402 -0.15304302 0.11497072 -0.047373008 0.11495672
0.00037037898 0.08093974 -0.079542115 0.02996304 0.10866423 0.01985386 -0.101833865 0.046951886
0.06280544 0.032754015 -0.051975135 -0.17169788 -0.15829225 0.031026874 0.07770376 -0.016711868
-0.10749765 0.058731403 -0.08085207 0.07666944 0.045427736 -0.075873986 -0.035224468 0.060891695
0.04080153 -0.05306193 0.063190386 -0.077451415 0.02190746 0.11344008 -0.03237604 -0.12495608
-0.033006396 0.048828993 0.101329215 0.095578395 0.00020324743 -0.05434383 0.021909207 0.0496858
0.015456024 -0.008764136 0.026425269 0.17246182 -0.0798794 -0.1363362 0.010522221 0.052344248
-0.07934837 0.07856774 -0.11761861 -0.09988086 -0.14688875 -0.1209284 0.1494627 0.09670026
0.03171609 -0.1029279 -0.11162389 -0.093292505 0.09729585 -0.07453682 0.0078867655 0.1559958
0.058153633 -0.09155499 0.15432313 0.016286086 0.007794784 -0.0060779545 0.1152863 -0.11495336

conv1.lin_dst.weight f4 [100, 200]
00000000: 12e4 143d d737 fcbd a33c 9cbd 64a0 a73d
00000010: 31df 0dbe edc9 f9bd 0d2a 1abd 68c8 78bd
00000020: 91f7 4c3d 7588 2c3d 45d7 abbd e941 f33b
00000030: 38c6 fe3c f6eb 78bd 7e81 02bd c450 1a3e
00000040: 7a1f 2d3c b41b 0abe 5267 f43c ee00 3c3b
00000050: aa31 10be ce2c 09bd a188 d03b 67e5 c03c
00000060: d036 243d 2fba 2e3e 5d5c 44bd 47e8 113d
00000070: 7761 dbbd 338e a1bb bade 1ebd 815d b6bd
00000080: cbaf 14be 86ee bbbd 34e8 aa3d a59f 433d
00000090: 62c1 1c3c 8c4e 8a3b c8b0 9a3d 6fc0 e0bd
000000a0: 6009 b53d 25fd 84bd d11e d43d e420 dc3d
000000b0: 3a83 7b3c 2a56 0c3d 00de 7e3d ef43 3dbd
000000c0: 28b5 a63d 0087 553d 8569 3ebe 5604 f8bd
000000d0: 17a4 41bd a112 f2bc b2a5 803d 81c5 5f3d
000000e0: ff57 c93d db24 2dbe 7c3b 7fbd fa95 08be
000000f0: 6de8 353d 3a13 2d3d a2d9 ff3d c734 083e
00000100: 9d1b a53d 1dbd d53d a684 10be 0c2a 523c
00000110: 4179 84bd a0ef 75bd 935f 863c 3c7f 4cbb
00000120: ed14 19be 5986 4d3d 3eca 533c 3e72 9fbd
00000130: 2739 833d f1f9 c43c 56a6 1d3d d7f0 033e
00000140: d95d 943d 8062 d83d 1fe1 403c 02dc e3b9
00000150: 5db8 82bd a2f2 9b3c da8d 9c3d 100d 99bd
00000160: a786 b03d 40d6 2ebd 9e42 bebd 1c6b 993d
00000170: 6d72 a43d 7c19 663d 8a17 97bc db55 61bd
00000180: ebf5 e43c 00a7 673d 3d85 c43c 9374 443d
00000190: 2826 903d 7e20 5fbd 3d1b 053e def2 c83c
000001a0: 1b26 8f3d aff2 583d ec3b ab3d f900 77bd
000001b0: 4c10 dd3c 8663 42bd cde7 48bd 1881 1ebc
000001c0: 8984 b8bd 7516 c83d 1db7 eebc 7502 d0bd
000001d0: a633 2cbd 009c 083e 8a1f c33d 55b6 673d
000001e0: 0661 febd 483b ccbd eb12 b23d b91e 00be
000001f0: f2e5 15ba 4f8e 1a3e 7c08 a8bd 3498 ffbd
00000200: 8b04 9b3d 4031 273d d8f5 54bd b0a8 c53d
00000210: 7e66 56bd 4ac4 173e 5ed4 733d c38f bfbd
00000220: a847 2cbd b8ea 633d 7a26 d5bd 8a3e 89bb
00000230: 9b5e 1dbe de68 963d 7764 f23d 83df 153d
00000240: ca2a a8bd c02e c1bd 1d43 ecbd a3fe 7cbd
00000250: ecbb 0abe 4ec3 c0bd 5caf 99bd 5f4f 21bc
00000260: dd8c 0d3e e9c3 5dbd a031 ceb9 130d c23d
00000270: e215 b9bd a544 853d b5ef 013d 4985 813b
00000280: e214 d33d 12ba 9e3d 5d98 3ebd 1038 a4bd
00000290: 50b8 76bd 6d65 fb3c 52f8 ec3d e5d9 d0bc
000002a0: 4754 1abe 7c35 c0bb 401d 82bd b1e2 24bd
000002b0: 60f4 ae3d 0f65 123e 18a9 f33d a8c7 803c
000002c0: d53c 1bbd 28c2 e5bc cba2 bebd 28de 013e
000002d0: 4fb7 1cbe c575 eb3d 330a 42bd 6e6e eb3d
000002e0: 6d2f c239 bcc3 a53d fae6 a2bd 0d75 f53c
000002f0: 5a8b de3d 90a4 a23c 468e d0bd 9f50 403d
00000300: 23a0 803d 1329 063d e1e3 54bd 92d1 2fbe
00000310: 5d17 22be 122c fe3c 2623 9f3d 54e7 88bc
00000320: ba27 dcbd 5790 703d c595 a5bd de04 9d3d
00000330: 6f12 3a3d d263 9bbd 8847 10bd 9269 793d
00000340: 811f 273d 7757 59bd f669 813d d99e 9ebd
00000350: 4677 b33c 4653 e83d bd9c 04bd f9e8 ffbd
00000360: b731 07bd e900 483d b185 cf3d 9bbe c33d
00000370: d11e 5539 a397 5ebd f07a b33c 5683 4b3d
00000380: 433b 7d3c 7397 0fbc ce79 d83c d599 303e
00000390: d097 a3bd b89b 0bbe 6565 2c3c ec66 563d
000003a0: 6681 a2bd 20e8 a03d 07e2 f0bd 568e ccbd
000003b0: 016a 16be 4fa9 f7bd c00c 193e c90a c63d
000003c0: bbe8 013d ddcb d2bd 119b e4bd 2410 bfbd
000003d0: 0c43 c73d c3a6 98bd 7e37 013c 5dbd 1f3e
000003e0: 8132 6e3d 2f81 bbbd e206 1e3e 666a 853c
000003f0: 636b ff3b 9429 c7bb 391b ec3d ab6c ebbd
0.036350317 -0.12315338 -0.07628753 0.08184889 -0.13854672 -0.121967174 -0.03763776 -0.060737997
0.050040785 0.042122323 -0.08390669 0.0074236286 0.031100377 -0.060771905 -0.031861775 0.15069872
0.010566587 -0.1348713 0.029834423 0.0028687078 -0.14081445 -0.033489995 0.0063639437 0.023546888
0.040091336 0.17063211 -0.047939647 0.035621908 -0.10711949 -0.0049302815 -0.038786627 -0.08904553
-0.14520185 -0.09176354 0.083450705 0.04775967 0.00956759 0.0042207893 0.075532496 -0.10974204
0.08839679 -0.06493596 0.1035744 0.10748461 0.015351111 0.03426186 0.062223434 -0.046207365
0.081400216 0.0521307 -0.1859494 -0.12110202 -0.04727563 -0.029549899 0.06281604 0.054631714
0.09831237 -0.1690859 -0.062312588 -0.13338462 0.04441111 0.042254664 0.12492682 0.13301383
0.080619074 0.10436461 -0.14113101 0.012827408 -0.0646844 -0.060042977 0.016402995 -0.0031203767
-0.14949389 0.050176952 0.012926636 -0.07785462 0.06407385 0.024044963 0.03848871 0.12884842
0.072444625 0.105656624 0.011772423 -0.00043460733 -0.06382821 0.019036595 0.076442435 -0.074731946
0.08619433 -0.042684793 -0.0929005 0.074911326 0.080296375 0.056176648 -0.018443841 -0.05501352
0.027949294 0.056555748 0.023989314 0.047962736 0.07038528 -0.054474346 0.12998672 0.02452987
0.0698969 0.052965816 0.083610386 -0.060303662 0.02698531 -0.047458194 -0.049049187 -0.009674333
-0.09009654 0.09769908 -0.02914005 -0.10156719 -0.042041443 0.1334076 0.095275 0.05657037
-0.124208495 -0.099722445 0.086950146 -0.1251172 -0.00057181634 0.15093349 -0.08204743 -0.12480202
0.07569226 0.040818453 -0.051992267 0.09651315 -0.052343838 0.14820972 0.0595287 -0.09353592
-0.042060524 0.055643767 -0.104077294 -0.0041883634 -0.1536812 0.073442206 0.118355684 0.03659011
-0.08211286 -0.09432745 -0.11536238 -0.061766278 -0.13548249 -0.094122514 -0.0750415 -0.009845584
0.13823266 -0.054141913 -0.00039328355 0.0947515 -0.09037377 0.065072335 0.031722743 0.0039526564
0.103067175 0.07750334 -0.046532024 -0.080185056 -0.060234368 0.030688012 0.11570801 -0.025494525
-0.15071212 -0.005865751 -0.06353235 -0.040255252 0.085427046 0.14296363 0.118974864 0.015720204
-0.03789981 -0.028046682 -0.09308394 0.12682402 -0.15304302 0.11497072 -0.047373008 0.11495672
0.00037037898 0.08093974 -0.079542115 0.02996304 0.10866423 0.01985386 -0.101833865 0.046951886
0.06280544 0.032754015 -0.051975135 -0.17169788 -0.15829225 0.031026874 0.07770376 -0.016711868
-0.10749765 0.058731403 -0.08085207 0.07666944 0.045427736 -0.075873986 -0.035224468 0.060891695
0.04080153 -0.05306193 0.063190386 -0.077451415 0.02190746 0.11344008 -0.03237604 -0.12495608
-0.033006396 0.048828993 0.101329215 0.095578395 0.00020324743 -0.05434383 0.021909207 0.0496858
0.015456024 -0.008764136 0.026425269 0.17246182 -0.0798794 -0.1363362 0.010522221 0.052344248
-0.07934837 0.07856774 -0.11761861 -0.09988086 -0.14688875 -0.1209284 0.1494627 0.09670026
0.03171609 -0.1029279 -0.11162389 -0.093292505 0.09729585 -0.07453682 0.0078867655 0.1559958
0.058153633 -0.09155499 0.15432313 0.016286086 0.007794784 -0.0060779545 0.1152863 -0.11495336

conv2.att_src f4 [1, 1, 64]
00000000: f1f5 603e eb38 9abe 4556 853c 5ace a03e
00000010: 5afc 72bd 9037 933e 7250 e2bd 01e0 893e
00000020: adf3 a1be df95 7b3e 16ad 03be c3f9 a2be
00000030: 8461 243d a963 2b3e f959 68bc 99b6 96be
00000040: 7e7d 0c3e 26b9 8ebe f10b 7bbd 0506 d63d
00000050: cbc8 02be 8df4 85be f26a 00be cd6b 193e
00000060: 4d22 1cbe c25f 09be e22d 993e ee57 6dbe
00000070: ad0a 28be 0d7b 993e 3756 94bd 1ed7 813e
00000080: 10af d1bb 8aa2 0bbe bc9a 34bd bd4b 633e
00000090: 860a 41be cf3a 70be bc55 bfbd 3cf6 0ebe
000000a0: bf5a d3bd 2f02 62be dd16 51be 650a 4a3e
000000b0: f96c ad3d f8e7 a6be d464 553d 5b1e 1c3e
000000c0: 9a03 f3bd ad69 fd3d 8c6d 583e 9952 82be
000000d0: fdc9 1c3e e7c5 f33d bf98 5cbe ad1b 833e
000000e0: 4793 e7bd 8240 abbe 8997 60bd 8076 30be
000000f0: 00e5 203e f1bd 92be bf4d 743e d972 653d
0.21968819 -0.3012155 0.016276488 0.31407434 -0.059322692 0.28753328 -0.110505 0.26928714
-0.31631222 0.2456889 -0.12858996 -0.31831178 0.04013206 0.16737236 -0.014181607 -0.29436186
0.13719746 -0.27875632 -0.061290685 0.10450367 -0.12771909 -0.2616314 -0.12540796 0.14982529
-0.1524746 -0.13415435 0.29917818 -0.23178074 -0.16410322 0.29976693 -0.07243007 0.25359434
-0.006399043 -0.13636222 -0.04409288 0.2219686 -0.1885167 -0.23459934 -0.093425244 -0.13961118
-0.10320043 -0.22071145 -0.20418878 0.19730528 0.084680505 -0.32598853 0.05209811 0.15245955
-0.11865921 0.12373672 0.21135539 -0.25453642 0.15311427 0.11902981 -0.21542643 0.25607052
-0.11307388 -0.33447653 -0.054832015 -0.17232704 0.15712357 -0.2866054 0.23857783 0.05601773

conv2.att_dst f4 [1, 1, 64]
00000000: a00f 2abe 785e 623e 0777 4abe df30 643e
00000010: 6d99 16be cfdb 463c 44ea 56be 7d08 923e
00000020: a156 afbe 42d0 963e 2df8 153e be9c 43be
00000030: 7307 52be 7e8a 10be cbf1 0d3d 7844 95be
00000040: 3ffa b4be 5c3e ff3d 1da5 80be 28a7 813e
00000050: 818d aa3e 6e76 3bbe 831f 343d 0819 b3bd
00000060: bc27 b8bd 4b7b da3d 4991 51be 38a8 dd3d
00000070: 01b1 983e ff96 f8bd aac8 e3bd d949 7a3e
00000080: a193 923d e387 9b3e 6acd b0bd b757 75be
00000090: 71dd 69be aaf1 eb3d d3d6 b73d 11dc 4a3e
000000a0: aeb8 7dbd 983e 7e3e 6699 c53d 7fb2 93be
000000b0: f3c1 b33d 3dac 2e3e 9719 3fbd fbf9 303d
000000c0: b76c 76be 1398 4ebe 7df0 55be 3ddb 0a3d
000000d0: 8f9f 88be 2bc2 263e 4f62 043e 4efe 0cbe
000000e0: 0d4f d53d a88f f53c f384 0a3e 599e 0c3c
000000f0: d0f0 3cbe 9045 393e b577 4e3e c2d0 20be
-0.16607523 0.2210635 -0.19771968 0.22284268 -0.14706965 0.012137367 -0.20987803 0.285221
-0.3424578 0.29455763 0.14645453 -0.19102761 -0.20510654 -0.1411533 0.03465442 -0.291538
-0.35347173 0.12463066 -0.2512597 0.25322843 0.33311084 -0.18306896 0.043975364 -0.08745009
-0.08991954 0.106680475 -0.20465578 0.10823101 0.29822543 -0.12138175 -0.11122258 0.24442233
0.07157064 0.3037711 -0.086329296 -0.23959242 -0.2283838 0.11520703 0.08976521 0.19810511
-0.061943702 0.24828565 0.09648399 -0.2884712 0.08777227 0.17057891 -0.046655264 0.04320715
-0.24064909 -0.20175199 -0.2089252 0.03390049 -0.26684234 0.16285007 0.12928127 -0.13768885
0.10415468 0.029975727 0.13527279 0.008582675 -0.18451238 0.18092942 0.20162852 -0.15704635

conv2.bias f4 [64]
00000000: 73f0 f93b 0088 17bc 7543 66bc 43f8 153c
00000010: 425f 1bbc 6587 1e3b f077 48bc afb0 8dbc
00000020: 6bc8 8e3b aec2 ad3c 7099 a1bc 3a1f 62bc
00000030: 7e29 fcba d1e7 573b 22b2 f0bb b82d 0abb
00000040: 0aca 4f3c 9053 0cbc aac9 2839 c513 0bbd
00000050: 708e 12bc 5533 16bd c967 1fbc 9e27 793b
00000060: 0751 3bbc c3ed 9b3c 3a7b 0fbd f182 22bd
00000070: f3bc 4fbc aeac d8bc fa73 b2bb 6a4a cb3c
00000080: 204d 89bc 21fb 893b f86e 113c 2b28 03bc
00000090: d5f2 033c 098e 85bc 26c0 6fbc 01c4 a7bc
000000a0: 85b6 08bc a57a 583c 7eae cfbc 3895 95bb
000000b0: 8009 80bd 28e0 873a ffab a6bc a9b3 48ba
000000c0: 8c93 143c a394 9e3c 11e2 803c a65e ecbb
000000d0: df9a 47bb 92f5 68bb 74eb 643c 7ff0 bbbb
000000e0: 9de2 41bd e101 c8ba 59cc a8bc 0caa 2dbc
000000f0: 9c6c 03bc 2744 983b fcac 783b d82f 54bc
0.0076275407 -0.0092487335 -0.014054169 0.0091534285 -0.00948316 0.0024189588 -0.012235627 -0.017296163
0.004357388 0.021210995 -0.019726485 -0.01380139 -0.001923844 0.003294457 -0.007345454 -0.002108438
0.012682447 -0.008564845 0.00016096854 -0.0339544 -0.008945093 -0.036670048 -0.009729334 0.0038017998
-0.011432893 0.019034272 -0.035029627 -0.039675657 -0.012679326 -0.026449528 -0.0054459544 0.024815757
-0.016760409 0.004210845 0.008876555 -0.008005182 0.008053501 -0.01630308 -0.014633214 -0.020479204
-0.008344297 0.0132128345 -0.025351759 -0.0045649074 -0.06251812 0.0010366486 -0.020345686 -0.0007656166
0.009068381 0.019357985 0.015732797 -0.0072134314 -0.00304573 -0.0035546762 0.013972152 -0.0057354565
-0.047335256 -0.0015259349 -0.020605253 -0.010599624 -0.0080215 0.0046467963 0.0037944904 -0.01295086

conv2.lin_src.weight f4 [64, 100]
00000000: 0330 23bd a012 a43d 4f96 ebbd 0352 53be
00000010: a0fc d6bd 6a91 9cbd 438f ecbd 6580 5fbe
00000020: c1d2 92bd 08c5 4cbd 37cf 083e f0c6 4c3d
00000030: 8c18 543e 8728 d13d e6ca a4bd bb0e a1bd
00000040: 69a9 463e af01 c5bd 8a57 293b 3835 4dbe
00000050: 5a01 b23d 330f 4a3d 9fc6 f5bd 1f61 1d3d
00000060: af55 5abe 89ca 8bbe 7148 e0bd f899 f63d
00000070: 9d1b 023e dad0 663b 508c c9be dbcb 3f3e
00000080: 598a 05be 6aba f33d 45ca 713e f4aa 173e
00000090: 9706 9abd 8022 05be 9f0e e6bd 46b4 a93d
000000a0: f5e8 03be 4b71 e73d bccf d8bd ba9f 443e
000000b0: b402 243e 5512 ddbd c0fe 273e 8faa 73be
000000c0: bed8 5fbe 1675 193e 335e 43bd ab1a 333e
000000d0: 037b b73d d441 0fbe 7f57 8c3d 644e 58bd
000000e0: 80a2 46be 18c3 c4bd 06d9 0dbe 620a 10be
000000f0: 6580 7c3d 45db b03c 31db 503d 3aa5 8bbe
00000100: dba8 d7bd df61 26be 0d4e 74be 6dd3 24be
00000110: ba9e db3d b288 bebd c432 e23c e958 70bd
00000120: ab13 a73d 921a 213e d222 c4bd 75e4 47be
00000130: 8a8d 173e 4b72 83bc 6c59 b53d 260a 963d
00000140: 344c a1bd 0311 e03d 689c 173e c27c 89bc
00000150: c7d7 0ebe 2fb9 ed3d 4232 0c3d 342f a4bd
00000160: f60a 75bd 96d5 f5bd bdd9 97be 4b01 27be
00000170: a61d 8d3d 532a efbd 8682 593e 5716 5cbe
00000180: 3d6e d6bd 4a39 823e 3e7e c63d b565 c73c
00000190: a342 f0bd 9b70 913a 155e 3bbe c750 1a3e
000001a0: 05ec 28bd 4b57 b7ba 7757 b63d 2ac5 ef3d
000001b0: 0e3c b2bd ca15 bcbd ab97 013e 3a98 93bc
000001c0: ac66 16be 4281 233e 15e0 c3bc 0bcb 74bd
000001d0: 653d 3f3d 41c5 273e 531f 1abd e7d6 0d3e
000001e0: 222b 00be 5002 133e 2a5e ca3d 111d 363c
000001f0: 0367 e33d 2b5c e63d c1dc 233e d2f9 f93d
00000200: 7163 9cbc 5230 c63b f518 bb3e 42ac 273c
00000210: 6974 26bd b5e7 ea3a e9e6 023c ed28 923d
00000220: 5fa5 9ebd a242 a9bd 9abd 55bc 23c7 1cbe
00000230: f31d 6e3d 89cf 893d 4088 b1bd 9765 0e3e
00000240: 7de3 af3c a5a0 d1bd 95ab 41be 3a6a bdbd
00000250: cc92 273e 2c25 05be f520 19bd a694 683d
00000260: 9bbd a4bc ef44 02bd 46bf 953d ec79 973c
00000270: 1bb5 563e 665b 443e 5d86 e43d 633e 2b3e
00000280: 6b24 723c e7b8 03be 5670 0ebc f17a ccbd
00000290: 8855 81bc da2c 853e 90cf 463e 80b7 ca3d
000002a0: 18c0 5dbe 93c2 e6bd 0358 673d c3d9 0c3e
000002b0: e472 46be 5f2f 1ebe 1961 41bc 1027 2e3e
000002c0: cc21 0fbe f2d1 ad3c a300 32be a8fe 1fbd
000002d0: 3772 303e 67e9 273e d14a 753c 02da 9b3e
000002e0: df8c 15be df32 193e f082 e33d 390b c9bc
000002f0: 47ed 5dbd 7b8e 7dbd 35d2 5f3e a934 303e
00000300: df12 88bd 8242 26be e215 1abe 6a7e ff3d
00000310: dcfd 7a3c 5ee6 7b3d 8ff4 18be d91a 02be
00000320: 69f4 e83d 5285 89bc 9834 8dbc 0cc4 87be
00000330: a44a 443e 1e4a d6bd 2aee 0dbd 4912 31be
00000340: a7c5 d93d c9e3 623d ed02 26bc 9788 9fbd
00000350: 389b 0f3c d4db 0d3e bef8 24be 28cc a0bd
00000360: c9ed 2d3d 5beb 1d3d 2a78 a0bd 47a6 32be
00000370: 9e33 043e 1dee 763d 0e9a 02be b06c 54be
00000380: c6ea 68be 3f2a 3abe c72e 8c3d 3ef3 d53d
00000390: 056c a5bc 3a84 2ebe 382c 8bbe e7fc ba3d
000003a0: afbe 173d 30ec 56bd ae0f 773e 3f4c 88bd
000003b0: e0b3 6f3d db35 223d ae4b 1e3e cfed f43d
000003c0: 942b 423d 466b 423e da11 c6bd c324 063e
000003d0: 3122 ed3d 05ab 2dbe 7a67 9abd c0ba 9f3d
000003e0: 5be9 e8bc 4436 d53d 6bed df3d 0048 ea3c
000003f0: 5150 8abd 8a0e 863d 99ea 4a3e 3dad 1fbc
-0.03984071 0.08011365 -0.115032785 -0.20636754 -0.10497403 -0.07644923 -0.115507625 -0.21826322
-0.07169104 -0.04999259 0.13360296 0.04999441 0.20712489 0.10212808 -0.08046512 -0.07864138
0.19400562 -0.09619462 0.002583953 -0.20039833 0.08691664 0.0493309 -0.120007746 0.0384227
-0.21321748 -0.2730296 -0.10951317 0.12041086 0.12705846 0.00352197 -0.39364862 0.18730108
-0.13041057 0.1190079 0.23612316 0.14811307 -0.07520788 -0.13001442 -0.112332575 0.082863376
-0.12881835 0.11300906 -0.10586497 0.19201556 0.16016656 -0.10794512 0.16405773 -0.23795532
-0.21860024 0.14986071 -0.047697257 0.17490642 0.089590095 -0.13989955 0.06852626 -0.052809134
-0.19397926 -0.09607524 -0.13852319 -0.1406646 0.061645884 0.02158893 0.050990287 -0.27274495
-0.105302535 -0.16248272 -0.23857899 -0.16096278 0.10723634 -0.09303416 0.027612098 -0.05867854
0.08158048 0.15732792 -0.09576954 -0.19520743 0.14800087 -0.01604571 0.088549465 0.073261544
-0.07875863 0.10940745 0.14805758 -0.016783122 -0.139495 0.116075866 0.034227617 -0.08016816
-0.059824906 -0.12003629 -0.2965831 -0.16309087 0.068904206 -0.116779946 0.21241197 -0.21492897
-0.10470245 0.25434333 0.096920475 0.02434049 -0.1173146 0.0011096181 -0.18297608 0.15069877
-0.04124071 -0.0013987807 0.08903401 0.11707528 -0.08702861 -0.091838434 0.12655513 -0.018016923
-0.14687604 0.15967277 -0.023910562 -0.05976395 0.04668941 0.1638384 -0.03762753 0.1385151
-0.12516454 0.14356351 0.098812416 0.011115328 0.11103632 0.112480484 0.1600218 0.122058526
-0.019090386 0.0060482407 0.36542478 0.010233941 -0.04063836 0.0017921837 0.007989624 0.07136712
-0.07746386 -0.08264662 -0.013045693 -0.1531034 0.05813403 0.06729037 -0.08668566 0.13905941
0.02147078 -0.10235719 -0.1891311 -0.09248777 0.16364592 -0.13002461 -0.037384946 0.056782387
-0.020109942 -0.03180402 0.07311873 0.018490754 0.20967524 0.1917549 0.1115844 0.16723017
0.0147791905 -0.12863503 -0.008693775 -0.09984387 -0.015787855 0.26010782 0.19415116 0.09898281
-0.21655309 -0.11267581 0.05648042 0.13754945 -0.19379765 -0.15447758 -0.011802935 0.17007089
-0.13977736 0.021218274 -0.17383055 -0.03906122 0.1723107 0.1639763 0.014971451 0.30439764
-0.1460452 0.14960812 0.11108959 -0.024541484 -0.054181363 -0.061903458 0.21857531 0.17207588
-0.066442244 -0.16236308 -0.1504741 0.124752834 0.015319314 0.061498992 -0.14937042 -0.12705554
0.113747425 -0.016787205 -0.017236993 -0.2651676 0.19169098 -0.104633555 -0.03465096 -0.17292131
0.10633402 0.055393014 -0.0101325335 -0.07789724 0.008765034 0.13853389 -0.16110513 -0.0785144
0.042463098 0.03855453 -0.078354195 -0.17446242 0.12910315 0.060285676 -0.1275408 -0.20744586
-0.22745809 -0.18180178 0.068448596 0.104467854 -0.02019311 -0.17042628 -0.27182174 0.091302685
0.037047084 -0.05247134 0.24127075 -0.06655168 0.05852115 0.03960214 0.15458557 0.11959421
0.04740484 0.18986234 -0.09671374 0.13099961 0.11578787 -0.1695977 -0.07539268 0.077992916
-0.028431585 0.10410741 0.10933956 0.028598785 -0.067536004 0.06545742 0.19816054 -0.009745893

conv2.lin_dst.weight f4 [64, 100]
00000000: 0330 23bd a012 a43d 4f96 ebbd 0352 53be
00000010: a0fc d6bd 6a91 9cbd 438f ecbd 6580 5fbe
00000020: c1d2 92bd 08c5 4cbd 37cf 083e f0c6 4c3d
00000030: 8c18 543e 8728 d13d e6ca a4bd bb0e a1bd
00000040: 69a9 463e af01 c5bd 8a57 293b 3835 4dbe
00000050: 5a01 b23d 330f 4a3d 9fc6 f5bd 1f61 1d3d
00000060: af55 5abe 89ca 8bbe 7148 e0bd f899 f63d
00000070: 9d1b 023e dad0 663b 508c c9be dbcb 3f3e
00000080: 598a 05be 6aba f33d 45ca 713e f4aa 173e
00000090: 9706 9abd 8022 05be 9f0e e6bd 46b4 a93d
000000a0: f5e8 03be 4b71 e73d bccf d8bd ba9f 443e
000000b0: b402 243e 5512 ddbd c0fe 273e 8faa 73be
000000c0: bed8 5fbe 1675 193e 335e 43bd ab1a 333e
000000d0: 037b b73d d441 0fbe 7f57 8c3d 644e 58bd
000000e0: 80a2 46be 18c3 c4bd 06d9 0dbe 620a 10be
000000f0: 6580 7c3d 45db b03c 31db 503d 3aa5 8bbe
00000100: dba8 d7bd df61 26be 0d4e 74be 6dd3 24be
00000110: ba9e db3d b288 bebd c432 e23c e958 70bd
00000120: ab13 a73d 921a 213e d222 c4bd 75e4 47be
00000130: 8a8d 173e 4b72 83bc 6c59 b53d 260a 963d
00000140: 344c a1bd 0311 e03d 689c 173e c27c 89bc
00000150: c7d7 0ebe 2fb9 ed3d 4232 0c3d 342f a4bd
00000160: f60a 75bd 96d5 f5bd bdd9 97be 4b01 27be
00000170: a61d 8d3d 532a efbd 8682 593e 5716 5cbe
00000180: 3d6e d6bd 4a39 823e 3e7e c63d b565 c73c
00000190: a342 f0bd 9b70 913a 155e 3bbe c750 1a3e
000001a0: 05ec 28bd 4b57 b7ba 7757 b63d 2ac5 ef3d
000001b0: 0e3c b2bd ca15 bcbd ab97 013e 3a98 93bc
000001c0: ac66 16be 4281 233e 15e0 c3bc 0bcb 74bd
000001d0: 653d 3f3d 41c5 273e 531f 1abd e7d6 0d3e
000001e0: 222b 00be 5002 133e 2a5e ca3d 111d 363c
000001f0: 0367 e33d 2b5c e63d c1dc 233e d2f9 f93d
00000200: 7163 9cbc 5230 c63b f518 bb3e 42ac 273c
00000210: 6974 26bd b5e7 ea3a e9e6 023c ed28 923d
00000220: 5fa5 9ebd a242 a9bd 9abd 55bc 23c7 1cbe
00000230: f31d 6e3d 89cf 893d 4088 b1bd 9765 0e3e
00000240: 7de3 af3c a5a0 d1bd 95ab 41be 3a6a bdbd
00000250: cc92 273e 2c25 05be f520 19bd a694 683d
00000260: 9bbd a4bc ef44 02bd 46bf 953d ec79 973c
00000270: 1bb5 563e 665b 443e 5d86 e43d 633e 2b3e
00000280: 6b24 723c e7b8 03be 5670 0ebc f17a ccbd
00000290: 8855 81bc da2c 853e 90cf 463e 80b7 ca3d
000002a0: 18c0 5dbe 93c2 e6bd 0358 673d c3d9 0c3e
000002b0: e472 46be 5f2f 1ebe 1961 41bc 1027 2e3e
000002c0: cc21 0fbe f2d1 ad3c a300 32be a8fe 1fbd
000002d0: 3772 303e 67e9 273e d14a 753c 02da 9b3e
000002e0: df8c 15be df32 193e f082 e33d 390b c9bc
000002f0: 47ed 5dbd 7b8e 7dbd 35d2 5f3e a934 303e
00000300: df12 88bd 8242 26be e215 1abe 6a7e ff3d
00000310: dcfd 7a3c 5ee6 7b3d 8ff4 18be d91a 02be
00000320: 69f4 e83d 5285 89bc 9834 8dbc 0cc4 87be
00000330: a44a 443e 1e4a d6bd 2aee 0dbd 4912 31be
00000340: a7c5 d93d c9e3 623d ed02 26bc 9788 9fbd
00000350: 389b 0f3c d4db 0d3e bef8 24be 28cc a0bd
00000360: c9ed 2d3d 5beb 1d3d 2a78 a0bd 47a6 32be
00000370: 9e33 043e 1dee 763d 0e9a 02be b06c 54be
00000380: c6ea 68be 3f2a 3abe c72e 8c3d 3ef3 d53d
00000390: 056c a5bc 3a84 2ebe 382c 8bbe e7fc ba3d
000003a0: afbe 173d 30ec 56bd ae0f 773e 3f4c 88bd
000003b0: e0b3 6f3d db35 223d ae4b 1e3e cfed f43d
000003c0: 942b 423d 466b 423e da11 c6bd c324 063e
000003d0: 3122 ed3d 05ab 2dbe 7a67 9abd c0ba 9f3d
000003e0: 5be9 e8bc 4436 d53d 6bed df3d 0048 ea3c
000003f0: 5150 8abd 8a0e 863d 99ea 4a3e 3dad 1fbc
-0.03984071 0.08011365 -0.115032785 -0.20636754 -0.10497403 -0.07644923 -0.115507625 -0.21826322
-0.07169104 -0.04999259 0.13360296 0.04999441 0.20712489 0.10212808 -0.08046512 -0.07864138
0.19400562 -0.09619462 0.002583953 -0.20039833 0.08691664 0.0493309 -0.120007746 0.0384227
-0.21321748 -0.2730296 -0.10951317 0.12041086 0.12705846 0.00352197 -0.39364862 0.18730108
-0.13041057 0.1190079 0.23612316 0.14811307 -0.07520788 -0.13001442 -0.112332575 0.082863376
-0.12881835 0.11300906 -0.10586497 0.19201556 0.16016656 -0.10794512 0.16405773 -0.23795532
-0.21860024 0.14986071 -0.047697257 0.17490642 0.089590095 -0.13989955 0.06852626 -0.052809134
-0.19397926 -0.09607524 -0.13852319 -0.1406646 0.061645884 0.02158893 0.050990287 -0.27274495
-0.105302535 -0.16248272 -0.23857899 -0.16096278 0.10723634 -0.09303416 0.027612098 -0.05867854
0.08158048 0.15732792 -0.09576954 -0.19520743 0.14800087 -0.01604571 0.088549465 0.073261544
-0.07875863 0.10940745 0.14805758 -0.016783122 -0.139495 0.116075866 0.034227617 -0.08016816
-0.059824906 -0.12003629 -0.2965831 -0.16309087 0.068904206 -0.116779946 0.21241197 -0.21492897
-0.10470245 0.25434333 0.096920475 0.02434049 -0.1173146 0.0011096181 -0.18297608 0.15069877
-0.04124071 -0.0013987807 0.08903401 0.11707528 -0.08702861 -0.091838434 0.12655513 -0.018016923
-0.14687604 0.15967277 -0.023910562 -0.05976395 0.04668941 0.1638384 -0.03762753 0.1385151
-0.12516454 0.14356351 0.098812416 0.011115328 0.11103632 0.112480484 0.1600218 0.122058526
-0.019090386 0.0060482407 0.36542478 0.010233941 -0.04063836 0.0017921837 0.007989624 0.07136712
-0.07746386 -0.08264662 -0.013045693 -0.1531034 0.05813403 0.06729037 -0.08668566 0.13905941
0.02147078 -0.10235719 -0.1891311 -0.09248777 0.16364592 -0.13002461 -0.037384946 0.056782387
-0.020109942 -0.03180402 0.07311873 0.018490754 0.20967524 0.1917549 0.1115844 0.16723017
0.0147791905 -0.12863503 -0.008693775 -0.09984387 -0.015787855 0.26010782 0.19415116 0.09898281
-0.21655309 -0.11267581 0.05648042 0.13754945 -0.19379765 -0.15447758 -0.011802935 0.17007089
-0.13977736 0.021218274 -0.17383055 -0.03906122 0.1723107 0.1639763 0.014971451 0.30439764
-0.1460452 0.14960812 0.11108959 -0.024541484 -0.054181363 -0.061903458 0.21857531 0.17207588
-0.066442244 -0.16236308 -0.1504741 0.124752834 0.015319314 0.061498992 -0.14937042 -0.12705554
0.113747425 -0.016787205 -0.017236993 -0.2651676 0.19169098 -0.104633555 -0.03465096 -0.17292131
0.10633402 0.055393014 -0.0101325335 -0.07789724 0.008765034 0.13853389 -0.16110513 -0.0785144
0.042463098 0.03855453 -0.078354195 -0.17446242 0.12910315 0.060285676 -0.1275408 -0.20744586
-0.22745809 -0.18180178 0.068448596 0.104467854 -0.02019311 -0.17042628 -0.27182174 0.091302685
0.037047084 -0.05247134 0.24127075 -0.06655168 0.05852115 0.03960214 0.15458557 0.11959421
0.04740484 0.18986234 -0.09671374 0.13099961 0.11578787 -0.1695977 -0.07539268 0.077992916
-0.028431585 0.10410741 0.10933956 0.028598785 -0.067536004 0.06545742 0.19816054 -0.009745893

conv3.att_src f4 [1, 1, 64]
00000000: 360e c33d 138a 71be b47f c0be 8dc6 11be
00000010: 7a39 8ebe 2ad2 b1be 09fa 3cbe 47ed d7be
00000020: a95f edbb 2846 4d3d bac7 80be 8fc8 9e3e
00000030: 9b7b d93e dd89 cd3e 1f08 7d3e 00e7 b63e
00000040: 7a60 d2be 3f32 ca3c 5428 99bd 452e ddbe
00000050: 48c9 033e 8755 41bd 9a99 e3bd b899 5dbe
00000060: f8e1 9d3e 7815 d03e 2850 88be f4bb 46be
00000070: 21fe dbbc 1714 96be a314 c6be 580b 0f3d
00000080: 179d b0bd c3a2 ef3e 8c67 d73e 4617 83be
00000090: f25f f9bb a668 313c 254d 1bbe d4dd e0be
000000a0: b62c c6be 5245 87bd 8aae 413e 55ea bf3d
000000b0: da57 babd e0a5 25be 4c16 82bd 0caa 96bd
000000c0: 969e c73e 12fe e7bd bb30 803d 8086 af3e
000000d0: 8255 253e fbfb 043d 0a41 153e e2d5 a8be
000000e0: 9761 dbbe 5cf6 4e3e a204 bdbe 33c4 593d
000000f0: aec5 09bd 601d d03e 932a ffbc 6923 c5be
0.09524195 -0.23587827 -0.3759743 -0.14235897 -0.27778226 -0.34730655 -0.18454756 -0.42173216
-0.0072440696 0.050115734 -0.2515238 0.3101239 0.42477116 0.40144244 0.24710129 0.35723114
-0.4108923 0.024682162 -0.07478395 -0.43199363 0.12869751 -0.047200706 -0.111132815 -0.2164067
0.30836463 0.4064138 -0.26623654 -0.19407636 -0.026854577 -0.29312202 -0.3868762 0.034922928
-0.086237125 0.46803865 0.42071187 -0.25603694 -0.0076103145 0.010828173 -0.15166147 -0.4391924
-0.38705987 -0.06605019 0.18914238 0.09370867 -0.090987876 -0.16176558 -0.06351909 -0.073566526
0.3898818 -0.11327757 0.062592946 0.34282303 0.161459 0.03246687 0.14575592 -0.3297568
-0.42847893 0.20211166 -0.36917597 0.053165626 -0.033635788 0.4064741 -0.03114823 -0.38503578

conv3.att_dst f4 [1, 1, 64]
00000000: 5eb4 5cbd 2c3f 8bbe dba8 943d 6f3e 2d3d
00000010: 306e 983d 6c85 99be c05a c3bc 52bb 173e
00000020: 9ede b0bd 6c96 283e 8d57 0c3e f8ed f83d
00000030: 1e36 1cbe 7977 843e aba3 863d fbc4 83be
00000040: 69f4 b1be 69cb 8abc 18d9 0abe d459 293d
00000050: 6438 81be 7d1b 75be a145 adbe f63a f1bc
00000060: b83a 3cbe ca6f 70be eac8 543c 239a 0d3c
00000070: 3073 b83b 4965 3dbe 390f 39be b352 a13e
00000080: 4a45 613e 1a7b 0e3d 8a63 b73d 9fe6 4d3e
00000090: 9d4a 13be 0c6c 28be a8f4 eebd d11b 8fbe
000000a0: a552 7c3e 0443 50be d0dc ab3e 4c54 ae3e
000000b0: a2c2 69be 7307 093c 3a30 15b9 613b 7b3e
000000c0: a66e 4ebe d9cf d7bd 7923 b3bd e7d5 873e
000000d0: ba83 683d 5083 12be 2340 e9bc 1dd4 52be
000000e0: 7ca8 0d3d 6a36 82bd b8fb 3cbd a964 1d3c
000000f0: 6082 af3b c9ce d03d c6d5 5cbd c30d 26be
-0.05388295 -0.27196634 0.07258769 0.04229587 0.074428916 -0.29984605 -0.023846984 0.14817551
-0.08636211 0.16463631 0.13705273 0.12154764 -0.15255019 0.258724 0.06574186 -0.25736222
-0.34756783 -0.016942697 -0.13559377 0.041345432 -0.25238335 -0.23936267 -0.33842185 -0.02944706
-0.18381774 -0.23480144 0.012987355 0.008642706 0.005628966 -0.18495668 -0.18072213 0.31508407
0.21999088 0.034785368 0.089545324 0.20107506 -0.14383931 -0.16447467 -0.11667758 -0.2795091
0.24640901 -0.20338064 0.33566904 0.34048688 -0.22828153 0.008363592 -0.00014227713 0.2453437
-0.20159397 -0.10537691 -0.08747 0.26530382 0.05676625 -0.14307904 -0.028472966 -0.20588727
0.034584507 -0.06358035 -0.046138495 0.009606519 0.005356118 0.10195691 -0.053914808 -0.16216187

conv3.bias f4 [64]
00000000: 72e0 5dbc ab8e d83c 3dc6 eb3c 3b99 943a
00000010: e1ad 203d c1ec 673c fbaa 433a 3ff1 483d
00000020: cb5f e2bb e5a7 60bc 94a1 0f3d 2269 303d
00000030: c9ec e0bc 5235 573c ed15 0e3d ab04 27bb
00000040: 6b93 563d 6679 e53b 223b cb3c 0394 403d
00000050: 2814 19bb a425 1f3c e4b6 043d ed5e 1cbb
00000060: 8f55 3ebc 53e0 8dbb 55e9 f93c acbd ccbb
00000070: f36b 203c 995c 28bc 3ea5 bf38 186b 3a3c
00000080: 6a4a 103c fac1 19bc 48d3 453c 6dfe a43d
00000090: f9b0 a1bb 2e75 033d 4718 9abc 7784 b23c
000000a0: e0ff 383d 2ebd d83c 4a94 683c 4035 e13c
000000b0: 1786 64bb 91cc 793c 9d8c 70bb bfc1 9cbb
000000c0: c133 5b3c 2e8e a7bc adf4 83bc aef2 88bc
000000d0: cefd 08ba 7b53 e93c 0638 94bc 50e8 e1bb
000000e0: 578f 3e3d 7e07 9dbb b70a 273c 8992 273d
000000f0: 5508 583d 2ffa cd3c 24ef 8d3c 521f d33c
-0.013542281 0.026435217 0.02878105 0.001133717 0.039228324 0.014155568 0.0007464138 0.049058195
-0.006908392 -0.013711904 0.035066202 0.043069012 -0.027456658 0.013135271 0.03468888 -0.002548496
0.052386682 0.007002997 0.02480847 0.047016155 -0.0023357961 0.009713564 0.03240098 -0.002386029
-0.011617078 -0.00432972 0.03050677 -0.0062481966 0.009791362 -0.010275983 9.1383685e-05 0.011378072
0.008806804 -0.0093846265 0.012074299 0.0805634 -0.004934427 0.032094173 -0.018810404 0.02179168
0.045165896 0.026457395 0.014195511 0.027491212 -0.0034869963 0.015246526 -0.0036704906 -0.0047838385
0.013379038 -0.020453539 -0.016107881 -0.016717281 -0.0005225808 0.02848219 -0.01809312 -0.006894149
0.04652342 -0.004792153 0.010195426 0.04091123 0.05274232 0.02514371 0.017325945 0.02577177

conv3.lin_src.weight f4 [64, 64]
00000000: cbe9 6b3d 4207 2b3d 243c b0bd 1ab3 fc3d
00000010: e54b 23be cf75 1e3e 4c72 993d 40a8 fbbc
00000020: 4cac 96be 1950 4b3e b82a 7dbe a985 4dbe
00000030: 4776 4c3e 36da 833e b170 e23d 3fe1 03be
00000040: a31c 5ebd 12aa bc3d fdf6 b0bc 56f8 093e
00000050: ad90 65bd 242e 3bbe 27d7 e33d 11e5 233e
00000060: a01d 2d3c 911f 84be 1434 833d 32d8 51be
00000070: 2c72 1ebd 889a 16be 5901 903d 4dec 0b3e
00000080: bc9a 2dbe a03c 3cbe c3d0 1d3e 6311 843e
00000090: b870 0f3e 09d2 40be 5b13 37bd 6009 80bd
000000a0: cbf9 c4bd 3865 403e 74e8 d03d a8c9 31be
000000b0: 2ebf 3bbe dcd2 e93c 005e 623d 3427 8abd
000000c0: 4ee2 f4bd 5ae4 0a3e 2916 7b3e 1a9a bc3d
000000d0: 2252 8b3e 9c1c 653e 51c4 53bd d2d9 943d
000000e0: 1a3a 84bb 9d9d 43bd 3b07 f6ba cf74 613e
000000f0: 68f5 5c3c 6a08 293e 610d 4a3d a2e7 aebc
00000100: 0b15 8dbc f6ec 8b3e 60b5 473e 1c9f 583d
00000110: 2acf 113e 88ef 33be c67e 6c3e 004a f83b
00000120: 4508 933e 7df0 15be 71ef b9bc 6001 9f3d
00000130: a032 4abd 03bd fdbd fe6f da3d ceca c43d
00000140: d4a9 2a3e cf5a 38be db69 8e3d 51be 8bbe
00000150: a573 57be 1454 e83d e8b7 e23d ed9b 883e
00000160: 10a1 7ebd 8776 673e 963e e4bd 3231 05be
00000170: 423c 413c 7369 42bd 4e9c 73be 31ec b0bd
00000180: 376b bfbd 4777 92bc 677c 9ebd 4bf2 8abe
00000190: 5b6f 85be 7fc7 af3c 23e9 cbbc 2735 d23d
000001a0: 59fc 56be 7a14 cf3c a366 ed3d fdeb bf3d
000001b0: 0970 49be 93c9 d83c 88a2 bd3c 8e29 0a3d
000001c0: 14f3 5e3e 9d43 35be dcc1 d63c ab53 07bb
000001d0: 35fc 4ebe 17f2 883c 063a f9bd f35f 303e
000001e0: e074 00be 8bd8 003c 9a06 33bc 46b3 8dbd
000001f0: 4f40 81be d070 0d3e 86eb 56bd c13a 65be
00000200: c84b 80be 6e2e 8e3e 36a1 013c fac4 5e3d
00000210: b8fd 8b3d 4285 18be 5dd2 1ebe 6186 73be
00000220: f710 9a3e 3c1d 81bd 48ef 8e3e ddf0 92bd
00000230: 5924 1cbd eda8 0c3d 441b 3f3d a0cc 793d
00000240: 61d4 603b 074b 083c 5156 10bd 1b3a 3abc
00000250: c220 7ebd 41d4 ec37 bd7e 2e3e 58fd 723d
00000260: 93fd 39bc 27a9 543e f0a3 d7bd 1bd6 23be
00000270: 3f6d 663c cf4d 7f3e 49f2 403d 267b 53bd
00000280: 6d57 c53c f341 4abd 4251 87be 70af c8bd
00000290: fc20 93be eaaf a1bd cb53 bebd 365a eebd
000002a0: f59f c53c 1a99 44be 72cf 37bc d387 663e
000002b0: 626a a63c be6b 5cbd a8b9 ccbc 7c36 323e
000002c0: 4e75 553e 8f02 c2bd c2aa 07be 12eb fcbd
000002d0: fa76 5ebe 79e7 c3bd bf2b 82be e9a4 9d3e
000002e0: 6793 e6bd 96a8 01be ffac 83bc b6d7 29bc
000002f0: 747f fcbd f2a1 a13c cc25 56be 0d6a 78be
00000300: 9222 253c 1fe3 a53d 3143 3f3d 352b 323e
00000310: 9027 483e d51f 96be 4991 6f3c 33ca 7abe
00000320: 8983 843e 5c92 5dbe 99af 8c3d 9f3c a0bd
00000330: 80dc ed3d 0fc7 cb3d 4e47 893e c7bf 2d3d
00000340: 7e8f 51bd 409d 2cbe 4992 7e3e 8cbc 223e
00000350: 4f29 94be f2f5 95bd 0783 793d 001e bbbd
00000360: 4f1b 80be 4fb7 923e e9f9 5d3e e2e9 903d
00000370: e1bc 09be 9ebe 9c3e 5a5a a5be 8ec3 51be
00000380: 93aa 07be 04d0 0abe 4c2e d73d 4355 c23d
00000390: 9835 a83c 1ac9 4e3d 8d1d b93d 932e 15bd
000003a0: abb6 98bc 3c89 643d 65c5 873e e77d 7e3d
000003b0: 85bd 67be 8fe8 853e 577f db3c 8217 863d
000003c0: 8f8a fabd 2420 9bbd 6512 dbbd 15a9 00bd
000003d0: 4efb 3cbe a2f0 3cbd 65f5 43bc 0eaa f93d
000003e0: 82cc fa3d f674 c83d c090 45be 38ad 48be
000003f0: efac 0abd 6795 4f3e aa99 db3c d0e8 6bbe
0.05759601 0.04175497 -0.08605221 0.123388484 -0.1594692 0.15474628 0.074925035 -0.030719876
-0.29428327 0.19854774 -0.24723327 -0.20070519 0.19966994 0.2575242 0.110566504 -0.12878893
-0.05422653 0.09212126 -0.021602148 0.13473639 -0.056046177 -0.1827932 0.111250214 0.1600535
0.010566145 -0.25805333 0.064064175 -0.20492628 -0.0386831 -0.14707386 0.07031507 0.1366436
-0.16953558 -0.18382502 0.15411668 0.25794515 0.14007843 -0.18830122 -0.044696193 -0.06251788
-0.09617957 0.18788612 0.10200587 -0.17362082 -0.18334648 0.028542928 0.055265427 -0.06745759
-0.11957227 0.13563672 0.24520172 0.0920908 0.272111 0.22374195 -0.051700894 0.072681084
-0.0040352466 -0.047757734 -0.0018770465 0.22017215 0.013486244 0.16507116 0.049329165 -0.021350686
-0.017221948 0.27329224 0.19502783 0.052886114 0.14239183 -0.17571843 0.23095235 0.007577181
0.28717247 -0.1464252 -0.022697182 0.07763934 -0.049364686 -0.12389567 0.10665892 0.096089944
0.16666347 -0.1800339 0.06953784 -0.27293637 -0.21040209 0.11344162 0.110702336 0.26681462
-0.06216532 0.22603808 -0.1114475 -0.13007048 0.011794152 -0.047463845 -0.23790094 -0.086388
-0.093466215 -0.017879141 -0.077385716 -0.2713798 -0.2606152 0.021457432 -0.024891442 0.10264044
-0.209947 0.025278319 0.11591842 0.09371183 -0.19671644 0.026463306 0.02314879 0.033731036
0.21772414 -0.17701574 0.026215486 -0.0020649235 -0.20213397 0.016717 -0.1216927 0.17224102
-0.12544584 0.007864128 -0.010926867 -0.06918959 -0.25244376 0.13812566 -0.052470706 -0.22385694
-0.25057817 0.27769798 0.007911971 0.05438707 0.068355024 -0.14894584 -0.15509935 -0.2378173
0.30091068 -0.06304404 0.27916932 -0.07174847 -0.0381206 0.034340788 0.046656862 0.06098616
0.0034306275 0.008318669 -0.035238568 -0.0113663925 -0.06204296 2.823223e-05 0.17040534 0.05932364
-0.011351961 0.20767651 -0.105293155 -0.15999644 0.014064132 0.24932025 0.04710606 -0.051631115
0.02408954 -0.0493793 -0.26429182 -0.09799087 -0.28736103 -0.07894881 -0.09293326 -0.116383
0.024124125 -0.19199029 -0.011218892 0.2251275 0.0203144 -0.05381369 -0.024990872 0.17403597
0.2084553 -0.09473144 -0.13248733 -0.123495236 -0.21725073 -0.09565634 -0.25424 0.3078988
-0.112585835 -0.12661967 -0.016073702 -0.010366371 -0.12328997 0.019730542 -0.20912856 -0.24259205
0.010079043 0.080999605 0.046694938 0.17399295 0.19546342 -0.2932116 0.014622041 -0.24491195
0.25881603 -0.21637863 0.0686943 -0.078240626 0.11614323 0.09950077 0.26812214 0.04241922
-0.051162235 -0.16856861 0.24860491 0.15892237 -0.28937766 -0.07322301 0.060915973 -0.091365814
-0.25020835 0.28655478 0.21677364 0.070758596 -0.13450958 0.3061418 -0.32295495 -0.20484754
-0.13248663 -0.13555914 0.10506877 0.09488919 0.020533368 0.050484754 0.090388395 -0.03642137
-0.01864179 0.05579494 0.26517788 0.06213179 -0.2263089 0.2615399 0.026794119 0.065474525
-0.12233459 -0.0757449 -0.10696868 -0.03141125 -0.1845524 -0.046127923 -0.011960362 0.121906385
0.12246038 0.097879335 -0.19293499 -0.19597328 -0.03385633 0.20271836 0.026806671 -0.2303803
