model/ROSMAP_Fus.pth (torch, 410083 bytes, 19 tensors)

TCPConfidenceLayer.0.clf.0.weight f4 [1, 64]
00000000: a5e1 b73c 5af8 8d3d 910b f43c 2b79 e13d
00000010: 04f8 a73d 5afd f53c 9ad0 303d 345e f0bc
00000020: fc94 fc3c 11d5 32bd 0708 963d 03f2 9d3d
00000030: 7bb8 983d a613 3abe b92a 203d e82d 6f3e
00000040: 3f27 96bd c9d0 7b3d e36a bb3c f653 f8bc
00000050: 3c90 a33a a140 6d3d e46e 533e 7fab 263d
00000060: 2d95 233c c2b7 a63b 74a6 2a3d 0817 953b
00000070: 1e8e dcbc 134b 183d 5180 acbc 48fe 263d
00000080: f347 223e 1970 673d 5775 893c 87ab cfbd
00000090: 5c37 4a3d 0d55 163d 2a6d 1c3d 987d 903d
000000a0: 1a25 b43d c516 0c3d 0526 a13c 6ccc 9a3c
000000b0: 0de7 4f3d a0c6 8f3d 6638 203e 75b2 043d
000000c0: ece1 26be d9e5 f6bc 1ae0 c33c 1570 e23c
000000d0: 8583 c5bb 3baf c63d b150 8f3d fa6c 9a3d
000000e0: 68c8 8abc ef0c 31bd 8cc5 3a3e 0222 943c
000000f0: b005 0a3e 1cae ad3c d214 123d 149d 25bd
0.022446463 0.06932135 0.029790672 0.11009439 0.08201602 0.030028034 0.043167688 -0.029341795
0.03083276 -0.043660227 0.0732575 0.07712176 0.07457062 -0.18171558 0.039103243 0.23357356
-0.07331704 0.06147841 0.022878116 -0.030313473 0.0012478898 0.057922963 0.2064777 0.040690895
0.009984297 0.0050878236 0.04166265 0.0045498647 -0.026923236 0.03718097 -0.02105728 0.040769845
0.15847759 0.05650339 0.016779585 -0.10140138 0.0493692 0.036702204 0.038190044 0.07055205
0.08796139 0.034201402 0.01967145 0.018896304 0.050757457 0.070203066 0.15646514 0.032396752
-0.1629712 -0.030138897 0.02391057 0.027641336 -0.0060276412 0.09701391 0.069978125 0.07540317
-0.016941264 -0.043225225 0.1823942 0.018082622 0.13478732 0.021201186 0.035664387 -0.040433004

TCPConfidenceLayer.1.clf.0.weight f4 [1, 64]
00000000: 1e81 7e3d 8adb b63c b886 233d cef0 1a3e
00000010: 5dfc a83d 594a 103e 7a34 323d 9ac9 b13d
00000020: 21e4 183e d56a c43d be07 e5bc 551d 043d
00000030: e762 8a3d e929 043d 7c4c 9e3d 1fcb af3d
00000040: c663 c23d 0695 083b a796 6c3e 2667 41bd
00000050: 8583 f13d ad0e d13b bef4 213c 47c3 53bd
00000060: b408 65bc 3a9b 95bc 2567 c53c d43d d13d
00000070: 4a67 233d 08ce b6bc b8b9 be3d a658 583d
00000080: 1a80 1c3d 7850 353c 5fae 8f3d 0ed9 8c3d
00000090: 44af b8bd b553 d63a e06f 0abd 91d4 29bc
000000a0: 5a4f 133c be91 b33d 3ff2 293d e251 183e
000000b0: 3ee3 893b 3926 4e3d 36d0 f03d 6c01 68be
000000c0: 5fcc 5f3d 9634 a13d f445 743d e540 90bd
000000d0: 1d7e 083d d0dc 7a3d c1a7 cb3d ae53 e1bc
000000e0: 6015 843c 4e63 0d3d ea17 663b ebd6 1ebc
000000f0: f529 783d 7dd6 7f3d fcc7 813c 0b84 0e3d
0.062134854 0.022321481 0.0399234 0.15130922 0.082512595 0.14090861 0.043507077 0.086810306
0.14930774 0.09590689 -0.027957793 0.032254536 0.067571454 0.03226653 0.07729432 0.08583664
0.094916865 0.0020840778 0.23104344 -0.04721751 0.117926635 0.0063799233 0.009885011 -0.051699903
-0.013979126 -0.018262494 0.024097035 0.10216871 0.039893426 -0.02231504 0.09312767 0.052818917
0.038208105 0.0110665485 0.070156805 0.068773374 -0.09017804 0.0016351851 -0.0337981 -0.010365621
0.008991087 0.087680325 0.04149079 0.14874986 0.0042079976 0.05032942 0.11758463 -0.22656792
0.054638263 0.07871358 0.059637025 -0.07043628 0.033323396 0.06124574 0.09944106 -0.027505722
0.016123474 0.034518532 0.0035109469 -0.009694795 0.06058689 0.06246041 0.01584243 0.034793895

TCPConfidenceLayer.2.clf.0.weight f4 [1, 64]
00000000: 1572 da3d d033 033e fe2e 4c3b f20e 113e
00000010: c30b 073e 3ace c33d 9829 2a3d ec22 043e
00000020: c487 0b3d 6594 053e c082 003d 33ea 1d3e
00000030: bf7c 653d 82a7 0f3d 5425 8a3d e2ee 153d
00000040: 1da6 ca3d cd08 2cbc 7fae 023d ce83 ff3d
00000050: 092a 143e fa67 caba 1340 7dbd 57e2 a7bc
00000060: 54c6 673c aaf1 9e3d 1e1d 313e 9902 2ebb
00000070: bf08 87bc 2fe9 3f3d d322 dc3d b3e1 433d
00000080: fe02 42bc 74a2 843d 3e1d 923d 575e d2b9
00000090: 8d7c 903e ea3c 213c 1e5c 463d a84b 06be
000000a0: 176b 273d a5d3 253d 4c2d af3d aa8f e63c
000000b0: 5a7c 5dbe 7bb3 063e a434 763d 482e 2dbc
000000c0: 8b78 a93d 27d5 2e3c 8cf2 b4ba 8597 ab3c
000000d0: 4567 273d 3321 da3d 358c 9e3c ef06 483e
000000e0: bf62 a23d de7d 243c 394f 4b3d 5e91 ddbd
000000f0: cb4b ab3d 4690 463d a36c d33c 41b8 cd3d
0.10666291 0.12812734 0.003115594 0.14165857 0.1318808 0.09560819 0.041543573 0.12903947
0.034065023 0.1304489 0.031374693 0.15421371 0.05602717 0.035071857 0.06745401 0.03660477
0.09894965 -0.010500145 0.031904694 0.124763116 0.1446916 -0.0015442364 -0.061828684 -0.02049367
0.014146406 0.077609375 0.17296264 -0.0026551841 -0.016483663 0.04685324 0.1074883 0.047822665
-0.011841534 0.06476298 0.07134484 -0.0004012461 0.28220025 0.009841183 0.048427694 -0.13114798
0.040873613 0.040485043 0.085535616 0.028144676 -0.21629468 0.13154404 0.060108796 -0.010570116
0.08274945 0.010670937 -0.0013805195 0.020946274 0.04086997 0.106508635 0.019353965 0.19533895
0.079289906 0.010039775 0.0496361 -0.10818742 0.08364066 0.048477434 0.025808638 0.10044909

TCPClassifierLayer.0.clf.0.weight f4 [2, 64]
00000000: e677 70bc 167b 053e 8b6f 233e b5f4 25be
00000010: 8725 19be b9f6 e1bd a574 ab3e 65db 9c3e
00000020: 5ab2 5c3e f924 e9bd bd31 5a3d 1df5 d43d
00000030: 2eb7 193e 3f14 933e 3acb 9d3e 16d1 5cbe
00000040: 8308 77bc e5a4 113e b627 de3e d1b2 233d
00000050: 04d1 9fbd a1b3 953e 5a2f 223e 2ca9 6d3e
00000060: 8713 8abe 72a4 613d 9a95 83bd e9c3 63be
00000070: 9f08 6dbd ff69 afbe 291e 943e 8614 e4bc
00000080: 591e 5fbe c32f a7be d0ff c5be 84ba 5f3d
00000090: 9059 8d3d 96ae 09bf d607 463e 7f8e d2be
000000a0: 2e33 b7be 1d6e 38be f777 a0be 7ec3 f7bd
000000b0: 15bb 9c3c 2048 74be fd6a 82be 27ef 51bd
000000c0: 32d1 883e d20c 683e ea1b 1c3e 736e f53d
000000d0: 82de 0cbe ed27 e43e 7b3b db3e 5f65 153e
000000e0: e3c4 343d 32a4 313d ae4d 89be 93dd 7bbe
000000f0: 8d3b 753e 85be 1d3d 6c50 44be 469b 043e
00000100: d2d5 273c 25d6 1fbd cb49 01be 7bcb 4b3b
00000110: 0d01 2abd 4220 663d 0319 1cbe 2243 673d
00000120: ec85 67be 813b 8ebd 528d d03d f1e0 76bb
00000130: 2505 183e 1399 74be 1c96 eebd 21ac f13e
00000140: 1a5b 00be b041 b3bd e594 85bc 6164 f9bd
00000150: 06d0 6c3b 092b 94bd c277 07be d59d d3bd
00000160: 8d42 35be f662 50be adbf 56be f592 92be
00000170: 38ad 96be afb8 fe3d 9388 283e cbee d4bb
00000180: 4a09 b1bd 14ac 4d3d 9e04 163e 9b3c 1dbc
00000190: 685a 9a3d 073d fd3c bd2c 43be 4cc2 123e
000001a0: e0ad 3a3c 94f3 85bc 52f7 9ebb 23ae 8bbe
000001b0: d6dc a1be 2c3b a6be 33eb 4c3e 1cf4 863e
000001c0: 9d4b 30bd 2628 0b3e 422b 88bd e3a2 d63e
000001d0: d212 4fbc 6cce d1bd 3c35 32be f1c4 a6be
000001e0: 3d71 4d3d d5c4 cc3c 6e66 b63c 8d49 3abc
000001f0: 9a80 a1bd 9bed 94be c690 2e3e 652c 89be
-0.0146770235 0.13035235 0.15960519 -0.1620663 -0.14955722 -0.11033387 0.3348743 0.30636135
0.2155241 -0.11384005 0.05327009 0.10398314 0.15011284 0.28726384 0.30819112 -0.21564135
-0.015077713 0.14223059 0.43389672 0.039965454 -0.078035384 0.29238608 0.15838376 0.23209065
-0.26968023 0.055088468 -0.064250186 -0.22242703 -0.05786955 -0.34260556 0.2892926 -0.027841818
-0.2178892 -0.32653627 -0.38671732 0.054621235 0.06901848 -0.5378202 0.19338927 -0.4112434
-0.35781235 -0.18010755 -0.31341526 -0.12097834 0.019132176 -0.23855639 -0.2547225 -0.051253464
0.26722103 0.2266114 0.15245023 0.11983957 -0.13756755 0.4456171 0.42818817 0.14589451
0.04413308 0.04336948 -0.26817077 -0.24596243 0.23948498 0.03851177 -0.19171304 0.12949857
0.01024385 -0.039022584 -0.12625806 0.0031096626 -0.04150491 0.056183107 -0.15243916 0.056460507
-0.22609681 -0.06944943 0.10183205 -0.0037670697 0.14845712 -0.23886518 -0.11649725 0.47201636
-0.12534752 -0.08752763 -0.01630635 -0.12177349 0.0036134734 -0.07234771 -0.13229278 -0.103328384
-0.17701168 -0.2035025 -0.20971556 -0.28627744 -0.2942903 0.12437569 0.16458349 -0.006498193
-0.0864435 0.050212935 0.14650199 -0.009596969 0.07536775 0.03091289 -0.19060035 0.14331931
0.011393994 -0.016351499 -0.00485126 -0.27281293 -0.31613797 -0.3246702 0.20011596 0.26358116
-0.04304086 0.13589534 -0.06648876 0.41921148 -0.012638764 -0.1024445 -0.1740312 -0.3257213
0.05015682 0.0249962 0.02226564 -0.011370075 -0.07885857 -0.2908753 0.17047414 -0.26791683

TCPClassifierLayer.0.clf.0.bias f4 [2]
00000000: 33de 04bd 26de 043d
-0.03243847 0.03243842

TCPClassifierLayer.1.clf.0.weight f4 [2, 64]
00000000: e0d9 56be e46b 053d f5b9 0cbd a91f d03e
00000010: 2f06 643c 3fc7 e9bc eace 673e 29a1 1bbe
00000020: 4a19 06bf 7e9d 0cbf 2135 18bc 5a4d 003d
00000030: ad10 a73e 2996 1d3c 671b bdbe 6faa 8c3e
00000040: 5159 7fbe fad6 363e 3d7a 223d 8aa4 883e
00000050: fe8e 95be c1f0 b03e 1076 2cbd 0e3e 8abe
00000060: fd84 b0bd bc62 7b3e eb87 983e a15c 223e
00000070: 4c83 8d3e 88a8 693e 6e27 9bbe 8400 2dbd
00000080: a202 0a3e 10bb 043e 6840 b83e 5e9b 1ebe
00000090: 6ec2 4f3e cb85 67bd 4879 cdbb 8b55 ad3e
000000a0: 39c0 61be c3a0 1cbd b5a9 353e 8042 bbbe
000000b0: 4103 653e 8604 233e 7465 5ebe e560 973d
000000c0: 0e0e 88bc 072c 90bd 88d3 39bd 0c87 f9be
000000d0: fd2d de3e 8d41 313e 7fc1 083e 6927 abbe
000000e0: 8f05 fb3d d91a d23d 37ce 61be 2874 1bbe
000000f0: a298 a2be cbdf 973d 2dc6 1d3e ef7a 22bd
00000100: 60bc 6dbd 2b73 94bd 9282 c9be 2664 cbbc
00000110: d938 373e 9780 ae3e b752 79be 3d97 8d3e
00000120: 7ed4 303e 7a4a 223e 9c0d 6abe 73e3 24bd
00000130: 2739 64be 80e8 90be 74f3 903d 3711 51be
00000140: 16b2 1a3e 4b0f c93e 4bd3 d43e e2c9 a93b
00000150: bcb7 1b3e f99f 0c3e 6a98 8abe aa71 863e
00000160: 4f41 c9bd c7e0 50bd 3424 7e3e 44e2 86be
00000170: d69e 95be a806 adbd cfe3 b83c 357b 133e
00000180: 6ece 6cbe 67c8 dcbb dc55 93be ccd5 533e
00000190: 6008 82be 9d9e 723e afd7 a8ba ec22 70bd
000001a0: 511c 353d 36c7 c83e cb61 9cbe 9286 093e
000001b0: d84e 57be ff79 8cbe 51a0 f8be 9048 d2bd
000001c0: ffb9 84bd cbc6 c43e 9e67 643e 107e aabb
000001d0: 1863 d73a 9a88 fabe 6f6d c3bd fbd9 b13c
000001e0: 2598 96be 0033 18be 6f97 7d3e cc05 6ebe
000001f0: 8c70 a13d 96cd afbe 3e59 10be 4c1b b63d
-0.2098155 0.032573596 -0.03435703 0.40649155 0.01391749 -0.02853739 0.22637525 -0.15198196
-0.5238234 -0.54927814 -0.009290011 0.03132377 0.3262991 0.0096183205 -0.3693497 0.2747378
-0.24936415 0.17855445 0.039667357 0.26688033 -0.29210657 0.3455868 -0.04210478 -0.2700047
-0.086191155 0.24549383 0.29791197 0.15855648 0.27639234 0.22818196 -0.3030352 -0.04223682
0.13477567 0.12961984 0.35986638 -0.15488955 0.20289013 -0.05652408 -0.0062705614 0.33854327
-0.22045983 -0.03823925 0.1774052 -0.36574173 0.22364523 0.15919694 -0.21718389 0.07391528
-0.016608264 -0.070396475 -0.045367748 -0.48735845 0.4339446 0.17310162 0.13355063 -0.33428505
0.122569196 0.10259027 -0.22051321 -0.15181029 -0.31757075 0.07415732 0.1540763 -0.03966802
-0.058040977 -0.07248529 -0.3935743 -0.024828028 0.1789278 0.3408248 -0.2434796 0.27654448
0.1726856 0.15848723 -0.22856754 -0.040255975 -0.22287427 -0.28302383 0.07077685 -0.20416723
0.15106997 0.3926948 0.41567454 0.005181537 0.15206808 0.137329 -0.27069408 0.26258594
-0.0982691 -0.050995614 0.24818498 -0.26344502 -0.29222745 -0.08448535 0.022569565 0.14402469
-0.23125622 -0.006737757 -0.28776443 0.20687026 -0.25397015 0.23693319 -0.0012881662 -0.058627054
0.044216458 0.39214486 -0.3054336 0.13430241 -0.2102617 -0.27436826 -0.48559812 -0.102677464
-0.064807884 0.38432917 0.22305152 -0.005203016 0.001643273 -0.48932344 -0.09542357 0.021710386
-0.29412952 -0.14863205 0.24764799 -0.23244399 0.07882795 -0.34336537 -0.14096543 0.08891925

TCPClassifierLayer.1.clf.0.bias f4 [2]
00000000: 7182 233b 7e83 23bb
0.0024949575 -0.0024950202

TCPClassifierLayer.2.clf.0.weight f4 [2, 64]
00000000: 2d3d b03e 4012 80be 9637 05be a978 46be
00000010: 4fec a2be fd58 79be 01e6 a7be 93dc 01be
00000020: 7908 f3bd 1ac4 c93e 92d0 1dbe 3e46 863e
00000030: 0da2 b53e b605 c43d ec9c 973e 1646 73bc
00000040: 4550 383e 4f3c 25be 42be cd3c e98a b8be
00000050: 86bc f3be b541 1dbb 880d 9ebe 3d2e 8dbb
00000060: bf3b 853e 78d3 8f3d 3d4e 73be 6e27 9fbe
00000070: 3107 1cbe cdcb a4be ebd7 a03d 2e85 2bbb
00000080: 7116 c93d 7500 af3d 6191 c63e 5479 36be
00000090: ad1a 2cbe 05d4 5c3e 139a 2e3e aa75 43bd
000000a0: bd52 43bd ffbd 27be 9178 213e 4e71 7a3c
000000b0: cc27 85be 545e 10be 3892 403e 2179 753b
000000c0: 7bb5 9e3e 40a6 793e f5a5 bfbd 8779 783e
000000d0: b507 92bd 6993 7cbe 09a8 883e 9ea1 6ebe
000000e0: 5670 2dbe 2da4 633e 5e4e 9abe 4a53 26be
000000f0: 95e2 613e bf93 843e f998 73bd 5b9c 26be
00000100: 655f 90be 3664 10be d0f5 633e 28f9 c73b
00000110: 7871 05be c2dc 8d3e 2e54 5f3e 9d1e ac3e
00000120: dd23 293e 97d7 8ebe b890 113e 6259 9fbe
00000130: c853 11be eb68 80be 0c4e 803d 39f9 adbe
00000140: 007a 973e 73e7 c83e e9ab 5cbe a18b ac3d
00000150: eda6 a43d dc7e c43e 2fee 81bd 4ede aa3e
00000160: 894f a0bd fde3 53be 8d32 d73e ad43 eb3c
00000170: f189 6e3e 1251 4d3e 339a a03e 6017 06be
00000180: e5e8 76bc e1db 18bf 5f6a 83be 95d0 133e
00000190: 4f85 b63c 473e 5dbe ec62 b3be 1246 693e
000001a0: 606a 983e c449 b6be ee1e 6c3d a34e dbbd
000001b0: 1b5e 8d3b 8882 d53d d175 dcbe 0e6b d8bd
000001c0: 5b56 b2be 70d2 9a3e 205b 58be b5de ac3d
000001d0: a865 cfbe f96d 25be 79ad c9bc a46c d03e
000001e0: 2736 8dbc cec2 c23d e8ec 153e f1e0 923d
000001f0: 91d4 53be 2984 e0bb 2e08 093e b283 f4bc
0.34421673 -0.25013924 -0.13009486 -0.19381966 -0.31820914 -0.24350353 -0.32792667 -0.12681799
-0.118668504 0.39407426 -0.15411595 0.26225466 0.35475197 0.09571402 0.2961191 -0.014848253
0.1799937 -0.16136287 0.025115136 -0.3604348 -0.4760477 -0.0023995463 -0.308697 -0.0043084905
0.26022145 0.07022756 -0.23760314 -0.3108477 -0.15237118 -0.32186738 0.07853683 -0.002617191
0.098187335 0.08545009 0.3878279 -0.1781972 -0.16807051 0.21565254 0.17050962 -0.047719635
-0.047686327 -0.16381072 0.15768649 0.015285803 -0.26006925 -0.14098483 0.18805778 0.0037456232
0.30997834 0.24379826 -0.09357826 0.24265109 -0.07130376 -0.24665608 0.266907 -0.2330384
-0.16937384 0.22230597 -0.30137914 -0.1624271 0.2205909 0.2589397 -0.059472058 -0.16270582
-0.2819778 -0.14100727 0.22261739 0.0061027 -0.13031566 0.27707487 0.21809456 0.33617106
0.16517587 -0.27898857 0.14215362 -0.3112288 -0.14192116 -0.25080046 0.06264886 -0.33979204
0.29585266 0.39239082 -0.21549954 0.084250696 0.08039651 0.38378036 -0.06344258 0.3337273
-0.0782767 -0.2069244 0.42030755 0.028718794 0.23294808 0.20050457 0.31367645 -0.13094854
-0.015070175 -0.5971051 -0.25667092 0.14435036 0.022280363 -0.21605788 -0.3503641 0.22780636
0.29768658 -0.35603154 0.057646684 -0.10708358 0.0043141968 0.104252875 -0.43058637 -0.10567294
-0.3483151 0.30238676 -0.21128511 0.084409155 -0.40507245 -0.16155232 -0.024618851 0.40707886
-0.017237736 0.09509812 0.14641154 0.071718104 -0.20686556 -0.006851692 0.13382027 -0.029847953

TCPClassifierLayer.2.clf.0.bias f4 [2]
00000000: 4271 9dbc 2d71 9d3c
-0.019219045 0.019219005

selfattentionLayer.ScaledDotProductAttention.fc_q.weight f4 [384, 64]
00000000: ad54 833d 4d5c 333d 706a f7bc c80c 2fbd
00000010: 4ea2 58bc 670c 50bc 5f62 bdbc 101d 3d3c
00000020: 29e7 203d a0c6 81bc 8c50 993c 194c 183d
00000030: abf5 1e3e 6b00 163e 1fbd bd3b b659 aabd
00000040: d107 bb3d c3b7 5ebd 0f95 86bc 038b a93c
00000050: e313 ce3d 6085 44bd 8518 ee3b 5bb2 dc3d
00000060: a701 b6bc b223 7b3c 3958 f4bc 6004 53bd
00000070: aa4f 243e a181 4f3d a910 4a3d d58e 1fbd
00000080: 4ec9 6a3d 2c16 82bd 4c4f 14bd 1e10 67bc
00000090: 6988 94bc f4fa 403c 5ab2 28bc c983 a73d
000000a0: 3f03 a8bd 8d56 d53d 2f61 aa3c ef18 ab3d
000000b0: 5b3f 9e3d 1a85 253d c382 c03d 214b 723d
000000c0: c630 713d 4fd0 213e 8a8f 433d 0948 0abc
000000d0: e92b 03bb 7674 593d e646 a6bd 73b6 303c
000000e0: 122d 2a3d cace bbbc 9893 833b 24c6 04ba
000000f0: 66fc 6e3d 94dd d1bc 2438 bc3d 05fd 3cbc
00000100: 3d77 1ebd d9a5 7fbc 6db0 9a3d 2668 193d
00000110: f246 1d3d 155c 843d d966 683a de98 ed3c
00000120: e758 f6bb d568 e7bd 99be 09bd f9ba 053e
00000130: ee6a 903c f68a 2fbd f4e5 75bd 3138 e83d
00000140: 17c6 51bc cebe 283e 7295 21bd 0c75 8d3d
00000150: 4ce0 89bc c2c9 863d e58f 9a3d 97e7 3bbb
00000160: 6eda 2d3d 178b f4bd 2b3a c8bc 1c3d f03d
00000170: 9f8c c9bc ac2a 03be 5e89 09bc cc23 8b3c
00000180: dca6 22bb 7fad 063d fae6 f93c c30a 79bd
00000190: c378 2f3d c7e5 93bb b1cd 41bd 2592 74bd
000001a0: 8e40 5d3d 8489 14bd 08bd 313d b661 813e
000001b0: 3402 b93d 2f4c f53c 9ef4 843c 2fb3 edbd
000001c0: 44b0 4dbd 42a8 02bc c357 153d e260 a53d
000001d0: 32d0 7f3c 82d3 993c 1faf 233d 72e0 d23c
000001e0: d3ad 10be 7e05 52bd 138d b93d ad39 273e
000001f0: 7e25 0bbd dc19 0e3e 0a53 2abd 506f ee3c
00000200: e2f8 8f3d 5ad9 9fbd 780a 30bd 55e8 4bbd
00000210: 05ec d3bc b138 b1bd a50a bcb9 d9ba 0cbd
00000220: f24d 9fbd a31c 3e3c b094 c93c 4af9 733d
00000230: 01ec 253d d613 c6bd eb47 a43d 7ccb 39bc
00000240: 12f1 273b 1463 8abd d94f 813d 86d0 d3ba
00000250: a0a8 9f3d 7621 6abd 559c 263d cd5b 8dbd
00000260: 40b8 6d3d c794 c13a c01f 553d a302 82bc
00000270: 7ca5 a5bd 90e6 383d 3bc6 503d 6d5e b6bc
00000280: 4d70 25bd be49 8b3c 5695 603d 47c3 9dbd
00000290: 820b bdbd 6f04 6d3d 117a 2fbd 2447 3fbd
000002a0: 6dc6 9cbd 52f8 2ebd b5fb 933d 7563 963d
000002b0: 0a85 1fbe 4d69 c1bd 97b1 14bd f130 c13c
000002c0: 7869 bd3d ce5c 993c ce51 7c3b f554 e2bc
000002d0: 4b1f 8fbd 183c 9dbd 0ccb 76bd 8440 8bbd
000002e0: a76d cb3c 69fb bfbd 17d7 2c3d ad01 93bd
000002f0: dc8f ba3d 9a84 fabc dabe a53c bb2e c73b
00000300: 217a 343e dfb5 87bc f9e6 28bd 768c e43c
00000310: 861d f83d 1d60 563c b9f4 51be af90 713c
00000320: abf5 4a3d 2a24 ccbc 9893 873d 40de 46bd
00000330: af88 f13c f487 90bd 9588 7bbd 1f07 aabd
00000340: cfa5 d1bd 274a 5dbd ad48 51bd dab3 d03c
00000350: 736f 2f3d a181 b8bd 1012 abbd bc7e 9a3c
00000360: b0ce 04bd 2c21 113d c4b8 dabb 16c3 dcbc
00000370: 3766 d4bc fd2f fb3c afe0 9ebd b7b6 01bd
00000380: c1dc b43d 84be cbbc f451 87bd 8b21 153d
00000390: 5205 413d 73ca 91bd f841 92bd 840a abbc
000003a0: 95cb b8bd db3b e9bb 9907 473d 6ad4 b7bd
000003b0: d3d1 60bd 6065 a73d ee57 c33b d572 0f3d
000003c0: 18d3 52bd 1a82 1abe fe7d c5bd cca0 fcbc
000003d0: 6e03 0f3d e9ef 9dbc cd63 70bc 2131 1d3c
000003e0: 01b7 3d3e a78d 6e3d 1ebc 9abd 0a9d 82bc
000003f0: 3f6b e93d 41e0 873c f1fd 803d 6e3a 2d3c
0.06412635 0.043789197 -0.03020212 -0.0427368 -0.01322229 -0.012698269 -0.023118196 0.011542574
0.03928295 -0.015841782 0.018715166 0.037181947 0.15523402 0.14648597 0.0057903673 -0.08317892
0.0913235 -0.054374468 -0.016428499 0.020696169 0.10062387 -0.04797876 0.0072661065 0.10776206
-0.022217585 0.015328335 -0.029827224 -0.051517844 0.16046014 0.050660733 0.049332295 -0.038954575
0.057320885 -0.06351885 -0.036208436 -0.014102964 -0.018131452 0.011778582 -0.010296429 0.08179433
-0.08203744 0.10416899 0.020798294 0.08354365 0.07726928 0.04041014 0.09399941 0.05915368
0.058884405 0.1580212 0.04774431 -0.008440026 -0.0020015186 0.05308958 -0.081189916 0.010785687
0.04154689 -0.022925753 0.0040153973 -0.00050649256 0.058346175 -0.025618352 0.091903955 -0.011534934
-0.038687933 -0.015603506 0.07553182 0.03745284 0.038397737 0.06462876 0.0008865423 0.029003557
-0.007517922 -0.11299292 -0.033629034 0.13059606 0.017629113 -0.042857133 -0.060033754 0.11338843
-0.012803576 0.16479036 -0.039449163 0.069070905 -0.016830586 0.06581451 0.07546977 -0.0028671974
0.04244464 -0.11940592 -0.0244418 0.11730406 -0.024603186 -0.12809247 -0.008394567 0.016984843
-0.0024818694 0.032880303 0.030505646 -0.06080128 0.042839777 -0.0045134756 -0.047315303 -0.059709687
0.054016642 -0.036263958 0.043393165 0.2526986 0.09033623 0.029943554 0.016229924 -0.11606442
-0.050216928 -0.007974686 0.03646065 0.080751196 0.0156136025 0.018777613 0.03996193 0.02574179
-0.14128809 -0.05127477 0.09060111 0.16330595 -0.033971302 0.13877052 -0.0415831 0.029105812
0.070298925 -0.078051284 -0.042978734 -0.049782116 -0.025869379 -0.08653391 -0.00035866085 -0.03435788
-0.07778539 0.011603507 0.024607033 0.059563912 0.040508274 -0.09671752 0.0802153 -0.011340018
0.0025625867 -0.06757179 0.06314058 -0.0016160167 0.077958345 -0.057160817 0.040676434 -0.06902275
0.058037043 0.001476907 0.052032232 -0.015870398 -0.08088204 0.045141757 0.050970297 -0.022261823
-0.0403903 0.017002936 0.054829918 -0.07703262 -0.092307106 0.057865556 -0.04284102 -0.046698704
-0.07655034 -0.042717285 0.07225744 0.07343189 -0.15578094 -0.09443913 -0.036302175 0.023582907
0.09248632 0.01872101 0.0038500908 -0.027628401 -0.069883905 -0.076774776 -0.060252234 -0.06799415
0.02483256 -0.093741246 0.042197313 -0.07178054 0.0910947 -0.030580807 0.020232607 0.0060785688
0.17624713 -0.016566215 -0.041235898 0.027899008 0.12115006 0.013084439 -0.2050351 0.014743968
0.049550693 -0.024919588 0.06619948 -0.048551798 0.029484121 -0.07057181 -0.06140955 -0.083021395
-0.102367036 -0.054025795 -0.0510947 0.025476385 0.042830896 -0.090091 -0.083530545 0.01885926
-0.032423675 0.035432026 -0.006674858 -0.026948493 -0.025927646 0.030662531 -0.07757699 -0.03166839
0.08831168 -0.024871118 -0.06607428 0.036408942 0.047124214 -0.07118692 -0.07141489 -0.020879038
-0.09023205 -0.007117731 0.04859123 -0.08976062 -0.054887604 0.081736326 0.00596141 0.03502162
-0.051470846 -0.15088692 -0.09643172 -0.030838393 0.03491538 -0.019279437 -0.014672232 0.009594233
0.18526842 0.05824056 -0.07555412 -0.015944023 0.11397409 0.016586425 0.062984355 0.010573013

selfattentionLayer.ScaledDotProductAttention.fc_q.bias f4 [384]
00000000: eb0f 09bc 2eb7 e1ba 6891 1bbd cc75 dfbc
00000010: 5306 b738 6c9f 373c 57ef 15bc 279f 5d3c
00000020: f9d8 d1ba 106d b73b 3953 89ba 8311 3ebc
00000030: 627c 6f3c d486 38bc 1d51 473c b244 14b7
00000040: 8f29 9fba 3c62 d0ba 6f6c 84bc 1000 87bc
00000050: d19d 273c 1a36 773c cfe4 133c 1033 d5bc
00000060: 555e fb3b d04f 82bb f988 b7bb 3617 63bc
00000070: e8eb f6bb c23b 8dbc ddae f4bb 895c d23b
00000080: a8c0 8c3c 6595 893b 9d15 a1bb 0649 04bc
00000090: 3e17 c93c 57ac a8bc 3025 8a3c 3620 b0bc
000000a0: d7b0 80bd f864 0b3d 48a1 dc3c a3c2 4dbd
000000b0: 9b3d 613c 3de6 cdbc 032a 01bd 3a4f f1bc
000000c0: 15ee 233c cdab e43b 20ba 66bc 602b 9c3c
000000d0: fbbb 063c c6ee 44bc 6d88 1a38 3e5b 10bc
000000e0: 9d07 393b b7e0 7e3b 15f7 643c 7840 4639
000000f0: f264 cfba 69d3 d43c 3125 9fbc d8b2 1c3c
00000100: f1c0 70bc dfc1 9fbb 37b0 2cbc 30d3 e2bc
00000110: 1597 843a 5b30 3abc c390 e33b 59a7 b3bc
00000120: 6e22 283c a2f7 1e3c 87f0 8e3c fe7c 8dbc
00000130: 3c0c d73c 75f9 52bc 3b95 7abc 6f16 cc3b
00000140: 8848 5abc 7003 d9bc 5f3e 423c 6a3e 1cbc
00000150: 1df0 883c 7d87 4dbc 3850 eabc 7834 3f3b
00000160: fd70 5b3c cde8 d43a e4bb 113c d6f5 1dbc
00000170: 4fff 963c 3082 373d dc2f ad3c 8436 93bb
00000180: 7954 95bc 3d6f 9bbc d628 29bd b8a8 b1bc
00000190: ddf4 953c 3890 3bbc 8b7e 3f3c e47e a83c
000001a0: 3b1d 3cbb 7c3c 5a3b 7aa1 d2bb 9dd2 ebbc
000001b0: c241 d0bb 7132 43bc 9d92 eaba 841a dabb
000001c0: a27c fe3c ba6f 28bc 611d 453c 354f fa3b
000001d0: b1ab 0abc 628b 00bc 5225 1bbc f249 b63c
000001e0: 8dd3 73bc 8d95 123c ebbe c23a 76bf 2d3c
000001f0: 504a ae3c 3cd4 debc 3977 dfbc 77f4 ac3c
00000200: 749e 1bbc 1d76 cbb9 7127 81bb ccab 87bb
00000210: 743a c4ba cc51 32bc 0a22 4cbc f6c5 4fbc
00000220: 5d4b 693c 0608 63bc 375f 003b c7f4 803c
00000230: 187f f3bc 4197 393c 930f 783b f9dc 003d
00000240: 3fc2 013d a61a c23c 4846 043c fcaf babc
00000250: 380b 44bc c7aa b63c 6899 073c 7572 efbb
00000260: bfe4 a4bc 3863 6d3c 9d14 b73c cbe0 b73c
00000270: 2301 2f3d f402 d6ba 09a6 b03c bc28 0b3b
00000280: c528 f839 51c3 9f3a e6fd 37bc 7936 f9bc
00000290: e9c1 2dbc e369 0e3c bfc6 2f3c 1a9f 013c
000002a0: b87a c2bc d0bc cdbb 9cf5 403c 25c4 4ebc
000002b0: ee56 43bc b923 413b 5016 5c3c b1bb 2e3b
000002c0: 66f4 afbb d423 10bc ac9f 5f3c 7989 a63b
000002d0: 83ed f5bb b33c 15bc a6fe adba 1738 203d
000002e0: 89f3 b53c 63fe b9bb ff00 5f3c db5c 013c
000002f0: 4969 5c3b 1d8c 1a3c 263d 35bb e979 d0bc
00000300: d0cb 8639 899c 5d3c 081f 86bb 17bf 84bb
00000310: c23a 393c 630a 253b 039f 5f3b 15da ca3b
00000320: 39a5 86bc f2fc a73c 9a5a 35bc 8042 a93b
00000330: c372 4cbc cd0c 403a 9e2d 24bc a132 8a3b
00000340: dbfa 633a 445d cdbb c87b 573b 9a2e 4cbc
00000350: 75e1 97ba be24 4f3c 9420 ed3a 5fbe 9a3c
00000360: aed9 e63a e312 c43a 7056 46bc d36c 673c
00000370: af4e 633c f68b f4bb 521d 453c 5245 5d3c
00000380: 72cb 99bb bcbb 523b 1a20 1fbc e48c 283c
00000390: 19bc a0ba a1f3 c7bb f5b6 55bc 3749 763c
000003a0: e10b 743c 09e5 0cbc f6b6 2fbc 55c3 bdbc
000003b0: 3af3 38bb 69d3 4abc dd99 2dbc 24cb abbc
000003c0: 6cc6 04bc 8c82 8f3c 9b5e 3abc ce79 66bc
000003d0: e762 93bb e9bb 9ebc 8701 f13b bbb3 cabb
000003e0: 8dac 0a3c 3a8a 29bc cd56 dc3c 4eed 2f3b
000003f0: dd06 cfbb cbde 063c b7c5 dd3c fc27 8d3c
-0.008365612 -0.001722073 -0.037980467 -0.02727785 8.727298e-05 0.011207443 -0.009151301 0.013526714
-0.0016010097 0.005597718 -0.0010477073 -0.011600855 0.0146170575 -0.011262614 0.012165335 -8.837482e-06
-0.0012143123 -0.0015898417 -0.016164986 -0.016479522 0.010230497 0.015088582 0.00902672 -0.026025325
0.0076711574 -0.0039767995 -0.005601045 -0.013860514 -0.0075354464 -0.017240409 -0.0074671344 0.0064197225
0.01718171 0.0041987174 -0.0049159066 -0.008074051 0.024547216 -0.02058999 0.016863436 -0.021499734
-0.062837295 0.03403184 0.026932374 -0.05023445 0.013747598 -0.0251342 -0.031534206 -0.029456723
0.010005494 0.006978488 -0.014082462 0.019063652 0.008223529 -0.012019819 3.6843518e-05 -0.008810816
0.0028233298 0.0038891265 0.013974925 0.00018906768 -0.0015822931 0.025979714 -0.019426914 0.009564124
-0.014694438 -0.004875406 -0.01054006 -0.027688593 0.0010115827 -0.011364068 0.006944747 -0.021930384
0.010262115 0.009702595 0.017448677 -0.017271515 0.026250951 -0.012876858 -0.015294368 0.00622826
-0.013322957 -0.026490897 0.011855691 -0.009536365 0.016716057 -0.01254451 -0.028602704 0.002917556
0.013393638 0.0016243696 0.008894894 -0.009641131 0.018432287 0.04480189 0.021140985 -0.0044925828
-0.018228756 -0.018973941 -0.04129871 -0.021686897 0.018305236 -0.011447959 0.011687885 0.020568319
-0.0028703946 0.0033300212 -0.006427941 -0.028786952 -0.006355495 -0.011913882 -0.0017896477 -0.006655993
0.031065289 -0.010280544 0.01203093 0.0076388367 -0.008463786 -0.007845731 -0.009469347 0.022252057
-0.014881981 0.0089467885 0.0014857923 0.01060473 0.02127567 -0.02720081 -0.02727853 0.021112664
-0.009498227 -0.00038807178 -0.0039414694 -0.004140353 -0.0014971034 -0.01088376 -0.012459287 -0.012681475
0.014239159 -0.013856893 0.0019588002 0.015741719 -0.029723689 0.011327566 0.003785108 0.031460736
0.031679388 0.023694348 0.008073397 -0.022788994 -0.011965565 0.02229823 0.008276321 -0.0073073455
-0.020128606 0.014488988 0.022348696 0.022446057 0.042725693 -0.0016327784 0.021563547 0.0021233996
0.00047332622 0.0012188946 -0.011229968 -0.030421482 -0.010605314 0.008692238 0.010728537 0.007911468
-0.023740157 -0.0062786117 0.011777308 -0.012620007 -0.011922581 0.0029470755 0.013433054 0.0026662166
-0.0053697107 -0.008797605 0.013648909 0.005082306 -0.0075051202 -0.00910871 -0.0013274744 0.03911599
0.022210853 -0.005676077 0.013611077 0.007895674 0.003363209 0.00943282 -0.0027654856 -0.025448756
0.00025710324 0.01352609 -0.0040930547 -0.0040511 0.011305513 0.0025183193 0.0034121878 0.006190548
-0.016436206 0.020506356 -0.011068964 0.005165398 -0.012478533 0.0007326126 -0.010020642 0.004217461
0.0008696743 -0.0062672216 0.0032880176 -0.012462283 -0.0011587577 0.012643037 0.0018091374 0.018889604
0.0017612481 0.0014959242 -0.012105569 0.014125067 0.01387374 -0.0074629737 0.012030916 0.013505297
-0.004693442 0.0032155355 -0.009712243 0.010287497 -0.0012263089 -0.006102041 -0.013044109 0.015032104
0.01489541 -0.008599528 -0.010724774 -0.02316443 -0.0028221146 -0.012379506 -0.010595766 -0.020970888
-0.008103948 0.017518304 -0.011375095 -0.014067126 -0.004497874 -0.019376712 0.0073549184 -0.0061859763
0.008463991 -0.010347897 0.026896859 0.0026844325 -0.006317957 0.008231829 0.027071817 0.01723098

selfattentionLayer.ScaledDotProductAttention.fc_k.weight f4 [384, 64]
00000000: e30a 53bd 158f 12be 9605 5cbd ed2e 6e3c
00000010: 6d32 d53c 905f 2f3d f601 9abd eeec 09be
00000020: 273a c4bc eb26 73bd b0a5 eb3d 8879 47be
00000030: c4ef d4bb 8bd4 5bbd db75 863c 7c1b 6e3c
00000040: 8d8f 8b3d 59c2 1fbd 5edc 1a3e ec35 8abd
00000050: 4513 b9bd 845a f9bd d5f6 1c3d 2855 58bd
00000060: 1b59 913c e8b1 67bd 2992 123e 820d 62bb
00000070: 9fde 65bd ea75 77bd 44bb 5cbc 587a 93bb
00000080: 1075 823c 6816 df3d 9989 2e3d 3d1c 7ebd
00000090: edee 0d3d 77f9 89bd e074 bf3d bef9 043d
000000a0: e65e 1abc 6b90 653d 1e98 213c 04bd cfbc
000000b0: 8063 b4bd f4bc d03c 07a3 a73d fb32 923c
000000c0: d12b 6ebd 93f5 643d 1f2a 403d 3bf4 8a3c
000000d0: f5e7 e5bd 3bcb 78bd 3334 c03d 6dfb 01be
000000e0: 2cd0 ce3b 0fdf 903d 5455 113c 4361 14bc
000000f0: 72d2 3c3d 91ff 50bd d55a 9cba 8de1 e33c
00000100: ba1c c3bd a127 e03b 2538 f23d db88 babd
00000110: dd35 7abd 32a6 f93b 1254 853c aa40 cabd
00000120: 8bbe 2c3d 8660 c43b d316 613d 1fd2 6d3d
00000130: 2cc7 663d 522e f43c 5f98 d0bc 1ea7 c83d
00000140: 438e 183c 2f35 b8bc ece8 2a3e a206 04be
00000150: cc25 843d 076e c0bd d5bf 60ba 8904 28bd
00000160: b95b 01be 5b1f 223d f95a d4bd ebf6 f3bd
00000170: 1a3b 333d b9f5 62bc 71eb 51bd e7f1 2bbd
00000180: 9b95 9ebd 7063 133b 32b9 81bc 10d0 33bd
00000190: 5033 51bd b8c2 cc3d bb7d 29be eff2 e9bc
000001a0: b479 1f3d 64fb 223c d4df 7abd d19a c03c
000001b0: 9247 96bd 9fe4 b8bd b465 a73d 7a6b 86bd
000001c0: 066f 1fbd fd0e 14bd 556e 3ebd 2479 1d3e
000001d0: 4dcc 2fbc 3ac3 cd3d 4e13 003d cc35 03bd
000001e0: 11bc 9f3a 8c53 173d 6655 0fbc ce85 40bd
000001f0: 451c 29bd 848f 5d3d 8a41 bdbc 5ef5 88bd
00000200: c687 20bd d000 09bd b189 c4bc 7949 3aba
00000210: 4fd2 cbbc cb4b adbc 6258 f83b 2aee 19bd
00000220: 4069 013e 3052 50bd a2b3 753d a7a9 ae3d
00000230: 8c54 28be a03a 93bd 4987 e9bc cb1e 263c
00000240: 079f 873c e158 08bd 639a fc3d bafd 173e
00000250: 1ccb 323c f012 0dbc 3c0d 643d de97 44bd
00000260: 2d40 0d3e f2cd 8dbd badd 0e3c ac36 94bd
00000270: a67d 3e3e f367 7d3d 15a3 aabd 4b62 2b3d
00000280: b30d d7bd 5799 5fbd 4966 85ba f83c 7db9
00000290: 15b7 bf3b 5555 98bc f403 893d 0674 a43d
000002a0: 4ebb ec3d 0e4a 97bd d296 4e3d 017c 05bd
000002b0: 0416 c23c 5e2f d53d d8b5 993d 45da 46bd
000002c0: e9ec b4bd 0ec7 0c3c 4786 e6bd f0cd 8dbd
000002d0: 7bcb 17bd 4204 013e a7e4 e5bc 6530 8a3d
000002e0: f957 10be 9a04 bb38 3418 e33c cb74 a2bd
000002f0: bc28 aa39 5661 bf3c 0857 dbbd c071 433e
00000300: 402c 883c 021c 323c 82de 1bbe e094 4b3d
00000310: 9706 f2bc a3bf 3ebc f2b1 c33d 30ff ef3d
00000320: 5d41 c4bd 32fd 9e3b 34b4 4abd 5031 9dbd
00000330: 6cc1 053d cd8f 983c f193 21bd 0af1 233d
00000340: b885 bfbd df7c c33d 051d b4bd a736 afbd
00000350: 4fac c23d 403b 093d 94d8 50bb 393e bf3d
00000360: 32af b73d 6283 c7bb a5cb 193d 0d26 bbbc
00000370: e436 b3bc d016 96bc 6092 4a3d f924 fb3c
00000380: fd6e 3d3d d2a5 10bd bba9 923d cac5 6d3d
00000390: fcf9 84bd b665 9c3d 160b 52bd 8ae3 b9bc
000003a0: d5ff 643d 0df7 0dbb b1dd 5d3d b582 c03c
000003b0: 602a c4bd 6cec 043e 7f95 2a3e 76a1 48bd
000003c0: 49b9 16bd a208 623c 7596 af3c 6ad9 ab3d
000003d0: e5e1 88bb 3342 973d 41e2 84bc 6532 1e3d
000003e0: 37d3 f6bd 4e6a b4bd ce1f 21be fe94 1bbd
000003f0: 3436 893d a3ba 95bb 6c16 8fbc c3ac c13c
-0.051524054 -0.14312394 -0.053716265 0.014537555 0.026025021 0.042815745 -0.07519905 -0.13469288
-0.02395351 -0.059363287 0.11506212 -0.19479954 -0.006498309 -0.053669494 0.01641362 0.01453292
0.068144895 -0.039003704 0.15123126 -0.06748566 -0.090368785 -0.121754676 0.038321335 -0.052815586
0.017742684 -0.05656615 0.14313568 -0.0034492915 -0.05612051 -0.060415186 -0.013472382 -0.0045006685
0.01592496 0.108929455 0.042611692 -0.06203865 0.034651686 -0.06737035 0.09348464 0.032464735
-0.00942204 0.05604593 0.009862928 -0.025358684 -0.088080406 0.025480725 0.08185392 0.017846575
-0.058147255 0.05589826 0.04691517 0.016962161 -0.11225883 -0.06074069 0.09384956 -0.12693568
0.006311437 0.07073795 0.0088704415 -0.009056392 0.046099134 -0.051024977 -0.0011928926 0.027817512
-0.095269635 0.0068406616 0.11827115 -0.09108134 -0.061086524 0.007618689 0.01627544 -0.09875615
0.042173903 0.005992952 0.054953407 0.058061715 0.05634229 0.029807243 -0.025463281 0.097975
0.009311262 -0.022486297 0.16690415 -0.12893155 0.06452522 -0.09395986 -0.0008573507 -0.04101995
-0.12632646 0.039580684 -0.10368914 -0.1191233 0.043757536 -0.01385253 -0.051249925 -0.041978743
-0.07743379 0.002248969 -0.015835378 -0.043899596 -0.051074326 0.09998077 -0.16551869 -0.028558223
0.038934425 0.0099476315 -0.061248615 0.023511322 -0.0733787 -0.09027981 0.08173695 -0.06563468
-0.03892424 -0.036147106 -0.04649194 0.15378243 -0.010729861 0.10047002 0.03126841 -0.032033727
0.0012186785 0.03694491 -0.008748388 -0.047002606 -0.041286726 0.054091945 -0.02310254 -0.06687425
-0.039191984 -0.03344804 -0.023991438 -0.0007106285 -0.024880556 -0.021154305 0.0075788954 -0.037580647
0.12637806 -0.05085963 0.059985764 0.08528452 -0.16438502 -0.07188916 -0.028506892 0.010139178
0.016555322 -0.033287887 0.123341344 0.14842883 0.010912683 -0.008610472 0.055676684 -0.047996394
0.13794012 -0.069240466 0.008719856 -0.0723699 0.18602619 0.06186671 -0.08331887 0.041841786
-0.1050066 -0.054589596 -0.0010177578 -0.00024150673 0.0058506825 -0.018595377 0.06690207 0.08029942
0.11559163 -0.07387172 0.050436802 -0.032588962 0.023692138 0.10409425 0.07505387 -0.048548
-0.088342495 0.00859238 -0.1125608 -0.06924045 -0.03705929 0.1259928 -0.028063131 0.06747512
-0.14096059 8.917712e-05 0.027721502 -0.07932433 0.00032455276 0.023361843 -0.10709959 0.19086361
0.016622663 0.010870935 -0.15221599 0.049702525 -0.029544158 -0.011642369 0.09555425 0.11718595
-0.095827796 0.0048519606 -0.04948826 -0.07675421 0.032655165 0.018623257 -0.03944773 0.040024795
-0.09351677 0.09545302 -0.087945975 -0.08555346 0.095055215 0.03350377 -0.0031867372 0.0933804
0.08968963 -0.00608866 0.037547726 -0.022845292 -0.02187676 -0.018321425 0.049456 0.030657278
0.046248425 -0.03531439 0.0716128 0.058049954 -0.06492993 0.07636587 -0.051280104 -0.022691507
0.055908043 -0.0021662146 0.0541665 0.023499826 -0.09578395 0.12980813 0.1665859 -0.048982106
-0.036797795 0.013796004 0.021434048 0.08391078 -0.0041773194 0.073856734 -0.016221168 0.03862228
-0.12052005 -0.088093385 -0.15734789 -0.037983887 0.066997916 -0.004569368 -0.017466746 0.02364195

selfattentionLayer.ScaledDotProductAttention.fc_k.bias f4 [384]
00000000: 1ece 2c39 dba7 11b9 4249 0c39 a380 6d39
00000010: b3a7 65b9 0a90 9038 ae85 79b9 5df6 e339
00000020: 1dcc ebb8 45ee 6e39 3eec cc38 ce70 05b9
00000030: fb26 3139 242d edb8 2c2a 8db9 404d 9db9
00000040: 7e85 3039 3990 a0b7 bbe2 1bb9 01d1 eb38
00000050: 092d af37 981b a338 7482 8338 93e2 02ba
00000060: e31c 11b7 bf2f c6b9 3def 8739 17c3 a4b8
00000070: abad c2b8 5d29 6339 e92f 103a 34c2 5cb8
00000080: 169b 1cb9 8bb1 fc38 c6f0 9635 64e0 0db9
00000090: 40f1 34b6 b827 1639 50fc 2ab9 ca0d 36b9
000000a0: d3d7 8f39 e8d8 06b9 8b0a 12b7 6ef1 a037
000000b0: eeea 3e38 e5f3 8338 d37c 9038 5162 8eb9
000000c0: 098c e4b8 81ba 1db8 ab20 5e39 0cd0 6338
000000d0: 9117 d838 8b6c 3e37 4164 21b9 5866 43b9
000000e0: 8404 ffb8 45bd 8139 5d60 a5b9 7ce5 cc37
000000f0: abf2 b8b6 638c eb38 c496 6b38 31dd 8239
00000100: 1b9f 1bb7 aa5f 0db7 9ad4 a2b8 2847 1736
00000110: 0bfb a1b8 d73b 17b9 f818 4eb8 9ede 18b7
00000120: c345 cbb7 3ca9 8cb8 1d06 01b8 fa32 ebb8
00000130: 4cc9 79b8 cc03 2238 0142 8c38 8a62 e738
00000140: 2b7c 88b9 6dba 3238 14df 5d38 4abc 2539
00000150: b070 9e38 397d 89b8 b7a2 5d37 7014 9838
00000160: 8a9c ee38 4bbf d837 1d88 5a38 79c0 05b9
00000170: e0b0 30b8 d9df 0e39 3635 ac37 d67c 55b7
00000180: 42f9 0a39 92c9 94b8 6415 6ab6 fcdb 33b8
00000190: 6861 ba38 3a76 ea38 0c02 b2b8 0a6d 3db7
000001a0: 9273 dbb8 424a e5b8 0d1a 62b7 3381 b9b7
000001b0: d460 f2b6 779b 03b8 ba21 eb37 a127 bdb8
000001c0: 5c36 c1b7 0f00 8038 5dc5 c9b8 708c 8138
000001d0: b61c 2b38 7ca6 44b8 0f45 37b8 92ee 8f38
000001e0: 334e 80b6 bcf5 3f39 48c0 c3b7 485c 09b8
000001f0: f20e 58b8 e943 d837 f6f6 2438 5bcd f1b8
00000200: 804b 84b8 0a4d 03b6 1e57 6338 3926 d537
00000210: 84fa 99b7 36c6 beb7 4dc8 ff37 65bb 89b8
00000220: aaa0 a3b8 6a91 dbb7 704e d9b7 55d3 b338
00000230: 16a9 47b8 e505 27b8 9ca4 ba36 9cc9 47b8
00000240: e2cb aab8 4609 5db7 1a6d 3538 0535 8937
00000250: e6ec 61b8 413e c538 8d5e cd38 edd1 c9b6
00000260: 42ed 3538 fd9c 9438 886b a7b8 0456 e537
00000270: f1cd b9b6 86b3 8a38 619c 1438 0978 fab5
00000280: c11e 5bb6 e71f b438 9a07 0a38 05cc 92b8
00000290: ac5e f9b7 ddb5 82b8 5f41 08b8 6963 7c38
000002a0: cfb1 3bb8 23af 0439 b356 95b8 f3f1 ef37
000002b0: 435a dab8 3981 0738 bf29 7bb8 6c42 5eb8
000002c0: 4f05 1cb8 6a9e b438 2743 1337 892a b6b8
000002d0: 0a2b 4937 b124 4737 e4f5 6338 5cf8 acb7
000002e0: 8c8b 9e37 29a8 78b8 1eb7 4238 b4d5 a438
000002f0: ff67 93b7 b303 1538 feb9 7c38 2858 b538
00000300: 90a9 38b7 a1ea 1fb7 997d 7bb8 a057 14ba
00000310: a196 6037 1c00 5937 1d9d 9a39 a447 c4b9
00000320: 40f2 efb8 c7ac 10b9 46ca 8539 50e7 a138
00000330: 13c2 9539 f4ee 5137 3eea 5539 d37b b937
00000340: 5503 85b9 a606 1c39 9df3 d038 71cd f538
00000350: 9ebe 9638 b4de 06b9 458b 73b8 7808 7e39
00000360: ba4e 9d39 a9f6 ff37 2884 56b9 6512 d8b8
00000370: f45e a439 cc45 adb8 b940 ebb8 ea30 ceb8
00000380: c251 bd39 afd7 de38 2d3e 3838 d522 9d37
00000390: e50c 1139 bec1 3638 b876 1339 4308 8739
000003a0: a4af 5b38 a65c d737 2a1f cbb8 e5e0 5239
000003b0: b663 91b8 7967 ba38 1e90 90b9 f41e a2b6
000003c0: 504b 4439 8b23 0738 4591 9eb9 1ae9 c1b9
000003d0: 8e5b ca36 7ff9 8a38 7eb4 d8b8 285a 1438
000003e0: e530 ecb8 cea1 8537 528b b1b8 76d5 a6b6
000003f0: d42f b837 1bc9 13b9 bbbe d5b8 79ca 9eb8
0.00016479983 -0.00013890809 0.00013378731 0.00022650002 -0.00021901615 6.8932844e-05 -0.0002379629 0.0004348037
-0.00011243692 0.00022786211 9.7714816e-05 -0.00012725891 0.00016894557 -0.00011309449 -0.00026925036 -0.0003000293
0.00016834398 -1.9140645e-05 -0.00014866416 0.00011244603 2.0882597e-05 7.7775854e-05 6.2708656e-05 -0.00049928686
-8.649399e-06 -0.00037801077 0.00025927453 -7.856468e-05 -9.282989e-05 0.00021663816 0.0005500303 -5.2632953e-05
-0.00014935093 0.00012049366 1.1245945e-06 -0.000135304 -2.6962516e-06 0.00014319911 -0.00016306457 -0.0001736201
0.00027435887 -0.0001286004 -8.704733e-06 1.918591e-05 4.5518325e-05 6.291996e-05 6.8897054e-05 -0.00027157602
-0.00010897971 -3.7605412e-05 0.0002118374 5.4314776e-05 0.00010304072 1.1350155e-05 -0.00015391504 -0.00018634775
-0.000121601886 0.00024745814 -0.0003154305 2.4425557e-05 -5.5118776e-06 0.00011231822 5.6168778e-05 0.00024960333
-9.275765e-06 -8.426528e-06 -7.764362e-05 2.2542172e-06 -7.723839e-05 -0.00014422774 -4.913748e-05 -9.111738e-06
-2.4231971e-05 -6.7072426e-05 -3.076169e-05 -0.00011215168 -5.95537e-05 3.8627346e-05 6.6880144e-05 0.00011033293
-0.00026032454 4.261213e-05 5.2898264e-05 0.0001580577 7.555017e-05 -6.5559936e-05 1.32105115e-05 7.2517316e-05
0.00011377882 2.5838284e-05 5.2102016e-05 -0.0001275557 -4.2126398e-05 0.00013625565 2.0528776e-05 -1.2724855e-05
0.00013253561 -7.094735e-05 -3.4881168e-06 -4.2881802e-05 8.8873145e-05 0.00011180011 -8.488083e-05 -1.12906655e-05
-0.000104642604 -0.000109334025 -1.3476715e-05 -2.2113882e-05 -7.2234343e-06 -3.137762e-05 2.8029888e-05 -9.019604e-05
-2.3032706e-05 6.1035265e-05 -9.621189e-05 6.177358e-05 4.0796316e-05 -4.6885092e-05 -4.3694916e-05 6.8632085e-05
-3.823801e-06 0.00018306723 -2.333535e-05 -3.274929e-05 -5.1512332e-05 2.578083e-05 3.9330647e-05 -0.00011530026
-6.3083135e-05 -1.9565364e-06 5.420215e-05 2.5409377e-05 -1.8355677e-05 -2.2742064e-05 3.0491641e-05 -6.567574e-05
-7.802372e-05 -2.6174548e-05 -2.5904941e-05 8.574749e-05 -4.760277e-05 -3.9821392e-05 5.562395e-06 -4.763306e-05
-8.144208e-05 -1.3174786e-05 4.325537e-05 1.6356362e-05 -5.386481e-05 9.405288e-05 9.792773e-05 -6.0147054e-06
4.3374726e-05 7.086431e-05 -7.98321e-05 2.7338981e-05 -5.5374044e-06 6.6137916e-05 3.543159e-05 -1.8661386e-06
-3.2651444e-06 8.589011e-05 3.2908843e-05 -6.999824e-05 -2.9727198e-05 -6.232758e-05 -3.248581e-05 6.0174065e-05
-4.474987e-05 0.00012653744 -7.121023e-05 2.8603687e-05 -0.000104118626 3.2306856e-05 -5.9881942e-05 -5.2990785e-05
-3.7198242e-05 8.612576e-05 8.777518e-06 -8.686359e-05 1.1990554e-05 1.1869867e-05 5.435002e-05 -2.061965e-05
1.890005e-05 -5.928442e-05 4.6423746e-05 7.859935e-05 -1.7572193e-05 3.5527813e-05 6.02547e-05 8.647173e-05
-1.1006734e-05 -9.531767e-06 -5.9960035e-05 -0.0005658809 1.33865115e-05 1.2934233e-05 0.00029490227 -0.0003743741
-0.00011441531 -0.00013797275 0.00025518442 7.7201636e-05 0.0002856409 1.2513006e-05 0.00020400525 2.2111379e-05
-0.0002537022 0.00014879796 9.9635894e-05 0.00011720777 7.1880626e-05 -0.00012862199 -5.806542e-05 0.00024226482
0.0003000403 3.0513229e-05 -0.00020457862 -0.00010303109 0.00031351263 -8.2622835e-05 -0.00011217729 -9.8319564e-05
0.00036109803 0.00010625959 4.3926924e-05 1.8732078e-05 0.00013833081 4.3572618e-05 0.00014063239 0.00025755362
5.2377247e-05 2.567314e-05 -9.685599e-05 0.0002011094 -6.9327114e-05 8.8884444e-05 -0.00027573196 -4.8315796e-06
0.00018720073 3.221961e-05 -0.00030244343 -0.00036985503 6.0307275e-06 6.626825e-05 -0.00010333302 3.5369914e-05
-0.00011262464 1.5930182e-05 -8.465968e-05 -4.9720356e-06 2.1956781e-05 -0.0001409393 -0.00010192158 -7.5717406e-05

selfattentionLayer.ScaledDotProductAttention.fc_v.weight f4 [384, 64]
00000000: 1674 10bd 10b8 acbd 07de 50bb 2067 343d
00000010: 8528 0a3c 3c60 ecbc 2221 31bd c33d a6bc
00000020: b803 83bc dc86 edbb 92ca 61bd 2d27 a73d
00000030: cd85 263e f0cf b2bd 9f97 b4bc b6e2 423d
00000040: 3c71 8a3d 2c03 943d e2f8 dd3d 5efe bbbd
00000050: e4c6 923c 3adf 7abc ecf5 a03b e680 80bd
00000060: 5778 0a3c a0b8 98bd 8706 f83d 69de 92bd
00000070: 427a b33d 3d36 503b aa02 d6bc d006 c13c
00000080: 543e 08bd e445 79bb 45d1 9cbd 716b 9a3d
00000090: 046a 9bbd 0c3c 69bc f531 9f3b 2468 9d3d
000000a0: eb0f 4e3d 6590 823c 0866 f73b 6946 103d
000000b0: 5ac6 cf3c 633b 893c 4ae9 013d ac79 de3b
000000c0: 64df bf3d 514a 3cbe f0f4 3dbc a947 93bc
000000d0: 8beb 8c3c 5814 4dbc 4142 9e3d ed92 a53d
000000e0: 5037 363d 2844 943d 5a12 e0bb 8abe 7cbc
000000f0: a1a7 0cbc 25e3 c93d bd67 5d3d c3c4 9e3d
00000100: 890e 3abc 5c76 043d 8f69 bf3b 17cb a73d
00000110: b8c5 50bd fdab 503c 3226 0ebc 08ec d1bc
00000120: 144c 2abc ff60 51ba 01ef ccbd 56bb 303e
00000130: f707 103e a4ea f9bd 2982 253d 9f23 62bd
00000140: 6d14 433d 3b41 d63b 692a ae3c f2aa ebbd
00000150: 18ac aa3b e95e e53c 7fa7 123e 7953 f2bd
00000160: a4b5 10bd d34a 853d 732a e63a db96 fe3c
00000170: 0b19 fbbd 9827 0a3d 0b2c b0bb 45b0 be3d
00000180: 6523 483d 5cad 703d 90d0 563c 075e 9d3d
00000190: 581d 6dbc ef3d e3ba 4aaa 38bc 9912 40bd
000001a0: 0679 1e3d b2bd aabb c2ac 363d 6691 9bbd
000001b0: 458e d13c 5030 8d3d 6255 8e3b fb97 4bbc
000001c0: cd1f 283e 2115 353b 33bb 22bc 2e6b 63bb
000001d0: c6aa 433b 2d89 273d 62cc ad3d b01d 19bd
000001e0: 08e3 2e3d 8e65 5a3e 74c8 89bd dbfb 9a3d
000001f0: 5824 a63c 394c debc 1886 06be 5ca4 d6bc
00000200: b2b2 6cbc 36d1 883d 302a 663d 2765 073d
00000210: e7f3 dcbc c4b6 b13d 3150 d53d ad92 983d
00000220: 2c17 15bd 3414 89bd fe54 9c3d 7998 c63d
00000230: 9f7a 163b 64af 9d3b ca61 173e 5e51 4ebc
00000240: 012a 2fbd ddea e73c 886e 32bd 0e7f 633d
00000250: 22c7 16be d22d 573d cb8a 5b3d 48c7 24bd
00000260: c6ef d43d 09a4 bfbc a6cb a13d 28f3 82ba
00000270: f188 333d 4959 6f3c 8109 cf3c 8b78 b6bd
00000280: b330 0c3d 7519 853d b185 bb3d 31f4 06bc
00000290: bd45 643d ee15 6ebd 4f1c ba3d 2e21 36bc
000002a0: df67 3dbd 54cc 25bd d7ff 3abd 3bdf 123e
000002b0: df93 1e3e 09de 643c 2828 30ba f7d2 efbb
000002c0: e05c 4f3d a02e 663c d51c fd3c 095d bbbc
000002d0: aa45 cb3c f663 f5bc 13c7 673d c831 9b3d
000002e0: 4cc7 a9bd 72d8 d7bd 0648 78bc b9b7 f2bd
000002f0: 147c 903d f747 733c d3ec b5bd 4cb5 10bb
00000300: 350b d13b adbf 91bd 315c 533c 4a76 c63c
00000310: 90f4 a93d e357 963b cdd4 8bbc e2b4 8e3c
00000320: 090c f13c bfcf 08bc dc86 e63c 41b6 023d
00000330: a208 40be 0df2 313d fcf8 27bd 17c3 1cbe
00000340: 93ee 6c3d 8018 42be be3b ff3a afc2 69bd
00000350: b675 063e a47d 61bd a055 c73c 2f3a a23d
00000360: dc64 eb3c d31f b6bb 5006 bbbd 4248 b53d
00000370: 8dc7 e83d 0323 a73d b178 033e c2a6 803d
00000380: 78ba e4bc 59db 9ebc 11c9 023d 60f8 b5bd
00000390: 4b73 1e3d 3608 f73d bfbb 7bbc 667a 553d
000003a0: 9e1c 033d ed9b 803d 1781 a93c 1b05 a8bd
000003b0: 7ac5 85bd 2eab 01bd 4e37 7fbd 4862 84bd
000003c0: 84cb eabd af3c f43c 6191 afbd 459f 2b3d
000003d0: 7834 3e3d 5baa 1c3c 29ae 99bd 4c01 153d
000003e0: b96c d83c a6f6 623b 3d67 263d 5987 78bb
000003f0: d8bb c33b b9ef 4c3d 8dfa b6bd 6664 b63d
-0.03526696 -0.08433545 -0.003187062 0.04404366 0.008432512 -0.028854482 -0.04324449 -0.020293122
-0.015992984 -0.0072487425 -0.055124827 0.08161769 0.16261978 -0.08731067 -0.022044955 0.04757949
0.06759879 0.072271675 0.10838486 -0.09179376 0.017917104 -0.01531201 0.0049121287 -0.062745854
0.008451543 -0.074570894 0.1211062 -0.071713276 0.08763553 0.003177061 -0.026124317 0.023562819
-0.033262566 -0.0038036043 -0.076571025 0.07540024 -0.0758858 -0.014235508 0.0048582503 0.07685879
0.05030815 0.015937993 0.007550005 0.0352234 0.025363136 0.01675195 0.031716622 0.0067894068
0.0936878 -0.18387724 -0.011594042 -0.017978506 0.01720216 -0.012517057 0.07727481 0.080846645
0.044486344 0.07239562 -0.006838125 -0.015426287 -0.008584888 0.098577775 0.05405401 0.07752373
-0.0113560045 0.03233944 0.005841441 0.08193033 -0.05096981 0.012736318 -0.008676099 -0.025625244
-0.010394115 -0.0007987171 -0.10006524 0.17258963 0.14065538 -0.12202957 0.040407334 -0.055209752
0.0476269 0.006538538 0.021260457 -0.115072146 0.0052085035 0.027999358 0.14321707 -0.118323274
-0.035329476 0.06508412 0.0017560258 0.031077793 -0.12260636 0.033729166 -0.005376344 0.093109645
0.04886188 0.05875908 0.013111249 0.0768395 -0.014472328 -0.0017337183 -0.011271069 -0.046892736
0.038689636 -0.0052106017 0.04459835 -0.07596092 0.025580535 0.068939805 0.0043436745 -0.012426372
0.16418381 0.0027631002 -0.009932327 -0.0034701335 0.0029856428 0.040902305 0.084862486 -0.037381828
0.042696983 0.21327803 -0.067276865 0.07567569 0.020281002 -0.027135955 -0.1313709 -0.02620142
-0.014446901 0.06680529 0.056192577 0.03305545 -0.02697177 0.08677438 0.10415686 0.07449851
-0.03639905 -0.066933066 0.076333985 0.096970506 0.0022961271 0.004812168 0.14783397 -0.012592642
-0.042764667 0.028310234 -0.043562442 0.05554109 -0.147244 0.052533932 0.05359916 -0.040229112
0.10397296 -0.023393648 0.07900171 -0.0009990679 0.04383177 0.01460869 0.025273087 -0.089097105
0.03422613 0.06498996 0.09156359 -0.008236931 0.05573057 -0.058126383 0.09087431 -0.011116309
-0.046241637 -0.040478066 -0.045654144 0.14342968 0.15486096 0.013968953 -0.0006719851 -0.00731885
0.050625682 0.014049202 0.030897537 -0.022871511 0.024813492 -0.029954892 0.056586336 0.075778544
-0.08289966 -0.105393305 -0.0151538905 -0.118514486 0.07054916 0.014848701 -0.08883061 -0.0022080718
0.00637951 -0.071166374 0.012900398 0.024226326 0.082986 0.0045881136 -0.017069245 0.017420236
0.029424684 -0.008350312 0.028140478 0.031912092 -0.18753293 0.04344373 -0.041008934 -0.15308796
0.05784471 -0.18954659 0.0019472761 -0.05707043 0.1313084 -0.05505146 0.024332821 0.07921254
0.028734617 -0.005557993 -0.091320634 0.08851673 0.11366186 0.08160975 0.12839009 0.062818065
-0.027920946 -0.019391702 0.031930033 -0.088852644 0.03868417 0.12062113 -0.015364586 0.05211868
0.032009713 0.062797405 0.020691438 -0.08204099 -0.06531806 -0.03165739 -0.062308602 -0.06464058
-0.11464599 0.029814092 -0.08572651 0.041899938 0.046436757 0.0095621 -0.075039215 0.03637819
0.02641903 0.0034631877 0.0406258 -0.003792247 0.0059733205 0.050033305 -0.089345075 0.08905868
